weights_ucb.pth (torch, 138071 bytes, 6 tensors)

fc1.weight f4 [256, 2]
0	0x3ef1fdd6	0.47263974
1	0xbee8a870	-0.45441008
2	0xbdef327c	-0.11679551
3	0xc0293e03	-2.64441
4	0xbe97aa93	-0.29622325
5	0x40a36d97	5.1071277
6	0x3fb398f7	1.4031056
7	0x400a7fc2	2.1640477
8	0x3d9f1b09	0.077688284
9	0xbf172677	-0.5904307
10	0xbe4ddbc8	-0.20103371
11	0xbfa12b02	-1.259125
12	0x3f239b98	0.6390929
13	0x4104bfe3	8.296847
14	0xbeaf91cb	-0.3429092
15	0x4031ad22	2.7761922
16	0xbf398318	-0.7246566
17	0xc02dfb02	-2.7184453
18	0xbddf558b	-0.10904988
19	0x40c7e5ef	6.246818
20	0xc01def35	-2.467725
21	0xc11189e6	-9.096167
22	0xbe07868b	-0.13234918
23	0xc109716a	-8.590189
24	0x3e48451e	0.19557616
25	0xbf0483ca	-0.51763594
26	0x3e07924c	0.13239402
27	0x40bc9198	5.8927727
28	0xbf81d4ca	-1.0143063
29	0x3f2a0a48	0.6642194
30	0x3e8601b2	0.26173168
31	0x40e00fe4	7.00194
32	0x3f839735	1.028052
33	0xc0eb39b0	-7.350792
34	0xbf202196	-0.6255125
35	0xbebdfdb9	-0.37107638
36	0x3f50562b	0.8138148
37	0xc113ac5f	-9.229583
38	0xbe2da564	-0.16957623
39	0xbfa1331e	-1.2593725
40	0xbe3c8aaf	-0.18412279
41	0x403fbe00	2.9959717
42	0x3d915d55	0.0709788
43	0x3fc1e0d4	1.5146737
44	0x3f1498d7	0.58045715
45	0x3f327c73	0.69721144
46	0x3d594e52	0.053053208
47	0x3cb7002c	0.02233895
48	0x3d7589ea	0.05994598
49	0xbf3796aa	-0.7171427
50	0xbe456297	-0.1927589
51	0x40ac9d59	5.3942075
52	0x3f08d308	0.5344701
53	0x40daec4f	6.8413463
54	0xbe032aee	-0.12809345
55	0x4113e592	9.243547
56	0xbeb28f3d	-0.34874907
57	0xbf4c9fe8	-0.799315
58	0x3fcba451	1.590952
59	0xbfe54385	-1.791123
60	0xbf023437	-0.50860924
61	0xc06cbda8	-3.6990757
62	0xbea8b098	-0.3294723
63	0xbeb8c4b9	-0.36087587
64	0xbe2b49b0	-0.16727328
65	0xbf9dd87e	-1.2331693
66	0xbedf211b	-0.43579945
67	0xc0ebe4cc	-7.3716793
68	0xbe169260	-0.14704275
69	0xbfe1556a	-1.7604191
70	0xbe22feb7	-0.15917479
71	0xbf551f4b	-0.83250874
72	0x3d96655f	0.07343554
73	0x40d71ee9	6.722523
74	0x400a6d07	2.1629045
75	0xc10edbc7	-8.928657
76	0x3fb3344f	1.4000338
77	0x403f53f2	2.9894986
78	0xbf0c6cc4	-0.54853463
79	0x406fdf1d	3.7479928
80	0xbe3c86eb	-0.18410842
81	0x40df0dfb	6.9704566
82	0x3f5213d6	0.8206152
83	0xc0175b50	-2.3649483
84	0xbde3f1be	-0.11130093
85	0xc0d2bc04	-6.585451
86	0x3e33f1a2	0.17572644
87	0x4087f1aa	4.24825
88	0x3f9b9f05	1.2157904
89	0x406291cc	3.5401487
90	0xbda56df0	-0.080776095
91	0x3f07ff76	0.5312418
92	0xbfa86170	-1.3154736
93	0xbf714062	-0.94238865
94	0xbd88c74f	-0.0667864
95	0xbf992e88	-1.1967325
96	0x3ffe1f1b	1.9853243
97	0xbdf7b7a0	-0.120955706
98	0x3f8014e2	1.0006373
99	0xbd90f6d6	-0.0707833
100	0x3f4af0c2	0.7927362
101	0x4117b0a8	9.480629
102	0x3ee8f9a6	0.45502967
103	0x4102edf0	8.18309
104	0xbe9691ab	-0.2940801
105	0x40bae1e8	5.8400764
106	0xbf16cd96	-0.5890745
107	0xbfef6a10	-1.8704243
108	0xbe0541a4	-0.13013321
109	0xbf672ebf	-0.90305704
110	0x3f772af9	0.96549946
111	0x4121f966	10.123388
112	0x3d4622c8	0.048373014
113	0xbd882505	-0.06647686
114	0xbf230274	-0.6367562
115	0xc0a0b24f	-5.021766
116	0x3f7e9926	0.99452436
117	0xbd478573	-0.04871125
118	0x3d959c9d	0.07305262
119	0xbfba755f	-1.4567069
120	0xbf677d32	-0.9042541
121	0xc052237c	-3.2834158
122	0xbf09f88b	-0.5389487
123	0x3c9d3e99	0.019194888
124	0xbd9cee95	-0.076626934
125	0xbfb7e0a5	-1.4365431
126	0xbf02739e	-0.5095767
127	0xc10198d9	-8.099816
128	0x3d6b8c45	0.05750682
129	0xbf646d56	-0.89229333
130	0xbf793f3e	-0.97362125
131	0xbfec51f3	-1.8462509
132	0xbe8a6fb7	-0.27038357
133	0xbde7956e	-0.11307798
134	0xbe6f8ed9	-0.23394336
135	0xbe25a427	-0.161759
136	0x3fc9f441	1.5777665
137	0x40f14f6f	7.5409465
138	0x3cf7880a	0.030216236
139	0x3dd74787	0.1051169
140	0xbf9ce7fb	-1.2258295
141	0xbffc5417	-1.9713162
142	0x3efdd29b	0.49574742
143	0x410250e5	8.14475
144	0xbc01fe15	-0.007934113
145	0x3f1b6e09	0.60714775
146	0x3d7c6742	0.06162191
147	0xc018c3d1	-2.3869517
148	0xbe188294	-0.14893562
149	0xbf98aafb	-1.1927179
150	0xbe7c9804	-0.24667364
151	0x40722331	3.783398
152	0xbeca4184	-0.3950311
153	0xc0bd2bac	-5.911581
154	0xbfcc789f	-1.5974311
155	0xc12ac28e	-10.672499
156	0x3bfd375b	0.007727546
157	0xc0febf95	-7.9608865
158	0xbec039ad	-0.37544003
159	0x40d38cea	6.6109514
160	0xbeba477c	-0.36382663
161	0x40103718	2.2533627
162	0xbef2068b	-0.47270617
163	0xc01b017b	-2.4219654
164	0xbd321789	-0.043479476
165	0x40a044be	5.0083914
166	0x3f153733	0.5828735
167	0x40d2355b	6.569013
168	0xbaa74de0	-0.0012764297
169	0xbd8b7469	-0.06809313
170	0x3f8664f5	1.049956
171	0x410a47c4	8.642521
172	0xbee3795c	-0.44428527
173	0xbfa7aa1e	-1.3098791
174	0x3f8def4d	1.1088654
175	0x3ea9a3dd	0.3313283
176	0x3cb13885	0.021633396
177	0x3f44cad4	0.7687199
178	0xbf38c7ef	-0.72180074
179	0xc10677cf	-8.40425
180	0x3d7ef323	0.062243592
181	0xbdb9ea1a	-0.090778545
182	0x3fe6d2e7	1.8033112
183	0x40ec907f	7.3926387
184	0xbe89d180	-0.26917648
185	0xbfd9dfc0	-1.7021408
186	0xbe372933	-0.1788681
187	0xbf97979b	-1.1843141
188	0xbd227b95	-0.03966864
189	0xbe85ee3d	-0.26158324
190	0xbe2344b0	-0.15944171
191	0x40a05a79	5.011044
192	0x3f0e6997	0.5562987
193	0x40f15d21	7.5426183
194	0x401c94ed	2.4465897
195	0xbed212ea	-0.41030055
196	0xbf32af1d	-0.6979845
197	0xbfa86a8a	-1.3157513
198	0xbdc859b5	-0.09782735
199	0xbf84f4a8	-1.0387163
200	0xbf02199a	-0.50820315
201	0x40018c32	2.0241818
202	0x3fcea8e7	1.6145295
203	0xc04c76ad	-3.1947434
204	0xbe755ea9	-0.23961891
205	0xbf8a998c	-1.0828109
206	0xbd23acc6	-0.03995969
207	0xbd83cc2a	-0.064354256
208	0x3f786baf	0.9703931
209	0xbe9604d2	-0.29300553
210	0x3d3ddfd7	0.04635605
211	0x3fd7e6c1	1.6867296
212	0xbf25a1a0	-0.64699745
213	0xbfda8be4	-1.7073941
214	0x3d0b30be	0.03398203
215	0xc1297995	-10.592183
216	0x3fc99690	1.5749073
217	0x406ce954	3.7017412
218	0xbf02f210	-0.5115061
219	0x3e5d0967	0.21585618
220	0x3f98dff4	1.1943345
221	0xc04edb40	-3.232132
222	0x3f9e4702	1.236542
223	0x3f3f0286	0.74613225
224	0xbe47bbc2	-0.19505218
225	0xc115c738	-9.361137
226	0x3f13536c	0.57549167
227	0x40a275c7	5.076877
228	0x3f32e2f3	0.6987755
229	0x410004ab	8.00114
230	0x3d076632	0.033056445
231	0xbf4ff873	-0.8123848
232	0xbf2e63ac	-0.6812084
233	0xbf49abed	-0.7877796
234	0xbf497dc9	-0.7870756
235	0xc0009806	-2.0092788
236	0x3eecfcef	0.46286723
237	0x402440d3	2.5664566
238	0xbd761358	-0.06007704
239	0xbf98ee53	-1.1947731
240	0xbf4fded2	-0.8119937
241	0x3e2f3ea0	0.17113733
242	0xbec502d0	-0.38478708
243	0x3f3a1bda	0.7269875
244	0xbeacd309	-0.33754757
245	0xc030c70f	-2.7621496
246	0xbe442d74	-0.19157964
247	0x405b1352	3.4230542
248	0x3f647ef6	0.89256227
249	0xc0a1b8a0	-5.053787
250	0xbf3b44ae	-0.7315167
251	0xc03f0c44	-2.9851236
252	0x3dc156a7	0.09440356
253	0x40c4fed5	6.1561074
254	0x3e9677ea	0.29388362
255	0x40d4a4ab	6.645101

fc1.bias f4 [256]
0	0x3ed8e5ea	0.4236291
1	0x3f147a9a	0.57999575
2	0xbe9d48ec	-0.30719697
3	0x3ed971a9	0.42469528
4	0x3e6ea49e	0.23304984
5	0x3eb1c001	0.347168
6	0xbe7b28c2	-0.24527267
7	0xbe1135a1	-0.14180614
8	0x3ecc633d	0.39919463
9	0xbe5aecd9	-0.21379413
10	0xbf4c81f2	-0.7988578
11	0xbe0f0f8a	-0.13970771
12	0xbe0c578a	-0.13705269
13	0xbe3ab2ab	-0.18232219
14	0xbf575285	-0.8411029
15	0xbe52dc3f	-0.2059183
16	0x3f84bbca	1.0369809
17	0x3c494bce	0.01228614
18	0x3eb41e0b	0.3517917
19	0x3f0d83dc	0.55279326
20	0xbd750649	-0.059820447
21	0xbde4f4e1	-0.111795194
22	0x3ecb3f73	0.39696845
23	0xbd021115	-0.031754572
24	0xbd33739a	-0.043811418
25	0xbe8c9066	-0.27453917
26	0xbe5205c9	-0.2051002
27	0xbdd98a3d	-0.1062207
28	0xbf05ebd6	-0.5231298
29	0x3e40556c	0.18782586
30	0xbedf0185	-0.43555847
31	0xbda9d949	-0.08293397
32	0x3ee7df20	0.45287418
33	0xbed2c650	-0.41166925
34	0x3ef86e17	0.48521492
35	0x3e6a3032	0.22869948
36	0xbe5d1c1e	-0.21592757
37	0x3f2186d1	0.6309634
38	0x3c8193cf	0.015817551
39	0xbefc0e39	-0.492296
40	0xbe8757c5	-0.2643415
41	0xb995a2ac	-0.00028540695
42	0x3e5cd452	0.21565369
43	0xbdfea563	-0.12433889
44	0x3ed9e5ef	0.42558238
45	0xbe024759	-0.1272253
46	0xbed548d7	-0.41657135
47	0x3ea428c6	0.32062358
48	0x3ea84eb3	0.32872543
49	0xbc407b38	-0.011748128
50	0xbe94f928	-0.2909634
51	0xbe6b242f	-0.22963022
52	0xbe99bb8f	-0.30025908
53	0x3d9507a9	0.07276852
54	0x3edcc8f4	0.43122065
55	0xbea8a53e	-0.3293857
56	0xbd021657	-0.031759586
57	0xbed16652	-0.40898377
58	0x3ee5b946	0.44867915
59	0xbdbc5f61	-0.091978796
60	0x3eff1624	0.4982158
61	0x3ea7a97e	0.327465
62	0x3dec5432	0.115394965
63	0xbea19f5f	-0.31566903
64	0xbd8215b9	-0.063517995
65	0x3e48584b	0.19564931
66	0x3e52af3d	0.2057466
67	0xbe0ddfe5	-0.1385494
68	0xbf0370f3	-0.5134422
69	0xbcdc6a6b	-0.026906213
70	0x3e3b18a3	0.18271117
71	0xbe693511	-0.2277415
72	0xbda38b42	-0.07985546
73	0xbe153b9f	-0.14573525
74	0x3efdcd1d	0.49570552
75	0xbe3a5e12	-0.18199947
76	0xbec6d077	-0.3883092
77	0xbf39cbba	-0.7257649
78	0xbdcbbc0f	-0.09947979
79	0xbe8786bb	-0.2646998
80	0xbe239b0f	-0.15977119
81	0x3cd2defc	0.025741093
82	0x3d6074bc	0.054798827
83	0x3d3876d9	0.045035217
84	0xbc016c08	-0.007899292
85	0xbdc4e01f	-0.0961306
86	0x3e8bb59e	0.27287
87	0x3efb6e00	0.4910736
88	0xbda417ef	-0.080123775
89	0xbe9d2cbc	-0.30698192
90	0xbd820930	-0.063494086
91	0xbf1ab0f2	-0.6042625
92	0x3ee4f9ea	0.4472192
93	0x3d7e083e	0.06201958
94	0x3f04c9a3	0.51870173
95	0xbe2f0073	-0.17090015
96	0xbe61b4f3	-0.22041683
97	0x3eb0451f	0.34427735
98	0x3d290e1d	0.041273225
99	0x3dc4211c	0.095766276
100	0xbef71dd8	-0.48264956
101	0x3e592434	0.21205217
102	0x3ea8c786	0.32964724
103	0xbdb1d5e9	-0.08683378
104	0x3ed2c847	0.41168424
105	0x3eca5e99	0.39525297
106	0x3db058fa	0.08610721
107	0x3ea9903e	0.3311786
108	0x3e5c3210	0.21503472
109	0x3e4e73ec	0.20161408
110	0x3f1ac0b5	0.604503
111	0x3eeb22ab	0.45924887
112	0xbe835a8b	-0.25655016
113	0x3e9503f1	0.2910457
114	0xbe80e217	-0.25172493
115	0x3cdeaaf1	0.02718112
116	0x3ebd7256	0.37001294
117	0xbf2d0d47	-0.67598385
118	0x3eab6f65	0.33483425
119	0x3ea1178c	0.31463277
120	0x3e8b4515	0.27201143
121	0xbef22b62	-0.47298723
122	0x3e63aeea	0.22234693
123	0xbd8d461d	-0.06898139
124	0x3f1dc8d2	0.6163455
125	0x3e2c2104	0.1680947
126	0xbe2edfbd	-0.17077537
127	0xbe422095	-0.18957742
128	0xbdeb2099	-0.11480827
129	0xbd64f93a	-0.055901743
130	0x3ebcbde6	0.3686363
131	0x3e3f68cd	0.18692322
132	0xbd103be9	-0.035213385
133	0x3f051874	0.5199044
134	0xbe9be2a4	-0.3044635
135	0x3f0abf27	0.54197925
136	0xbf0cb07e	-0.54956806
137	0xbe371e9e	-0.17882773
138	0xbdfa7877	-0.12230008
139	0xbe622d1b	-0.22087519
140	0x3d22ced3	0.039748024
141	0x3e2c23f7	0.16810594
142	0xbf3d80f5	-0.740249
143	0x3ef8af5e	0.48571295
144	0xbf36919c	-0.7131593
145	0x3deb4e7c	0.11489579
146	0xbee16f48	-0.44030213
147	0xbf11ee6a	-0.57004416
148	0xbdae94e1	-0.0852449
149	0x3e916c73	0.28403053
150	0xbe720143	-0.23633294
151	0xbefb83ea	-0.4912408
152	0x3e2132fc	0.15742105
153	0xbd2c4bfc	-0.04206465
154	0xbd9fb7d2	-0.07798733
155	0x3f0a316d	0.5398167
156	0xbed1f9f6	-0.41011018
157	0x3d6f8150	0.05847293
158	0xbe549fbf	-0.20764063
159	0x3dce7cd0	0.100824
160	0x3eb25a21	0.34834388
161	0xbd709730	-0.058737934
162	0x3edda9e8	0.4329369
163	0x3d973c8a	0.07384594
164	0x3f179027	0.59204334
165	0x3f103fe6	0.563475
166	0xbe6684aa	-0.22511545
167	0xbef37e1e	-0.47557157
168	0xbcdcabd7	-0.026937408
169	0x3f089f3e	0.53367984
170	0xbe8475a2	-0.25870997
171	0x3e23ce38	0.15996635
172	0x3e63266f	0.2218263
173	0xbb03118e	-0.0019999477
174	0x3e8e9515	0.27848116
175	0xbe1ea9d6	-0.15494475
176	0x3dbec663	0.09315183
177	0x3e7f1e67	0.24913941
178	0x3e50fc2d	0.20408697
179	0x3dd81c6c	0.10552296
180	0xbe33b8a3	-0.17550902
181	0xbecf83e6	-0.40530318
182	0xbe6670bf	-0.22503947
183	0x3e988ae9	0.2979348
184	0xbe3ae0c3	-0.18249802
185	0xbe88ba4c	-0.26704633
186	0xbdb8cc32	-0.09023322
187	0x3f02a6d7	0.5103583
188	0x3ef5de54	0.48021185
189	0x3e654669	0.2239014
190	0xbd82194c	-0.06352481
191	0x3e6c8ca7	0.2310053
192	0x3e9b727c	0.30360782
193	0x3ec9969b	0.39372715
194	0x3e98724e	0.29774708
195	0xbd975ae3	-0.07390382
196	0xbe7d392e	-0.24728844
197	0x3ea7c609	0.32768276
198	0xbe6fd4cb	-0.23421018
199	0xbe84d0c7	-0.25940534
200	0xbcaf04d9	-0.021364616
201	0x3efd8f16	0.49523228
202	0xbe6dfd3d	-0.23241134
203	0x3e9c9e1f	0.30589387
204	0x3e28104c	0.16412467
205	0x3d82bed3	0.06384053
206	0x3ef1677b	0.47149262
207	0xbe9e1923	-0.30878553
208	0x3d38a9e8	0.04508391
209	0x3e693c83	0.2277699
210	0xbecf2fc4	-0.4046613
211	0x3f301d2d	0.6879452
212	0xbe740ea7	-0.23833714
213	0xbf07cfc7	-0.5305142
214	0x3e8b0644	0.27153218
215	0x3ef99529	0.48746613
216	0x3e586455	0.21132024
217	0xbdb2c0b4	-0.087281615
218	0xbe7d1dbc	-0.24718374
219	0x3e61bf43	0.22045617
220	0xbe28ca81	-0.16483499
221	0xbeb527eb	-0.35382017
222	0xbdf95485	-0.12174324
223	0xbe1939ed	-0.14963503
224	0x3f1a8854	0.6036427
225	0xbe05537f	-0.13020132
226	0xbde76f25	-0.11300496
227	0xbdef4cc7	-0.11684566
228	0x3e53649a	0.20643845
229	0x3ed41ac6	0.41426677
230	0x3e9450d3	0.28967914
231	0xbe00836b	-0.12550132
232	0xbf048ed6	-0.5178045
233	0xbd8ad849	-0.06779534
234	0xbdeeef83	-0.11666777
235	0xbe5f940e	-0.21833822
236	0x3d804971	0.06264008
237	0xbea60a4d	-0.32429734
238	0x3e97c90b	0.2964557
239	0x3e9d9c0f	0.30783126
240	0x3e1da117	0.15393482
241	0xbe3654a0	-0.1780572
242	0x3e6cc83f	0.23123263
243	0xbef01b19	-0.46895674
244	0x3e9c44d6	0.30521268
245	0x3dcc6e01	0.09981919
246	0x3f1712a3	0.5901281
247	0xbe1516f1	-0.14559533
248	0x3d1d55e2	0.038411982
249	0xbeb5af51	-0.35485318
250	0x3e9e7422	0.30947977
251	0xbc7b48d7	-0.015337191
252	0xbf195ad0	-0.59904194
253	0xbe6b6f51	-0.22991683
254	0xbe4ab0fc	-0.19794077
255	0xbd883539	-0.066507764

fc2.weight f4 [128, 256]
0	0x3d3ed48c	0.04658942
1	0xbce12042	-0.027481202
2	0xbc289ef7	-0.010291806
3	0xbdaf6781	-0.08564664
4	0xbac2b9c9	-0.0014856394
5	0x3d06736d	0.032824922
6	0xbcf8ce14	-0.030371703
7	0xbe128c80	-0.14311409
8	0xbda96ae2	-0.082723394
9	0x3d1d91b2	0.038469024
10	0x3dc51098	0.09622306
11	0xbdc031b2	-0.09384479
12	0x3b53e509	0.003233256
13	0x3dce1fc9	0.10064656
14	0x3e23248b	0.15931909
15	0x3e0b748d	0.1361868
16	0xbe3df1fd	-0.18549342
17	0xbd5b1c14	-0.053493574
18	0xbd811cae	-0.06304298
19	0x3d435ef9	0.047697995
20	0xbd477ebc	-0.048704848
21	0xbdc6c32e	-0.09705196
22	0x3de14406	0.109993026
23	0xbd42e921	-0.04758561
24	0x3d4584a3	0.048222195
25	0xbdbcf4f3	-0.09226408
26	0xbdbc24b8	-0.09186691
27	0x3d8780e7	0.06616383
28	0xbb680a42	-0.0035406505
29	0xbd9ea8c6	-0.07747035
30	0xbe02e996	-0.12784418
31	0xbdfc0524	-0.12305668
32	0xbd69c891	-0.05707604
33	0xbc096333	-0.008385467
34	0x3cb344ea	0.021883447
35	0xbd7637cd	-0.06011181
36	0x3b69cbc0	0.0035674423
37	0xbda03507	-0.07822614
38	0x3d168dad	0.036756206
39	0xbe1030e3	-0.14081149
40	0x3cbbbe96	0.022918027
41	0x3c05d8d3	0.008169371
42	0xbd2f7d6a	-0.042844214
43	0xbdcff327	-0.101537995
44	0xbd1ca8df	-0.038246986
45	0xbb9f4d69	-0.004861523
46	0x3c55403d	0.013015804
47	0xbc660e87	-0.0140415495
48	0xbe2be29e	-0.16785666
49	0xbd887661	-0.06663204
50	0x3e79bec2	0.24389175
51	0xbb8b689a	-0.004254413
52	0x3e394fbd	0.18096824
53	0xbb3cfc6e	-0.0028836983
54	0xbdaf4e89	-0.08559901
55	0xbd9750d0	-0.07388461
56	0xbd59bbe5	-0.053157706
57	0x3c9962f7	0.018723948
58	0x3dd8a845	0.1057897
59	0x3e047f29	0.12939133
60	0x3d18431b	0.03717337
61	0x3d50218c	0.050813243
62	0xbcce4dfd	-0.025183672
63	0xbe0b0918	-0.13577688
64	0x3d853784	0.065047294
65	0xbe242d25	-0.16032846
66	0xbc9e039f	-0.019288836
67	0xbe3df326	-0.18549785
68	0xbc8189ed	-0.015812838
69	0x3d0bdf7b	0.034148674
70	0xbe30ada3	-0.17253737
71	0xbd9eff31	-0.07763518
72	0xbcca035f	-0.02465981
73	0xbb218398	-0.0024645086
74	0x3d0cc64d	0.0343688
75	0xbdbe2649	-0.09284646
76	0x3e0c8780	0.13723564
77	0xbdb8e989	-0.09028918
78	0xbd2842d9	-0.041079376
79	0x3c9d770a	0.019221801
80	0xbd700f3b	-0.058608275
81	0xbe3022c4	-0.17200762
82	0xbd614a35	-0.05500241
83	0xbde3804f	-0.11108457
84	0xbd753ffd	-0.059875477
85	0x3db22c3b	0.086998425
86	0x3e074af8	0.13212192
87	0xbbb2e585	-0.0054594898
88	0xbe116176	-0.14197335
89	0xbd26653a	-0.04062388
90	0xbbe296ba	-0.0069149407
91	0xbd9ce412	-0.076606885
92	0x3de83e2d	0.11339984
93	0xbe23d89a	-0.16000596
94	0xbdfcc306	-0.12341885
95	0x3d68053d	0.05664562
96	0xbd988541	-0.07447291
97	0x3a8621c9	0.0010233457
98	0xbd51cb7a	-0.05121944
99	0x3d673580	0.056447506
100	0xbe0983b1	-0.13429143
101	0x3d9dea32	0.07710685
102	0xbe14cd71	-0.14531495
103	0x3d705be9	0.058681402
104	0xbd8fbedb	-0.07018825
105	0xbe3948e6	-0.18094215
106	0xbe06afa3	-0.13152938
107	0xbe589cfa	-0.21153632
108	0x3bc74894	0.00608165
109	0xbdac7496	-0.084206745
110	0xbcb26696	-0.021777432
111	0x3d2a2f4c	0.041549012
112	0xbdcf8409	-0.101326056
113	0x3ce688b6	0.02814136
114	0xbc18c288	-0.009323724
115	0xbdfbc0c2	-0.12292625
116	0xbd8a43c6	-0.06751208
117	0x3d65fbf5	0.056148488
118	0xbd3667ff	-0.044532772
119	0x3c283761	0.01026711
120	0xbe538a9a	-0.20658341
121	0x3dac4af1	0.084127314
122	0xbd3b96b2	-0.04579801
123	0x3e1ba3b4	0.15199167
124	0xbd35a440	-0.044346094
125	0x3dcbe9c6	0.09956698
126	0x3d105544	0.035237566
127	0xbdce8d06	-0.10085492
128	0xbc522700	-0.012826681
129	0x3dff4c35	0.12465707
130	0xbd24b6bb	-0.040213328
131	0x3d102fd6	0.03520187
132	0xbdd2f28d	-0.10300169
133	0x3ba23862	0.004950569
134	0xbdb3c1f4	-0.08777228
135	0xbe18b4c0	-0.149127
136	0xbe16af70	-0.14715362
137	0xbce8e191	-0.028427871
138	0x3c9ed4ee	0.019388642
139	0xbe09e8c8	-0.13467705
140	0x3e0c3200	0.13690948
141	0xbdabed74	-0.083949
142	0x3cc4713d	0.023979777
143	0x3da969d1	0.08272136
144	0x3d8b12bd	0.067906834
145	0x3d15da14	0.03658493
146	0x3c86d423	0.016458577
147	0xbe1b35fa	-0.15157309
148	0x3bb6ca78	0.0055783354
149	0xbdebc7eb	-0.11512741
150	0xbdbea39e	-0.09308551
151	0x3d3fa250	0.046785653
152	0x3cd41eef	0.025893657
153	0xbd28efb0	-0.04124421
154	0x3e3a11f2	0.18170908
155	0x3d1dcfaf	0.03852814
156	0xbd428a0d	-0.047494937
157	0xbce9b312	-0.02852777
158	0x3cf7cc9e	0.030248936
159	0x3da019ee	0.07817446
160	0x3c8d8ef6	0.017280083
161	0x3d08d8c2	0.03340984
162	0x3d9c11bb	0.07620569
163	0xbd3fcd4d	-0.04682665
164	0xbd3120f4	-0.043244317
165	0xbce52d54	-0.027975716
166	0x3dc2c932	0.09511031
167	0xbcdbab06	-0.026814949
168	0xbd92a594	-0.07160488
169	0x3d6d696b	0.057961863
170	0x3d89bbda	0.06725283
171	0xbe1e1e74	-0.15441304
172	0xbcc1d0ae	-0.023659077
173	0xbe4163fb	-0.18885796
174	0xbd8a9bcb	-0.067679964
175	0x3dadf0b3	0.08493175
176	0xbd73962a	-0.05946938
177	0xbdea92e8	-0.114538014
178	0xbd9454b1	-0.07242716
179	0xbd83c5d5	-0.06434218
180	0xbc6e14b3	-0.014531302
181	0x3e22e1e5	0.15906484
182	0xbcfacb1b	-0.030614426
183	0xbd95ebf0	-0.07320392
184	0x3dfd3b51	0.12364829
185	0x3d7a0ddf	0.061048385
186	0x3d8f2a7e	0.069905266
187	0x3e5ab9f3	0.21359996
188	0xbd5dd0e4	-0.05415429
189	0x3cf281e7	0.029602958
190	0x3ddb4619	0.107067294
191	0xbd83e429	-0.064400025
192	0xbd842ab0	-0.064534545
193	0x3d743b3e	0.05962681
194	0xbd455c15	-0.04818352
195	0x3d4673bb	0.048450213
196	0xbe2e6046	-0.17028913
197	0x3d6b27f8	0.057411164
198	0x3d5d1236	0.053972445
199	0x3d9bd8db	0.07609721
200	0xbd35f6ca	-0.04442481
201	0x3d0330de	0.032029025
202	0xbda83e5d	-0.0821502
203	0xbc580c33	-0.013186502
204	0xbde70e59	-0.112820335
205	0xbc50570e	-0.012716068
206	0xbd07b1cc	-0.033128545
207	0x3cbeecb3	0.023306226
208	0xbded4cec	-0.11586937
209	0x3c643dd2	0.013930755
210	0xbc842357	-0.016130133
211	0xbd9e1729	-0.07719261
212	0x3cfc274d	0.030780459
213	0xbd8d7c56	-0.06908481
214	0x3d982bf2	0.07430257
215	0x3dcbf020	0.099579096
216	0xbd944887	-0.07240396
217	0x3c752158	0.014961563
218	0xbd239226	-0.0399343
219	0xbdb03a50	-0.08604872
220	0xbdcbfa8e	-0.09959899
221	0x3e07e4eb	0.13270919
222	0x3ca6e454	0.020372547
223	0xbbd2e95c	-0.00643651
224	0xbdc6fd33	-0.09716263
225	0xbc8f546b	-0.017496308
226	0xbdd3fb47	-0.10350662
227	0x3a8c483c	0.001070268
228	0xbd63453e	-0.055485956
229	0xbde48c19	-0.11159534
230	0xbd5d76d9	-0.05406842
231	0xbd96f770	-0.07371414
232	0xbdb4a1c5	-0.088199176
233	0x3d392c46	0.045208238
234	0xbcd79ecb	-0.026320836
235	0x3c85bdba	0.01632582
236	0x3c48c16a	0.012253145
237	0x3d107475	0.035267312
238	0xbcab079d	-0.020877654
239	0xbd403414	-0.046924666
240	0x3cd162b1	0.025559755
241	0x3d40bc4c	0.047054574
242	0x3d9fd418	0.078041255
243	0xbd9718a9	-0.073777504
244	0xbe20fe6b	-0.15722053
245	0xbc9f7367	-0.019464208
246	0x3c77d5e9	0.015126684
247	0xbc84aeba	-0.016196597
248	0xbd79ddc1	-0.061002497
249	0xbe01ec89	-0.12687887
250	0xbd83b0b0	-0.06430185
251	0x3dad3545	0.08457426
252	0xbd818617	-0.06324404
253	0xbc8ac346	-0.016938817
254	0x3df382bb	0.11890169
255	0x3d94dfe4	0.07269266

fc2.bias f4 [128]
0	0xbd49b5aa	-0.049245514
1	0xbd01ffb8	-0.031738013
2	0xbd3c9a6a	-0.0460457
3	0xbd021a30	-0.031763256
4	0x3f1bdce4	0.6088393
5	0x00000000	0.0
6	0x3f714028	0.9423852
7	0xbcac77fb	-0.021053305
8	0xbd021c0d	-0.031765033
9	0x3d7033cf	0.05864316
10	0xbcb71757	-0.022349996
11	0xbd832e2c	-0.06405291
12	0xbc18725b	-0.009304608
13	0x00000000	0.0
14	0xbd02176d	-0.03176062
15	0xbe0a92d0	-0.13532567
16	0xbd021553	-0.031758618
17	0x3e9f6de0	0.31138515
18	0xbc10aa98	-0.008829735
19	0xbd021bfb	-0.031764966
20	0x3f00a3ca	0.5024992
21	0xbba72b92	-0.0051016295
22	0xbc9f941e	-0.019479807
23	0xbd4b9284	-0.049700275
24	0xbd5b87e0	-0.053596377
25	0xbcfc9eb0	-0.030837387
26	0xbc011f8e	-0.007881058
27	0x00000000	0.0
28	0xbc84aadd	-0.016194755
29	0x00000000	0.0
30	0xbd5dc250	-0.05414039
31	0xbce61627	-0.028086735
32	0xbc96511b	-0.018349221
33	0xbbc4c981	-0.0060054665
34	0xbd0219cb	-0.03176288
35	0xbd76feb7	-0.06030151
36	0xbda047d3	-0.078261994
37	0xbd5a833f	-0.053347822
38	0xbd43f68a	-0.04784254
39	0xbd247317	-0.04014882
40	0xbd122967	-0.035684016
41	0xbd3a6353	-0.04550488
42	0xbd569b55	-0.05239423
43	0xbd02176a	-0.03176061
44	0xbbe03292	-0.006841966
45	0x3f2fd806	0.68689
46	0xbce2b12a	-0.027672369
47	0xbd021be4	-0.03176488
48	0xbd330e62	-0.04371489
49	0xbd22fa51	-0.0397895
50	0xbd0e213c	-0.034699664
51	0x3f0535d4	0.5203526
52	0xbd021887	-0.031761672
53	0xbc07a1a4	-0.008278284
54	0xbb80d249	-0.003931318
55	0xbd1ef827	-0.038810875
56	0xbd01c299	-0.031679723
57	0xbd3a4d88	-0.045484096
58	0xbd4ccf0e	-0.05000215
59	0xbc380376	-0.011231294
60	0xbc2a0d83	-0.010379198
61	0xbbcc6933	-0.0062381267
62	0x3f48cf52	0.78441346
63	0xbd2869cd	-0.041116524
64	0xbd8e348b	-0.069436155
65	0xbd522076	-0.05130049
66	0x3d91371f	0.07090592
67	0xbce7ce35	-0.02829657
68	0x00000000	0.0
69	0xbd3ff5fb	-0.046865445
70	0xbd02186f	-0.031761583
71	0xbccec42d	-0.025240028
72	0xbd02179e	-0.031760804
73	0xbd533f43	-0.051574003
74	0xbd021570	-0.031758726
75	0xbc99a74e	-0.018756535
76	0xbbf2b839	-0.007407215
77	0xbe1106c4	-0.14162737
78	0xbcbe764d	-0.02324977
79	0xbd571b32	-0.05251617
80	0xbd356534	-0.044285968
81	0xbd0205ab	-0.031743687
82	0xbc99f222	-0.018792216
83	0xbce1f8f3	-0.027584529
84	0xbc5a7caa	-0.013335386
85	0xbd01c0ad	-0.03167789
86	0xbd3e83f3	-0.046512555
87	0xbd021c9c	-0.031765565
88	0xbd319bcc	-0.04336147
89	0xbd30e3a9	-0.043185864
90	0x00000000	0.0
91	0x00000000	0.0
92	0x3ec7566a	0.38933116
93	0x3f019f9f	0.5063419
94	0xbceb7847	-0.028743876
95	0xbd41193c	-0.047143206
96	0xbd3b69f1	-0.04575533
97	0xbc0d5fbf	-0.008628785
98	0x3f7f0358	0.9961448
99	0x00000000	0.0
100	0x00000000	0.0
101	0xbd3f3e71	-0.04669041
102	0xbd01c9af	-0.03168648
103	0xbd021be8	-0.031764895
104	0xbd0213c1	-0.03175712
105	0xbc450d6a	-0.012027124
106	0x3d9bbbd9	0.076041885
107	0xbd22af34	-0.039717868
108	0xbd021919	-0.031762216
109	0x00000000	0.0
110	0x00000000	0.0
111	0xbce6fe7b	-0.028197518
112	0xbd7f28da	-0.06229482
113	0xbcf0b162	-0.029381458
114	0xbc933dbd	-0.017973775
115	0xbd1dff0e	-0.038573317
116	0xbc54cf4b	-0.012988876
117	0xbd08a3ca	-0.033359326
118	0xbd3481a6	-0.044068955
119	0xbbe56aa5	-0.0070012384
120	0xbc332f3c	-0.0109365545
121	0xbc1592fe	-0.009129284
122	0x00000000	0.0
123	0xbd23d7d2	-0.040000744
124	0xbd74f84e	-0.059807114
125	0xbd4bb2e3	-0.049731147
126	0xbc457ee2	-0.012054177
127	0x00000000	0.0

q_values.weight f4 [3, 128]
0	0x3d1f808c	0.03894095
1	0x3e1f7d29	0.15575089
2	0x3dbc398c	0.09190664
3	0x3deaaede	0.114591345
4	0xbf04ceb2	-0.5187789
5	0xbdac1fcc	-0.08404502
6	0xbef6359e	-0.48087782
7	0x3de6622f	0.11249196
8	0xbe584ee0	-0.21123838
9	0xbedb3ac9	-0.42818287
10	0x3d6e5bc3	0.05819298
11	0xbdc58ae8	-0.09645635
12	0x3cee65bb	0.029101243
13	0xbdf59eb4	-0.11993161
14	0xbe1f2378	-0.15540874
15	0x3f61d3c0	0.8821373
16	0x3e5902d1	0.2119248
17	0xc027ea2d	-2.623668
18	0xbd82039b	-0.06348344
19	0x3d161ac4	0.03664662
20	0xbfaf9283	-1.3716587
21	0x3e256805	0.16152962
22	0xbe12a418	-0.1432041
23	0x3d276d8a	0.04087595
24	0x3e2cce60	0.16875601
25	0xbdb0be16	-0.08630006
26	0xbd84e80f	-0.06489574
27	0x3e3ef783	0.18649106
28	0x3e34566a	0.1761109
29	0xbe18748e	-0.14888212
30	0xbd930850	-0.0717932
31	0x3e37717a	0.17914382
32	0x3e0ffb19	0.1406063
33	0x3e2fd872	0.17172411
34	0x3dae4692	0.08509554
35	0xbe2aa1a5	-0.16663225
36	0xbdc1712d	-0.09445415
37	0x3e16fe15	0.14745362
38	0x3da85955	0.08220164
39	0x3dc7ede8	0.09762174
40	0x3bf4d6db	0.007471902
41	0xbd39b305	-0.045336742
42	0x3dde1174	0.10843173
43	0xbc23ea80	-0.01000464
44	0x3e2036b1	0.15645863
45	0xbf50c76f	-0.8155431
46	0x3d0f2022	0.034942754
47	0x3e4d5f07	0.20055781
48	0xbc35b9f8	-0.011091702
49	0xbdbe4fab	-0.09292539
50	0x3c6d39be	0.014479099
51	0xbf608d16	-0.8771528
52	0x3d21f314	0.039538458
53	0xbce2fa58	-0.027707264
54	0xbe764aec	-0.24052018
55	0x3d3edc78	0.046596974
56	0xbc7bd621	-0.0153708765
57	0x3cd2308e	0.025657918
58	0xbd945a5a	-0.07243796
59	0x3d2d2164	0.042268172
60	0x3defa35e	0.11701082
61	0x3de4e054	0.111756
62	0xbf48cb95	-0.7843564
63	0x3dddd496	0.10831563
64	0x3ea2097a	0.31647855
65	0x3d95d965	0.07316855
66	0x3f21a0b7	0.63135856
67	0xbd23ee5d	-0.040022243
68	0x3d97950a	0.07401474
69	0xbc354e27	-0.011065996
70	0x3d8b755e	0.068094954
71	0xbdfc5aa6	-0.12321977
72	0xbe25900a	-0.16168228
73	0xbd367d04	-0.044552818
74	0xbd1fad28	-0.038983494
75	0x3db44e4a	0.08803995
76	0xbdf62a3d	-0.12019775
77	0x3ebd97cf	0.37029883
78	0xbe051f5a	-0.13000241
79	0xbf233305	-0.63749725
80	0x3dcd2f4d	0.100187875
81	0xbe52ee8c	-0.20598811
82	0xbd52129a	-0.05128727
83	0xbdb6644c	-0.08905849
84	0xbd3b1092	-0.0456701
85	0xbe19f2ca	-0.15034023
86	0x3ddcdd3a	0.10784383
87	0xbd7c3818	-0.061576933
88	0x3d9d81bb	0.0769076
89	0x3de6bafa	0.11266132
90	0x3e1c467d	0.15261264
91	0xbe3617e2	-0.17782548
92	0xc04049dd	-3.0045083
93	0xbf76c7c6	-0.9639858
94	0xbd427e1c	-0.04748355
95	0xbe189b30	-0.1490295
96	0x3d202c3b	0.03910468
97	0x3daea4de	0.0852754
98	0xbf1e9004	-0.619385
99	0xbd9813a6	-0.07425623
100	0x3da16e16	0.07882325
101	0xbe348c18	-0.17631567
102	0xbca2466a	-0.019808967
103	0x3e1a3585	0.15059479
104	0x3e3cdea5	0.18444307
105	0xbd9404dc	-0.07227489
106	0xbfd7c9e5	-1.6858488
107	0x3e01f394	0.12690574
108	0x3c008dd0	0.007846311
109	0xbdbd7293	-0.09250369
110	0xba37bd00	-0.0007009059
111	0x3d963b7c	0.073355645
112	0x3c23c66a	0.009996036
113	0x3c916d4c	0.017752312
114	0x3de59455	0.11209933
115	0x3dc45c95	0.09587971
116	0x3e0e525d	0.13898607
117	0x3dc8b936	0.09800951
118	0xbd8c20fa	-0.06842227
119	0xbe07a0c1	-0.13244916
120	0x3e1f6b21	0.1556821
121	0xbe0debd8	-0.13859499
122	0xbe31af46	-0.17352018
123	0x3dcc4ab4	0.09975186
124	0x3d736aab	0.0594279
125	0xbee01cb6	-0.43771905
126	0x3d4a1336	0.049334727
127	0x3e19e043	0.15026955
128	0x3d9dec87	0.0771113
129	0xbdf76993	-0.120806836
130	0x3d689635	0.056783874
131	0xbd79d0ac	-0.06099002
132	0xbf39ca51	-0.72574335
133	0x3e0d0813	0.13772611
134	0xbf1e72f6	-0.61894166
135	0x3d92efe4	0.07174662
136	0xbd11e3e6	-0.03561773
137	0xbf19b65d	-0.6004389
138	0x3e1037fa	0.14083853
139	0x3c581d92	0.013190644
140	0x3e1e490e	0.15457556
141	0x3e083225	0.13300379
142	0x3d932726	0.07185201
143	0x3f0bbb74	0.54582906
144	0x3d6382bc	0.0555446
145	0xc045130c	-3.0792875
146	0x3d99ef7f	0.075163834
147	0x3d51cf99	0.05122337
148	0xbfc7f386	-1.5621192
149	0xbe17a274	-0.14808065
150	0x3dcc71f6	0.09982674
151	0xbe484225	-0.19556482
152	0x3e053575	0.13008673
153	0x3e0d40e5	0.13794287
154	0xbd3820d4	-0.044953182
155	0xbe2d3283	-0.169138
156	0x3d910ad6	0.07082145
157	0x3e36d5bb	0.17854969
158	0xbdfd7998	-0.12376708
159	0x3c891080	0.0167315
160	0xbe440572	-0.19142702
161	0xbdeb0637	-0.11475795
162	0x3e2159b6	0.15756878
163	0xbd995427	-0.07486754
164	0x3beb1104	0.0071736593
165	0xbdd831f5	-0.105564035
166	0x3abf006f	0.0014572273
167	0xbca42318	-0.020036265
168	0xbb80eb62	-0.00393431
169	0xbe115d4d	-0.14195748
170	0xbdb9cebc	-0.090726346
171	0xbe1f0210	-0.1552813
172	0xbe1a1744	-0.15047938
173	0xbf1f5a4f	-0.62247175
174	0xbe2f6577	-0.1712855
175	0x3e3c0231	0.18360211
176	0x3e300fc7	0.17193519
177	0x3b058790	0.002037499
178	0xbc26dbb4	-0.010184217
179	0xbf6f0b28	-0.933764
180	0x3dbbd70d	0.09171877
181	0xbbd49ad9	-0.006488186
182	0x3d83d171	0.06436432
183	0xbe30639d	-0.172255
184	0xbc9ce458	-0.019151852
185	0x3e046790	0.12930131
186	0x3e3fc50a	0.18727508
187	0xbe53e62b	-0.20693271
188	0xbd3a9c1c	-0.045559034
189	0xbe02a968	-0.12759936
190	0xbf2542db	-0.6455514
191	0x3d3acf55	0.045607883
192	0x3eae31c6	0.3402235
193	0x3dd17fb0	0.102294326
194	0x3f56aded	0.8385914
195	0xbdc3d83c	-0.09562728
196	0x3d193e0c	0.037412688
197	0xbaa43733	-0.0012528658
198	0x3c33dbf0	0.01097773
199	0xbcdf956a	-0.027292926
200	0x3dadc992	0.08485712
201	0x3e25cd70	0.1619165
202	0x3da7aada	0.08186884
203	0x3da7ea7c	0.08199021
204	0x3d5018cf	0.05080491
205	0x3f11a8fb	0.5689847
206	0x3ce3a607	0.027789129
207	0xbe8f2625	-0.2795879
208	0xbd590e20	-0.052991986
209	0x3e26a1a5	0.162726
210	0x3e0bfe46	0.13671216
211	0x3d10685a	0.035255767
212	0x3d8654af	0.06559121
213	0xbcba77d7	-0.022762222
214	0x3daf8ca8	0.0857175
215	0x3da9dde2	0.08294274
216	0x3e09993d	0.13437362
217	0xbe509ee7	-0.20373116
218	0x3d963552	0.07334389
219	0x3e0fbc1d	0.14036603
220	0xc03a5022	-2.911141
221	0xbf7cb5a9	-0.9871469
222	0x3cb1eaf8	0.021718487
223	0x3dbb020e	0.09131251
224	0x3e474bb0	0.19462466
225	0x3d8f44eb	0.06995567
226	0xbf181c66	-0.5941833
227	0xbd94a2e2	-0.0725763
228	0xbdb100a8	-0.08642703
229	0x3d88bb4a	0.066763476
230	0x3e32cc07	0.17460643
231	0xbe062796	-0.13101038
232	0x3e241ead	0.16027327
233	0x3e023a7b	0.12717621
234	0xbfd0793f	-1.6287001
235	0x3c99f4ad	0.018793428
236	0x3e127483	0.14302258
237	0x3e06422b	0.13111179
238	0x3d038a90	0.032114565
239	0x3d434727	0.047675278
240	0xbd265674	-0.040609792
241	0x3e32f2ff	0.17475508
242	0x3d03b958	0.03215918
243	0xbd7f3148	-0.062302858
244	0xbe397934	-0.18112642
245	0xbe2ba42a	-0.16761842
246	0x3ded97f8	0.11601251
247	0x3db30faf	0.08743226
248	0x3e2f215c	0.1710257
249	0xbcda26b3	-0.026629781
250	0x3d02d618	0.031942457
251	0x3e45903b	0.19293301
252	0xbde0fe1a	-0.10985966
253	0xbf455627	-0.77084583
254	0x3e4d27de	0.2003474
255	0xbe4e2bdf	-0.20133923

q_values.bias f4 [3]
0	0xbf963b1c	-1.1736789
1	0xbf4e4bdf	-0.8058452
2	0xbf6a6e35	-0.9157441
