weights_rnd.pth (torch, 138071 bytes, 6 tensors)

fc1.weight f4 [256, 2]
0	0x3c90546f	0.017618386
1	0x3f5995fd	0.8499449
2	0xbf880918	-1.0627775
3	0xc023f638	-2.561903
4	0x3f785179	0.9699932
5	0xc07f76a6	-3.9916167
6	0xbe89766c	-0.2684816
7	0xbfec4157	-1.845744
8	0xbe8d0b44	-0.27547657
9	0x406e0404	3.718995
10	0x3d8148a7	0.063126855
11	0x406d7c41	3.7107089
12	0x3dd60619	0.10450382
13	0xc0f08943	-7.5167556
14	0x3d554e7d	0.052076805
15	0xbf871764	-1.0554013
16	0x3f92d2de	1.1470602
17	0xbf881672	-1.063185
18	0x3e873a31	0.26411584
19	0x40814a20	4.0402985
20	0x3f6fa835	0.9361604
21	0x40b9b2e1	5.803086
22	0x3e69d35c	0.22834533
23	0xbebb6b6f	-0.36605403
24	0xbea1320a	-0.3148349
25	0x3f20f021	0.6286641
26	0x3e5857fc	0.21127313
27	0x40a3a66a	5.114064
28	0xbe047a43	-0.12937264
29	0xc01aa6c3	-2.4164283
30	0x3d94d650	0.07267439
31	0xbf8a8690	-1.0822315
32	0xbd6cab7f	-0.05778074
33	0xbf6fefb1	-0.93725115
34	0xbe87bcc7	-0.26511213
35	0xc095d3dd	-4.682112
36	0xbf15b30c	-0.5847633
37	0xc036d142	-2.856522
38	0x3fab9ae7	1.3406647
39	0xc0999710	-4.7996902
40	0x3d4654fc	0.04842089
41	0xc1044386	-8.266485
42	0xbee8ae6d	-0.45445576
43	0x4032e0f5	2.7949803
44	0xbeb79869	-0.35858467
45	0xc03304bd	-2.7971642
46	0x3bd8c9b3	0.0066158413
47	0x407afb61	3.921593
48	0xbd2bb3a2	-0.041919358
49	0xbf1821a1	-0.59426314
50	0x3de2bdd4	0.11071363
51	0x3e8eab58	0.278651
52	0x3fac2134	1.3447633
53	0x3f01dfad	0.5073193
54	0xbf0ed100	-0.5578766
55	0x3fd03d1e	1.6268651
56	0x3c7136ca	0.014722535
57	0xc0d57b35	-6.67129
58	0xbe3962b7	-0.18104063
59	0x4069d3fb	3.6535633
60	0xbe82becd	-0.25536194
61	0xc0e9b827	-7.3037295
62	0x3d82cedd	0.06387112
63	0x4094c47c	4.648985
64	0xbe09ba9d	-0.13450094
65	0x403dbe36	2.9647346
66	0x3f47c81b	0.7803971
67	0xbf7e4b77	-0.993339
68	0x3f02e039	0.51123387
69	0x41065323	8.395297
70	0x3ec68f43	0.38781175
71	0x40e012c0	7.002289
72	0x3e8c825d	0.2744321
73	0xc0d72a3a	-6.7239046
74	0xbeb16f29	-0.3465512
75	0xc018fce4	-2.3904352
76	0x3c9ce992	0.019154344
77	0xc02b95e8	-2.6810246
78	0xbe756513	-0.23964338
79	0xc073a8a8	-3.807169
80	0xbc747813	-0.014921206
81	0x40d65524	6.697893
82	0xbecd02c0	-0.4004116
83	0xc062efdd	-3.54589
84	0xbeca4387	-0.39504644
85	0xc0c284df	-6.0787196
86	0xbdcdcde2	-0.10049035
87	0xbfe467e5	-1.7844206
88	0xbde9a469	-0.11408312
89	0x409bddaa	4.8708086
90	0xbe8a20bf	-0.26978108
91	0xc090cf36	-4.5252943
92	0xbf8afea3	-1.0858959
93	0xc03252f5	-2.7863133
94	0x3f0eefb4	0.5583451
95	0x409db38a	4.9281664
96	0x3f925815	1.143313
97	0xc03ad0bc	-2.9189901
98	0xbd78b3a9	-0.060718212
99	0xc168743a	-14.528376
100	0x3cf4dc7c	0.029890291
101	0xbfef4269	-1.8692142
102	0x3ba5c5a0	0.005058959
103	0xbe1f87b4	-0.1557911
104	0xbdc0b206	-0.09408955
105	0xbfb2f182	-1.3979952
106	0x3fc7aef2	1.5600264
107	0xbf89d377	-1.0767659
108	0xbdb64182	-0.088992134
109	0xc1287f28	-10.531044
110	0xbcbc1eb7	-0.022963865
111	0x3dcff7e8	0.10154706
112	0xbe33b24e	-0.17548487
113	0xc0a43308	-5.1312294
114	0x3e73480b	0.23757951
115	0xc0c16ad5	-6.044291
116	0xbdb99766	-0.0906208
117	0xc0bfc8e0	-5.993271
118	0xbd6a3171	-0.057176057
119	0x40b126c1	5.5359807
120	0x3ed99d4d	0.42502823
121	0x40c97964	6.296068
122	0xbf63be2a	-0.8896204
123	0xc01cbc13	-2.4489791
124	0x3f3f57b4	0.747432
125	0xc0bbd053	-5.86918
126	0xbee46e1b	-0.44615254
127	0xc074be90	-3.824131
128	0x3f4579af	0.771388
129	0xc056a4d3	-3.35381
130	0xbdc46cbc	-0.09591052
131	0xbed3ac1c	-0.41342247
132	0x3f4eadb5	0.80733806
133	0x4107efb9	8.496026
134	0x3f05c03a	0.5224644
135	0x400c850f	2.1956213
136	0xbf15d85a	-0.5853325
137	0xc0267bf2	-2.601315
138	0x3ce50376	0.027955752
139	0xbf213d73	-0.6298439
140	0x3ed32b6c	0.41244066
141	0x3e8bf597	0.27335808
142	0x3f837d8d	1.027269
143	0x3fa0002f	1.2500056
144	0xbe108ab4	-0.14115411
145	0xbfcf019f	-1.617237
146	0xbe5b89c8	-0.21439278
147	0xbfd09f44	-1.6298604
148	0x3e8535b3	0.26017532
149	0x40e44b68	7.134205
150	0x3e395caf	0.18101762
151	0xc0dd27ba	-6.9110994
152	0x3bd4ec1f	0.0064978744
153	0xbff4c41a	-1.9122345
154	0xbd1b34ec	-0.037892267
155	0x409c9487	4.893131
156	0xbf9f0351	-1.2422887
157	0xc0755ea2	-3.833901
158	0xbf2fed80	-0.6872177
159	0x4018cdf2	2.38757
160	0xbec24884	-0.3794595
161	0x408f60d0	4.480568
162	0xbea70097	-0.32617638
163	0xc00de3ae	-2.2170215
164	0xbef72805	-0.4827272
165	0xc018a025	-2.3847744
166	0x3e0f203f	0.13977145
167	0x40caa833	6.333032
168	0x3f353200	0.7077942
169	0x40307758	2.7572842
170	0x3f31a875	0.6939767
171	0xc01e04c2	-2.4690404
172	0x3f20158c	0.6253288
173	0x40eff585	7.4987206
174	0xbed7e101	-0.42163852
175	0xbfde7fcc	-1.738275
176	0x3f401553	0.7503254
177	0x3f2c7eaa	0.67380774
178	0x3f1e1426	0.61749494
179	0xc044f770	-3.0776024
180	0x3f85ee65	1.0463377
181	0x3e640b02	0.22269824
182	0x3df9e193	0.12201228
183	0xbfe7fdd6	-1.812434
184	0x3f5dbfe8	0.8662095
185	0x406c284b	3.6899593
186	0x3ea1b7fa	0.31585675
187	0xc0b5b465	-5.678271
188	0x3f2ca852	0.67444336
189	0x401c93af	2.446514
190	0xbe97f5fc	-0.2967986
191	0x3ed2092a	0.41022617
192	0x3e8dbe5e	0.276843
193	0xc0d70fb7	-6.7206683
194	0x3f008073	0.50196
195	0x3cef46de	0.029208597
196	0xbda7e381	-0.0819769
197	0x40f5e88d	7.6846375
198	0x3d2e4216	0.042543493
199	0xbfa83810	-1.3142109
200	0x3e88183f	0.26580998
201	0xbf949f75	-1.1611162
202	0x3e6b94a8	0.23005927
203	0x407d5bd7	3.9587305
204	0xbf4fecfc	-0.81220984
205	0x3efb8243	0.4912282
206	0x3d29da4d	0.041467953
207	0xbf40b715	-0.7527936
208	0xbea06e8b	-0.31334338
209	0x3fd9572a	1.6979725
210	0x3efda271	0.49537995
211	0x403f55f3	2.989621
212	0x3dd779b3	0.10521259
213	0xc1409d03	-12.038333
214	0xbe9571c3	-0.29188356
215	0xbf5d3337	-0.8640627
216	0xbf145b51	-0.5795184
217	0x3ed12da2	0.40855128
218	0x3d8f34c8	0.06992489
219	0x3f583602	0.8445741
220	0x3ed277e8	0.41107106
221	0x40d33467	6.600147
222	0x3f115118	0.56764364
223	0x40fa3342	7.818757
224	0x3db8df75	0.09026996
225	0x3f5c188c	0.85974956
226	0xbf419553	-0.75618476
227	0xbfe8f619	-1.8200103
228	0x3f30917b	0.68971986
229	0x3e607092	0.21917942
230	0xbf005ac4	-0.501385
231	0x4074d270	3.825344
232	0x3f05299d	0.5201662
233	0xc101cbc5	-8.112248
234	0x3eab5c48	0.33468843
235	0x40d8bcb0	6.773033
236	0x3ff68a9f	1.9261054
237	0xc047ccbd	-3.1218712
238	0x3e8df855	0.27728525
239	0x40f5cb8f	7.6810985
240	0xbf5fdefa	-0.8744961
241	0xc05a5c3b	-3.4118793
242	0x3fbec20b	1.4902967
243	0x406cff35	3.7030766
244	0xbf73ce82	-0.9523698
245	0xc0df989e	-6.98738
246	0x3f8c27f6	1.0949695
247	0xc0791e43	-3.892472
248	0x3cd11c62	0.02552623
249	0xbd113d3d	-0.035458792
250	0x3ddf558c	0.10904989
251	0x3eb82ffb	0.35974106
252	0x3f07416e	0.5283421
253	0x40eea9d1	7.4582295
254	0xbe2655a5	-0.16243608
255	0xbf52a065	-0.8227599

fc1.bias f4 [256]
0	0xbda70dd4	-0.081569344
1	0xbe444bbf	-0.1916952
2	0x3e7c519d	0.24640508
3	0x3ecf55ab	0.40495047
4	0xbe39c325	-0.18140848
5	0xbdbaa33f	-0.09113168
6	0x3dbb0da4	0.09133461
7	0x3ed7e048	0.421633
8	0x3ded2de2	0.11581017
9	0xbd7c4c9a	-0.06159649
10	0xbe364440	-0.17799473
11	0xbe06b8e8	-0.13156474
12	0xbec22d77	-0.37925312
13	0xbe1dfa93	-0.15427618
14	0x3eb8f624	0.3612529
15	0x3ee873d0	0.45400858
16	0xbe15cf14	-0.14629775
17	0xbe9dfe29	-0.3085797
18	0x3eba23e2	0.363555
19	0xbd248c59	-0.04017291
20	0xbdbe5d4e	-0.0929514
21	0xbe9e693a	-0.30939656
22	0x3ebeefd7	0.37292358
23	0xbdafd43f	-0.085854046
24	0x3e578866	0.21048126
25	0xbd94f642	-0.072735325
26	0x3edf9eaa	0.4367574
27	0xbeeb2ef7	-0.4593427
28	0x3e8832b1	0.26601174
29	0xbe0a6fc5	-0.13519199
30	0xbe9efbf8	-0.31051612
31	0x3cee94c9	0.02912368
32	0xbae85404	-0.0017725234
33	0x3eb9e3ce	0.36306614
34	0x3e53000b	0.20605485
35	0xbe453f3d	-0.19262405
36	0x3eb3ce3d	0.35118285
37	0xbe3f1ec5	-0.18664081
38	0x3bd5ee4e	0.0065286523
39	0xbe8d648f	-0.27615783
40	0xbe75dbf0	-0.24009681
41	0x3e93f5cd	0.2889847
42	0xbecf952e	-0.40543503
43	0x3e8f8ac1	0.28035548
44	0xbe7616cc	-0.24032134
45	0xbda441f3	-0.08020391
46	0xbec35faf	-0.38158938
47	0xbe19cfe7	-0.15020715
48	0x3ea5d3a4	0.3238803
49	0xbe70a7bc	-0.23501486
50	0x3ef6da22	0.48213297
51	0xbc0ad2ed	-0.00847314
52	0x3e6b5023	0.22979788
53	0xbe5e95f9	-0.21736898
54	0x3e2ef929	0.17087235
55	0xbda06f09	-0.07833678
56	0xbe16484b	-0.14676015
57	0xbe9b0bdf	-0.30282494
58	0xbe323472	-0.17402819
59	0xbe5e7917	-0.2172588
60	0xbe2d732e	-0.16938469
61	0xbf39d164	-0.7258513
62	0x3eab2802	0.3342896
63	0xbeb7a08e	-0.3586468
64	0x3e90ed2a	0.28305942
65	0x3ec0cddb	0.37657055
66	0xbe9959e7	-0.29951403
67	0x3e309822	0.17245534
68	0x3ebb21d0	0.36549234
69	0xbd403423	-0.04692472
70	0x3f137511	0.57600504
71	0x3f1988cf	0.5997438
72	0x3e9477c0	0.28997612
73	0x3ebd4383	0.3696557
74	0x3db209d7	0.08693283
75	0x3ea73ecc	0.32665098
76	0x3ecbbfcc	0.39794767
77	0xbdd70ee2	-0.105008855
78	0xbf16feed	-0.58982736
79	0xbea1881c	-0.31549156
80	0xbeaed016	-0.34143132
81	0x3e6183a3	0.22022872
82	0xbea220a9	-0.31665543
83	0xbe5744ec	-0.21022385
84	0xbd8d4f52	-0.06899895
85	0x3ea1b3f9	0.3158262
86	0x3e84988b	0.2589763
87	0x3eaa4d05	0.33261886
88	0x3efece80	0.49766922
89	0x3e4eaa42	0.20182136
90	0x3d00a818	0.031410307
91	0x3e9f799c	0.31147468
92	0xbe36eb63	-0.1786323
93	0x3dfe4986	0.12416367
94	0x3f187109	0.5954748
95	0xbeb82b54	-0.35970557
96	0x3dadba2b	0.08482774
97	0xbe81ec0b	-0.253754
98	0xbe32468b	-0.17409723
99	0x3ee13291	0.43983892
100	0x3d212aaa	0.03934733
101	0x3e73edf0	0.23821235
102	0xbed100d4	-0.40820944
103	0x3ed43c69	0.4145234
104	0xbed12ab3	-0.4085289
105	0x3ca60a14	0.020268477
106	0x3e3f8663	0.18703608
107	0xbece6b9b	-0.4031647
108	0xbee76bbe	-0.45199388
109	0xbda4b2da	-0.08041926
110	0xbe12fcdb	-0.14354269
111	0xbe5fd680	-0.21859169
112	0xbdbbdfc7	-0.091735415
113	0x3e01db86	0.12681398
114	0x3f2ba49a	0.6704804
115	0xbec93de8	-0.39305043
116	0x3f026f1e	0.509508
117	0x3d3c16c3	0.045920145
118	0xbe6209ca	-0.22074047
119	0xbe6fccd6	-0.23417982
120	0xbf0325b9	-0.51229435
121	0xbed23a28	-0.41059995
122	0xbf4fd13d	-0.8117865
123	0x3e1862f8	0.14881504
124	0xbd301e02	-0.042997368
125	0xbd94074a	-0.07227953
126	0xbe54f933	-0.20798187
127	0x3eafe4e3	0.34354314
128	0xbdc72f14	-0.09725776
129	0x3e87c617	0.26518318
130	0xbe0020b5	-0.12512477
131	0x3e1fcea2	0.15606168
132	0x3e9b2c3e	0.30307192
133	0xbe6d9d58	-0.23204553
134	0x3dde090d	0.1084157
135	0x3e0b5305	0.13605888
136	0xbe3be0f0	-0.18347526
137	0x3ec138ab	0.37738547
138	0xbefa490e	-0.4888386
139	0xbeca5cc2	-0.39523894
140	0x3ef5d236	0.4801194
141	0x3e6ad622	0.22933248
142	0xbdd6ce41	-0.104885586
143	0xbe51fd0c	-0.20506686
144	0x3ea72ae6	0.32649916
145	0xbeb868fc	-0.36017597
146	0xbf172159	-0.5903526
147	0xbdfbfa27	-0.12303572
148	0xbe40e763	-0.18838267
149	0x3e2a1fa7	0.16613637
150	0xbd76d9f9	-0.06026647
151	0x3cf95d32	0.030439947
152	0xbede9190	-0.4347043
153	0xbe9122f1	-0.2834697
154	0xbdf8c03d	-0.121460415
155	0x3d8aa916	0.06770532
156	0xbed38b5e	-0.41317266
157	0x3eac957c	0.33707798
158	0xbed56cdc	-0.41684616
159	0xbf41a89d	-0.7564791
160	0x3ce95fab	0.028488
161	0xbe96737a	-0.29384977
162	0x3eb2695a	0.34846002
163	0x3efa637c	0.48904026
164	0xbbe3b530	-0.0069490895
165	0xbe055e33	-0.13024215
166	0x3ea26333	0.31716308
167	0x3e3d1342	0.18464378
168	0x3e66d2bc	0.22541326
169	0xbd370db9	-0.04469082
170	0x3d16bd93	0.036801886
171	0x3eb38c56	0.35068005
172	0xbe35e705	-0.17763908
173	0xbea7b42b	-0.32754645
174	0x3ecb3d43	0.39695176
175	0xbe273486	-0.1632863
176	0x3ea103be	0.31448168
177	0xbea56210	-0.32301378
178	0xbc94ba6f	-0.018155305
179	0xbe3e0686	-0.18557176
180	0xbcdf039a	-0.027223397
181	0xbd8216eb	-0.063520275
182	0x3ed44da5	0.41465488
183	0x3de1c0ad	0.11023078
184	0x3e0d345a	0.13789502
185	0xbebe091a	-0.3711632
186	0xbec5e237	-0.3864915
187	0xbf0edc78	-0.5580516
188	0xbd823671	-0.0635804
189	0xbea494d3	-0.32144794
190	0x3ecea921	0.4036341
191	0xbde85708	-0.11344725
192	0xbe919292	-0.28432137
193	0x3e342d90	0.17595506
194	0xbe830eb9	-0.2559717
195	0x3e8e0b9c	0.27743232
196	0xbca31007	-0.019905103
197	0x3e514c1b	0.20439188
198	0xbe6fa72c	-0.23403615
199	0x3e1ac830	0.15115428
200	0x3db57bb0	0.08861482
201	0xbe67b29b	-0.22626726
202	0x3f033878	0.5125804
203	0x3e762505	0.2403756
204	0x3e2dada7	0.16960774
205	0x3e6c7387	0.23090945
206	0xbe31c351	-0.17359664
207	0x3e0ea91d	0.13931699
208	0x3e93e35e	0.28884405
209	0xbf04a9bc	-0.51821494
210	0xbbc0265f	-0.005863949
211	0xbc9cd278	-0.019143328
212	0xbdc6cec5	-0.09707407
213	0xbe9ce0ba	-0.30640203
214	0xbe0bc76b	-0.1365029
215	0xbe17368d	-0.14766903
216	0x3e26fae7	0.16306649
217	0xbd7dc53a	-0.061955668
218	0xbd770e46	-0.060316347
219	0xbea7e3f5	-0.32791105
220	0x3f031d34	0.51216435
221	0x3e4f6575	0.20253547
222	0xbe8a3fa7	-0.27001688
223	0xbe996f4c	-0.29967725
224	0x3e29ae84	0.16570479
225	0xbe83abd2	-0.25717026
226	0xbe0bdc1d	-0.13658185
227	0x3e756d99	0.2396759
228	0xbea2fb5d	-0.318324
229	0xbeda6598	-0.42655635
230	0x3dcf8b3e	0.1013398
231	0xbd8d91f9	-0.06912608
232	0x3ec02632	0.3752914
233	0x3ebbc26d	0.36671773
234	0xbe3dc84b	-0.18533437
235	0x3d85b5c4	0.0652881
236	0xbdb499ec	-0.08818421
237	0xbd4e36aa	-0.0503451
238	0xbec24c37	-0.37948772
239	0x3ef54426	0.47903556
240	0xbe12864a	-0.1430904
241	0xbf0b87b7	-0.5450396
242	0x3ea1a0dc	0.31568038
243	0x3eadbf48	0.33935
244	0x3eee04ee	0.46488136
245	0xbde89257	-0.11356037
246	0x3e3713b4	0.1787861
247	0x3edbe444	0.4294759
248	0xbce5d5fe	-0.028056141
249	0xbe356c19	-0.17717017
250	0xbe28e001	-0.164917
251	0x3e88f1a5	0.2674686
252	0x3e985f5f	0.29760262
253	0xbdb74f21	-0.089506395
254	0x3ee23562	0.44181353
255	0xbf30db00	-0.6908417

fc2.weight f4 [128, 256]
0	0xbd827600	-0.06370163
1	0xbc88ef40	-0.016715646
2	0xbc3d340d	-0.011548054
3	0xbd613bfa	-0.05498884
4	0x3d5731e0	0.0525378
5	0x3da82128	0.08209449
6	0x3d804ff9	0.062652536
7	0x3d3445ec	0.044011995
8	0xbe1201d9	-0.14258517
9	0xbd91f145	-0.07126097
10	0xbe5bf1bf	-0.21478938
11	0x3dd08fd9	0.10183687
12	0x3dc6ee4a	0.09713419
13	0x3d84536d	0.06461225
14	0x3cce3492	0.025171552
15	0xbe161b20	-0.14658785
16	0xbdf9ff77	-0.12206929
17	0x3c960171	0.018311234
18	0x3cf01c3f	0.029310344
19	0x3c2ca9fa	0.010538572
20	0x3dc18545	0.09449247
21	0xbd23a9ef	-0.039956983
22	0x3dc5b7a0	0.09654164
23	0xbd07b357	-0.033130016
24	0xbdb1bae3	-0.08678224
25	0xbcfc4d69	-0.03079863
26	0xbdb13238	-0.086521566
27	0x3c64de53	0.013969022
28	0x3c97347e	0.018457647
29	0xbab8d081	-0.0014100225
30	0x3df3fcaf	0.1191343
31	0xbbf1482a	-0.007363339
32	0x3db39efd	0.08770559
33	0xbd800236	-0.06250422
34	0x3db4a36d	0.088202335
35	0xbcb2bb7d	-0.021817917
36	0x3c2b6a3f	0.010462343
37	0xbe58015d	-0.2109427
38	0xbe0fe0f8	-0.14050663
39	0x3db5759e	0.08860324
40	0x3c3266e3	0.010888788
41	0xbc9a705e	-0.018852409
42	0x3dbabc6b	0.09117969
43	0x3befba18	0.0073158853
44	0xbd75e861	-0.060036067
45	0xbc88ffb2	-0.016723488
46	0xbde07e06	-0.10961537
47	0xbdace4f2	-0.08442105
48	0x3db2af6b	0.087248646
49	0xbd53abcc	-0.05167751
50	0xbdcf873f	-0.10133218
51	0xbb902a64	-0.0043995846
52	0xbd826775	-0.06367389
53	0x3d5ea5fd	0.054357518
54	0xbe632a0c	-0.22184008
55	0xbcd5b356	-0.02608649
56	0xbda3ecf9	-0.08004183
57	0xbd11024d	-0.035402585
58	0x3d712ac2	0.058878668
59	0x3d811a8b	0.06303891
60	0x3d7bc6d2	0.061468907
61	0x3cfa235a	0.030534435
62	0xbd4d4eab	-0.05012385
63	0x3dadfe60	0.08495784
64	0xbcac3099	-0.021019267
65	0xbd10b8aa	-0.03533236
66	0x3d8332c9	0.06406171
67	0xbcc4ff48	-0.024047509
68	0xbd7f2fd4	-0.06230147
69	0x3c12e07f	0.008964657
70	0xbe1a7566	-0.15083846
71	0xbc1923b3	-0.00934689
72	0xbda01d1f	-0.078180544
73	0x3cea0c0f	0.028570203
74	0xbe07641b	-0.13221781
75	0x3d62983c	0.055320963
76	0x3db49573	0.08817568
77	0x3d519299	0.051165197
78	0x3d8ce042	0.06878711
79	0x3e224e85	0.15850265
80	0xbd5bfbb8	-0.053706855
81	0xbd952310	-0.07282078
82	0x3da91b72	0.08257188
83	0xbc1ccefd	-0.009570834
84	0x3d1173b6	0.03551074
85	0x3d5c006a	0.053711332
86	0x3d4baeb6	0.049727164
87	0x3d6d0984	0.057870403
88	0x3cbbe4b2	0.022936199
89	0x3bca82f2	0.0061801607
90	0xbd237027	-0.03990188
91	0x3dab3f3a	0.08361669
92	0xbe227d2f	-0.15868066
93	0x3dbff442	0.0937276
94	0x3d38e1c4	0.045137182
95	0xbd44bc40	-0.04803109
96	0xbd2b2acb	-0.041788857
97	0xbdb66fa2	-0.08908011
98	0xbc9f565d	-0.01945036
99	0xbdd2e82a	-0.10298188
100	0x3e01fcb2	0.12694052
101	0xbc73ebc4	-0.014887754
102	0xbd700d1d	-0.058606256
103	0x3cc91281	0.024544956
104	0x3cb77bf4	0.022397973
105	0xbd1831a3	-0.037156712
106	0xbd2dd1d7	-0.042436447
107	0x3cbf6b51	0.023366602
108	0xbc80a178	-0.015701994
109	0x3c5e7bc1	0.01357931
110	0x3dc517da	0.0962369
111	0xbd0bcf98	-0.034133524
112	0xbc0af030	-0.008480117
113	0xbe42dfc3	-0.19030671
114	0xbe41610f	-0.18884681
115	0xbd6fb58f	-0.058522757
116	0xbd61a48c	-0.055088565
117	0x3c111249	0.008854457
118	0x3de3d071	0.111237414
119	0xbe5893ea	-0.21150175
120	0x3cd77933	0.02630291
121	0x3da09df5	0.07842628
122	0xbd8898e1	-0.06669784
123	0xbd8b5c8f	-0.068047635
124	0x3da01b6b	0.078177296
125	0x3d032a1c	0.03202258
126	0x3d590bd1	0.052989785
127	0x3bc16b1b	0.0059026605
128	0xbe0bd9fe	-0.13657376
129	0x3da18fd2	0.0788876
130	0xbc4f069a	-0.012635851
131	0xbd96550d	-0.07340441
132	0xbcc0cf5d	-0.023536379
133	0xbd4b6b17	-0.049662676
134	0xbe6384a5	-0.22218569
135	0x3dfe483d	0.12416122
136	0xbc57b0dd	-0.013164726
137	0xbd66f6e2	-0.05638779
138	0x3db75577	0.08951848
139	0x3dd81009	0.105499335
140	0x3b8307b1	0.0039987196
141	0xbc0a7169	-0.008449891
142	0xbd718628	-0.058965832
143	0x3e411366	0.18855056
144	0xbc6ed297	-0.014576576
145	0xbc00849b	-0.007844116
146	0xbd09657b	-0.033544045
147	0x3e053860	0.13009787
148	0x3c533eb8	0.012893371
149	0xbd5f30dd	-0.05448996
150	0x3d93d18c	0.07217702
151	0xbd64da9c	-0.055872545
152	0xbda5310d	-0.08065996
153	0x3d9a7b84	0.0754309
154	0x3d6a1444	0.057148233
155	0x3e0309a4	0.12796646
156	0xbd4cb704	-0.049979225
157	0x3e2011cc	0.15631789
158	0xbda72c49	-0.081627436
159	0xbdf0fd75	-0.11767093
160	0xbdd5be07	-0.104366355
161	0xbdd9c30a	-0.10632904
162	0x3debcac7	0.11513286
163	0xbb7b3cf9	-0.0038335903
164	0xbe16cd77	-0.14726816
165	0x3d56a9a6	0.052407883
166	0xbd97c1b9	-0.074099965
167	0xbe087a84	-0.13327986
168	0xbe1294e9	-0.14314617
169	0xbd9b066a	-0.07569583
170	0x3d164a0e	0.036691718
171	0xbd96b832	-0.07359351
172	0x3d2b33c1	0.041797403
173	0xbdb5ee92	-0.08883394
174	0xbc5c244d	-0.013436389
175	0x3d789679	0.060690377
176	0x3dd48e52	0.10378708
177	0x3d2ef44e	0.042713456
178	0x3dd30bd4	0.103049904
179	0xbe0730e1	-0.1320224
180	0x3df73f0a	0.120725706
181	0x3d604f5b	0.05476318
182	0x3e14d079	0.14532651
183	0x3cdf7f2b	0.027282318
184	0xbdf436b6	-0.11924498
185	0x3d5c883c	0.05384086
186	0x3d058379	0.032596085
187	0x3c19ac3a	0.009379441
188	0x3cdd96bb	0.027049413
189	0xbd2778f4	-0.040886834
190	0x3dcc7d43	0.09984829
191	0x3d0c4076	0.034241162
192	0xbcb47431	-0.02202806
193	0xbdf437c4	-0.11924699
194	0xbde39e47	-0.111141734
195	0x3d8245d5	0.06360976
196	0xbd1b150c	-0.03786187
197	0xbd279349	-0.040911946
198	0x3ddeb3da	0.10874148
199	0xbe077366	-0.13227615
200	0x3da97177	0.08273595
201	0xbe273196	-0.1632751
202	0xbd98cec2	-0.07461311
203	0x3e63b859	0.22238292
204	0x3d9a9da8	0.07549602
205	0xbddf8992	-0.10914911
206	0xbdda002d	-0.10644565
207	0x3de51783	0.11186125
208	0xbe0c3acd	-0.13694306
209	0x3c8ffce4	0.017576642
210	0x3ce6a3cd	0.028154278
211	0x3d16d717	0.03682622
212	0xbe19980e	-0.1499941
213	0x3de61167	0.11233788
214	0xbe17b736	-0.14815983
215	0x3d06eb45	0.032939214
216	0xbe01c447	-0.1267253
217	0x3d02c01d	0.031921495
218	0x3e3bae19	0.18328132
219	0xbc845491	-0.016153606
220	0xbd980734	-0.07423249
221	0x3e13b3e6	0.14424095
222	0x3e252d19	0.16130485
223	0xbd93b042	-0.07211353
224	0x3e364b10	0.17802072
225	0x3dbdb390	0.092627645
226	0xbc86fb05	-0.016477117
227	0x3dd628ef	0.10457026
228	0xbe49ecb0	-0.19719195
229	0xbddf45dc	-0.109019965
230	0xbbd9388d	-0.006629056
231	0x3dbc3111	0.09189046
232	0xbda62677	-0.08112805
233	0xbd2d878a	-0.04236559
234	0xbd633f82	-0.055480488
235	0x3c2c3599	0.010510826
236	0x3e0c65be	0.13710687
237	0x3c0395d6	0.008031329
238	0xbd9a7035	-0.07540933
239	0x3a2b81e0	0.0006542485
240	0xbce3e2fe	-0.0278182
241	0xbdf46e9d	-0.1193516
242	0xbe371095	-0.1787742
243	0xbc53d466	-0.012929058
244	0xbc4d3445	-0.012524669
245	0x3cba3acc	0.022733115
246	0x3d09adbd	0.033612955
247	0x3d9867b3	0.07441654
248	0xbcf05b90	-0.029340535
249	0x3d65a004	0.056060806
250	0xbe4cb191	-0.19989611
251	0xbdb87de2	-0.09008385
252	0xbd24a7fc	-0.040199265
253	0x3e1931cc	0.14960402
254	0x3d80809b	0.062745295
255	0xbc586940	-0.013208687

fc2.bias f4 [128]
0	0x00000000	0.0
1	0xbe503468	-0.20332491
2	0xbd188719	-0.037238214
3	0xbd2e305b	-0.042526584
4	0x3e22410f	0.1584513
5	0xbd397754	-0.045279816
6	0xbd8a43b7	-0.06751197
7	0xbb193026	-0.0023374646
8	0x3f0e749c	0.5564668
9	0xbd43bc3e	-0.047786944
10	0xbd559724	-0.052146092
11	0xbd45e2fd	-0.048312176
12	0x3ec842ff	0.39113614
13	0xbce43f9b	-0.02786236
14	0xbd043262	-0.03227461
15	0xbd6490f2	-0.055802293
16	0x3eb6418c	0.35596883
17	0xbd020695	-0.03174456
18	0xbd15442a	-0.03644196
19	0x3e07a204	0.13245398
20	0xbd021cc0	-0.0317657
21	0x3f17e31e	0.5933093
22	0xbd81dc7a	-0.06340881
23	0xbc0b4af9	-0.008501762
24	0x3c984140	0.018585801
25	0xbcf999a5	-0.030468771
26	0xbd18298d	-0.037149
27	0xbd1a7e9d	-0.037718404
28	0xbd021b0e	-0.031764083
29	0x3f81d189	1.014207
30	0xbd021786	-0.031760715
31	0xbdb911c8	-0.09036595
32	0xbcf4f533	-0.029902076
33	0x00000000	0.0
34	0xbd021b8b	-0.03176455
35	0xbd21a424	-0.039463177
36	0xbd4db9d9	-0.050226066
37	0xbd19ebe7	-0.03757849
38	0xbd748e51	-0.059706036
39	0xbda9bc71	-0.082878955
40	0xbda8bdcd	-0.082393266
41	0xbddbf40f	-0.1073991
42	0xbd1aae5b	-0.037763935
43	0x00000000	0.0
44	0xbe250e9c	-0.16118854
45	0xbc3cd0e5	-0.011524414
46	0xbd46a78e	-0.048499636
47	0xbd85eb25	-0.06538991
48	0xbd4366e9	-0.047705565
49	0xbd908c5a	-0.0705802
50	0xbce485a4	-0.027895756
51	0xbd020ab4	-0.03174849
52	0xbd8aa6bc	-0.06770083
53	0x3e506115	0.20349534
54	0xbd3c84d3	-0.04602511
55	0x3ed7b0cc	0.42127073
56	0xbd2015df	-0.039083358
57	0x3ef0baff	0.47017667
58	0xbc6f7696	-0.014615675
59	0xbd294219	-0.0413228
60	0x3eb58a4a	0.3545707
61	0xbd8a10d6	-0.067414925
62	0x3f6bb8dd	0.92078954
63	0xbd73e1fd	-0.05954169
64	0xbd0213e4	-0.03175725
65	0xbd9f6db5	-0.07784597
66	0xbca39f7e	-0.019973513
67	0xbd7dbf24	-0.061949864
68	0x3ebdc933	0.37067565
69	0xbda49dc9	-0.08037908
70	0xbbc4c9d1	-0.0060055037
71	0x3e9d5b35	0.30733648
72	0xbd5fbfc9	-0.05462626
73	0x3e69e579	0.22841443
74	0x3ebadd02	0.3649674
75	0xbd465adf	-0.048426505
76	0x3eafd4e8	0.34342122
77	0xbc9bd2bd	-0.019021386
78	0xbd02152e	-0.03175848
79	0xbd28e286	-0.041231655
80	0xbc01286f	-0.007883175
81	0xbc752141	-0.014961542
82	0xbd01f4f4	-0.031727746
83	0xbbe8751b	-0.007094038
84	0xbd1c5a34	-0.038171962
85	0xbe002dca	-0.12517467
86	0x3cad1e29	0.021132546
87	0xbd36e9c4	-0.04465653
88	0xbd21fbed	-0.039546896
89	0xbd021b54	-0.031764343
90	0xbd0214aa	-0.031757988
91	0xbda2ebd6	-0.079551384
92	0xbd40ca53	-0.04706795
93	0xbd4cc8ec	-0.0499963
94	0xbc6650fc	-0.014057394
95	0xbc9967f1	-0.018726321
96	0xbd4158a7	-0.047203686
97	0x00000000	0.0
98	0x3eed626d	0.46364155
99	0xbc29e0ca	-0.010368535
100	0xbd021ad6	-0.031763874
101	0xbd61a2fd	-0.05508708
102	0xbdb8f883	-0.09031775
103	0xbd3467e1	-0.04404438
104	0xbd4acf71	-0.049514238
105	0xbd021a7f	-0.03176355
106	0xbd2117c7	-0.039329316
107	0xbd196e65	-0.037458796
108	0x3c30572b	0.01076297
109	0xbd021823	-0.0317613
110	0xbd6290df	-0.05531394
111	0xbd021562	-0.031758673
112	0xbd12c013	-0.035827707
113	0x00000000	0.0
114	0xbd409d6c	-0.04702513
115	0xbd0219b3	-0.03176279
116	0xbc39a3ad	-0.011330527
117	0x3f71be83	0.9443132
118	0xbd8efdf6	-0.06982033
119	0xbd2a5995	-0.04158934
120	0xbd021caf	-0.031765636
121	0x3f0e5079	0.5559154
122	0xbc6ee152	-0.014580088
123	0xbd1d9741	-0.038474325
124	0xbd02114d	-0.03175478
125	0xbb84e1f4	-0.004055256
126	0xbd01d8be	-0.031700842
127	0x3f22871c	0.6348741

q_values.weight f4 [3, 128]
0	0xbcaed7e0	-0.021343172
1	0x3f40cb17	0.7530989
2	0xbd4c2eea	-0.04984943
3	0x3dea2f7e	0.1143484
4	0xbfef66ff	-1.8703307
5	0x3cbc7505	0.023005018
6	0x3da43df2	0.08019628
7	0xbe2ca373	-0.16859226
8	0xbef78dc1	-0.48350337
9	0xbe0661ec	-0.13123292
10	0xbd2be217	-0.041963663
11	0x3e005240	0.12531376
12	0xbdd143b4	-0.102179915
13	0x3d8aee7c	0.067837685
14	0x3c0dbc29	0.008650818
15	0x3d56bd70	0.052426755
16	0xbf757d4a	-0.958943
17	0xbe1481ae	-0.14502594
18	0xbdeb61e5	-0.11493281
19	0xbf3cf562	-0.73811924
20	0x3e49c861	0.19705345
21	0xbf0f5fcd	-0.56005555
22	0x3e2a2355	0.1661504
23	0x3da11e50	0.0786711
24	0xbf34b286	-0.70584905
25	0xbd92e834	-0.071731955
26	0xbba6f5fc	-0.0050952416
27	0x3e14434f	0.14478801
28	0xbe426975	-0.18985541
29	0xbf08bd6f	-0.5341405
30	0x3def27f3	0.116775416
31	0xbdd8ad2c	-0.10579905
32	0x3d05d536	0.032674037
33	0x3cd101a0	0.02551347
34	0xbe2af9c3	-0.16696839
35	0x3e04d4da	0.12971821
36	0xbca88f59	-0.020576166
37	0xbdb584a1	-0.088631876
38	0x3df6dff7	0.12054437
39	0xbd82369b	-0.063580714
40	0x3d754182	0.059876926
41	0x3f129465	0.5725768
42	0xbc85806f	-0.016296593
43	0xbe30ea29	-0.17276825
44	0xbf37d52c	-0.7180965
45	0xbe515ea6	-0.20446262
46	0xbe1f6af9	-0.1556815
47	0xbd05d054	-0.03266938
48	0xbe289b13	-0.16465406
49	0x3b9993b4	0.004686797
50	0x3df3b66d	0.11900029
51	0x3c8f5985	0.01749874
52	0xbd6e9a76	-0.058252774
53	0xc0179231	-2.3682978
54	0xbdc0727b	-0.093968354
55	0xbf8d1965	-1.1023375
56	0xbd340261	-0.04394758
57	0xbeda81ba	-0.426771
58	0x3db46987	0.0880919
59	0x3e3a4fc8	0.18194497
60	0xbfc550fe	-1.5415342
61	0xbe27a661	-0.16372062
62	0xbf100889	-0.56263024
63	0x3cce6f7f	0.02519965
64	0x3e17af5c	0.14812988
65	0xc013b72e	-2.3080554
66	0xbe09dddd	-0.1346354
67	0x3d80f351	0.06296409
68	0xbf29a8b6	-0.6627306
69	0x3dbe459f	0.09290623
70	0xbd0123ac	-0.03152816
71	0xbf17123a	-0.59012187
72	0x3dbff2e1	0.09372497
73	0x3b585d0d	0.0033014447
74	0xbea65456	-0.32486218
75	0x3e0b3b3a	0.13596812
76	0xbfa6e928	-1.3039904
77	0xbd93c179	-0.07214636
78	0xbe31d5c0	-0.17366695
79	0x3c25b7d6	0.010114631
80	0xbd132f64	-0.035933867
81	0x3dc71b23	0.09721973
82	0x3d811456	0.06302707
83	0x3dbd9a6f	0.092579715
84	0xbd0198fa	-0.03164003
85	0x3e67a787	0.226225
86	0x3e017b24	0.1264463
87	0xbe4d4706	-0.20046625
88	0x3e007b3f	0.12547015
89	0x3e03affb	0.128601
90	0xbe531cd4	-0.20616466
91	0xbdf280c7	-0.118409686
92	0xbdb050a5	-0.08609132
93	0x3ceb2169	0.028702455
94	0xbd48dd20	-0.049039006
95	0x3de34e66	0.11098938
96	0xbdbd8f0c	-0.092558
97	0x3cbdfa50	0.023190647
98	0xbf067d89	-0.525353
99	0xbe1cbc80	-0.15306282
100	0xbdc5e277	-0.09662335
101	0xbce33030	-0.027732939
102	0xbc8e7ce5	-0.017393539
103	0x3d67c55b	0.056584697
104	0x3a893508	0.0010468075
105	0xbda055c9	-0.07828862
106	0xbd0ac9d3	-0.03388388
107	0x3e060221	0.1308675
108	0xbe85b086	-0.2611124
109	0x3e21a35b	0.15784971
110	0x3df11668	0.11771852
111	0xbe12f808	-0.14352429
112	0x3e23b089	0.15985312
113	0xbc5b1510	-0.013371721
114	0x3dd489db	0.10377856
115	0x3d97aca4	0.074059755
116	0x39dee845	0.00042516194
117	0xbef632fa	-0.48085767
118	0x3cc55b60	0.024091423
119	0xbb38a245	-0.0028172892
120	0xbd288214	-0.041139677
121	0xbef560c2	-0.47925383
122	0x3cb96aa8	0.022633865
123	0xbdbf2cb0	-0.09334695
124	0x3d190590	0.03735882
125	0x3d80f942	0.06297542
126	0x3ce5059b	0.027956774
127	0xbefb55d8	-0.4908893
128	0xbda6f9fc	-0.081531495
129	0x3f27da0d	0.65567094
130	0x3c7ac7a7	0.01530639
131	0x3cf74982	0.030186418
132	0xc01d26b3	-2.455487
133	0x3d2c5c88	0.042080432
134	0x3d900450	0.070320725
135	0x3df24688	0.11829859
136	0xbf03adb6	-0.51436937
137	0x3ce5e641	0.028063895
138	0x3b6f1bd9	0.0036485104
139	0xbdcadc99	-0.09905357
140	0xbf4f41c6	-0.8095974
141	0xbde23f9f	-0.11047291
142	0x3cef8001	0.029235842
143	0x3bf50f53	0.0074786334
144	0xbf41fae4	-0.75773454
145	0x3e1a220b	0.15052049
146	0xbbd61a32	-0.0065338844
147	0xbf43d9ed	-0.76504403
148	0xbdec663f	-0.115429394
149	0xbf04edd6	-0.5192541
150	0x3d9f8ac0	0.07790136
151	0xbd407c8c	-0.046993777
152	0xbf2bd6e6	-0.67124784
153	0x3df8b7dc	0.121444434
154	0xbe11bd50	-0.14232373
155	0xbd2e2aed	-0.042521406
156	0x3d7bf193	0.06150968
157	0xbf3182cc	-0.69340205
158	0x3d9f05f2	0.07764806
159	0x3d92449c	0.071419924
160	0xbd660002	-0.05615235
161	0x3c9db560	0.019251525
162	0x3e58b609	0.21163191
163	0xbe2819f6	-0.16416153
164	0x3e46cceb	0.19414108
165	0xbe07a5e8	-0.13246882
166	0xbb6c15a3	-0.0036023639
167	0x3dad9bee	0.08477007
168	0xbda33bc7	-0.07970386
169	0x3f4ecc64	0.80780625
170	0x3dbaedc8	0.091273844
171	0x3e0e9793	0.13925008
172	0xbf58fad9	-0.84757763
173	0x3e3ece6e	0.18633434
174	0x3c9a22aa	0.018815357
175	0x3e131155	0.1436208
176	0x3e0b2e16	0.13591799
177	0x3b851d4d	0.004062331
178	0x3e39abc6	0.18131933
179	0xbe3a402a	-0.18188539
180	0xbbfc934f	-0.0077079902
181	0xc02e4d91	-2.7234843
182	0x3d3a7718	0.045523733
183	0xbf2786f3	-0.6544029
184	0xbe1e85e0	-0.15480757
185	0xbf0924e6	-0.5357193
186	0xbdf77f4d	-0.120848276
187	0x3d0eaea0	0.034834504
188	0xbf090f30	-0.535388
189	0x3d1694c8	0.036762983
190	0xbedefc0d	-0.43551674
191	0xbde64cd8	-0.112451255
192	0x3bcacb40	0.00618878
193	0xbfbbed0f	-1.468172
194	0x3cff3d5c	0.031157188
195	0x3b481725	0.0030531373
196	0xbf2f6c5d	-0.68524724
197	0xbcea33d6	-0.02858917
198	0x3dea96f7	0.114545755
199	0xbf07f421	-0.53106886
200	0xbdede965	-0.11616782
201	0xbf1d1c1f	-0.61371034
202	0xbf59c3e6	-0.8506454
203	0x3d493f5f	0.0491327
204	0xbf97f4fa	-1.1871636
205	0xbd065381	-0.03279448
206	0x3dfe1d6e	0.12407957
207	0x3ddb9a5d	0.10722802
208	0x3e273e42	0.16332343
209	0xbe47c96f	-0.19510435
210	0xbc952a59	-0.01820867
211	0xbd89cd9d	-0.06728671
212	0xbdbfd9cb	-0.093677126
213	0x3e84c656	0.25932568
214	0x3dcb46b1	0.09925593
215	0x3e4f82d1	0.20264746
216	0x3ddd025d	0.107914664
217	0xbe40158f	-0.18758224
218	0xbccfbef1	-0.025359603
219	0x3d8ce86b	0.06880268
220	0x3dd8b9f0	0.1058234
221	0x3dd7c34e	0.10535298
222	0x3db096b2	0.08622493
223	0x3d245841	0.040123228
224	0x3de9af29	0.11410362
225	0xbd3eabc0	-0.046550512
226	0xbf1c6762	-0.6109525
227	0x3df18ed2	0.11794819
228	0xbdfb03e7	-0.12256604
229	0xbe84b518	-0.25919414
230	0x3cbcd1f2	0.023049328
231	0x3dc390b9	0.09549088
232	0x3e2078b5	0.15671046
233	0xbde9f26a	-0.1142319
234	0xbd53a1fd	-0.051668156
235	0xbd7fb057	-0.06242403
236	0xbe8f26e3	-0.27959356
237	0x3d3130b4	0.043259338
238	0x3de07350	0.10959494
239	0x3dc2f993	0.09520259
240	0x3e17ed6f	0.14836667
241	0x3d3297ac	0.043601677
242	0x3d54d98f	0.051965293
243	0x3dc88326	0.097906396
244	0xbb9e20f3	-0.004825705
245	0xbee487af	-0.44634768
246	0x3dada715	0.08479134
247	0x3c027003	0.007961276
248	0xbd3cf598	-0.046132654
249	0xbefce299	-0.4939163
250	0x3e3205fb	0.17385094
251	0x3cb8edd8	0.02257435
252	0x3e2c0089	0.16797079
253	0xbcdc1ed9	-0.026870178
254	0xbe11f15c	-0.14252228
255	0xbefec0ea	-0.49756557

q_values.bias f4 [3]
0	0xbf8ceb07	-1.1009225
1	0xbf59bf36	-0.8505739
2	0xbf53831e	-0.82621944
