weights.pth (torch, 138071 bytes, 6 tensors)

fc1.weight f4 [256, 2]
000000 36 ab 1b 40 9d 8f 99 bc d2 fe 49 be 75 51 10 bf
       2.432325 -0.018745238 -0.19726112 -0.56374294
000010 80 7b 3c 3f 99 aa 5d 3d 18 0d 21 bf 8f 76 ef bf
       0.73625946 0.054117773 -0.62910604 -1.8708056
000020 c5 fe 67 bf 6f e2 ec c0 13 51 0c bf 71 67 53 c0
       -0.9062312 -7.402641 -0.5481121 -3.3031886
000030 34 b2 0c 3e cc bd 64 40 7f b1 0f bf 60 1c 1e c0
       0.13739854 3.5740843 -0.5613021 -2.4704819
000040 93 73 38 3f 1d 2d a2 bf 1c 68 fd be 00 bb 36 c0
       0.7205135 -1.2670017 -0.49493492 -2.8551636
000050 72 6b cb 3e f3 e5 8f bf 40 25 10 bf 50 32 91 bf
       0.39730412 -1.124205 -0.5630684 -1.1343479
000060 99 56 17 40 0b e4 54 bf 22 fc bd 3f 0f 86 77 bf
       2.3646605 -0.83160466 1.484257 -0.9668893
000070 53 ba 12 bf 8c 25 d3 bf 4b 5b 30 3e 41 66 58 bf
       -0.5731556 -1.6495833 0.17222326 -0.8453103
000080 d8 cc f9 bb 13 f6 ab 40 f4 ae 18 bf d6 55 18 bf
       -0.007623296 5.3737884 -0.5964196 -0.59505975
000090 66 ff 8c be 99 ce b2 bf 16 57 6a 3f ce 88 23 c0
       -0.27538604 -1.3969299 0.9153913 -2.555225
0000a0 1a 24 0d 3e 34 8d af 3e d0 bd be 3e da a3 29 be
       0.13783303 0.34287417 0.3725419 -0.1656641
0000b0 2d 39 9c 3f d4 ba 97 3e db 86 e0 3f 97 a5 2c bc
       1.2204949 0.29634726 1.7541155 -0.010537527
0000c0 94 71 85 be 78 7c 64 c0 cc 2b b5 be 11 a8 51 c0
       -0.26063216 -3.570097 -0.35384977 -3.275883
0000d0 04 88 85 3d 6b d9 86 bf 25 8b f6 bf 81 35 16 c1
       0.065200835 -1.0535101 -1.9261214 -9.3880625
0000e0 ec ef a3 3f dc 6e 25 3f 3e 41 2a bf c4 a2 10 c1
       1.2807593 0.64622283 -0.665058 -9.039738
0000f0 e0 fc 98 3e 39 ce 05 3f a3 4c 67 bf 14 61 08 c1
       0.29880428 0.52267796 -0.90351313 -8.523701
000100 99 78 b0 3f 2c 8c 44 bf b7 49 9e 3d 34 50 54 3f
       1.3786803 -0.76776385 0.07728904 0.8293488
000110 3e 43 ed be 9c a4 a4 bf 03 29 0f 40 5b 12 69 bf
       -0.46340364 -1.2862735 2.2368782 -0.91043633
000120 fe 60 75 3d ab b3 61 bf 74 df ea 3e 45 33 01 c0
       0.059906952 -0.88164777 0.45873606 -2.0187542
000130 e6 c7 d9 3e c8 ca b4 be a9 6b c9 be fb d5 34 c0
       0.42535323 -0.3531096 -0.3933995 -2.8255603
000140 fd 1c fc 3e 3e 32 35 40 84 5b 07 bf e0 ef df c0
       0.49240866 2.8311915 -0.52874017 -6.9980316
000150 2c 63 c3 bf 06 56 bb c0 b6 0e 1a 3e 0a 43 17 3d
       -1.526464 -5.854251 0.15044674 0.036929168
000160 8e c3 30 bf 9e cd fb c0 5e 9d 0e 40 7d 75 0f bf
       -0.6904839 -7.8688498 2.228355 -0.5603865
000170 c2 0c cb bf 7e 4c ed c0 1b cb 9c 3f 44 9c 34 bf
       -1.5863268 -7.4155874 1.2249483 -0.7055094
000180 bd 63 2c bf 60 84 08 c0 52 b8 bd 3f b9 c9 7d 3f
       -0.6733969 -2.1330795 1.4821875 0.9913593
000190 66 1e c2 bf 37 58 59 c0 ad a3 e1 3e 47 67 39 40
       -1.5165527 -3.3960092 0.44070187 2.8969285
0001a0 2f 0c 3c bf e2 c6 01 c0 dd d6 dc 3f 6b ed a6 3f
       -0.7345609 -2.0277638 1.7253071 1.3041204
0001b0 20 04 97 3f b7 62 38 bf b0 03 49 be e8 b7 93 be
       1.1798134 -0.72025627 -0.19630313 -0.28851247
0001c0 c9 fb 8a 3f b2 47 37 be 6b 18 04 bf 6a 54 02 c1
       1.0858089 -0.17898443 -0.5159976 -8.145609
0001d0 7a c9 20 bf 7e 1c 49 c0 7a 4c 99 bf 49 fd 69 c0
       -0.6280743 -3.142364 -1.1976464 -3.6560843
0001e0 9b 36 02 be be 87 ab 40 eb 52 d3 be 71 02 58 bd
       -0.12716143 5.36032 -0.412742 -0.052736703
0001f0 d8 3f 8e bf e2 c4 ed c0 46 e3 f1 3d 17 87 d6 be
       -1.1113234 -7.4302835 0.11810927 -0.4189994
000200 55 03 10 bf 5e 9a ef bf b6 fd 00 bf da 5b d3 c0
       -0.56255084 -1.8718984 -0.5038713 -6.6049623
000210 94 3a c8 3e 6f 58 8d 3e 1c 93 f9 be 3a 72 1d c0
       0.39107192 0.27606532 -0.48745048 -2.4600968
000220 49 39 12 40 51 51 2f bf f6 db 76 bf 7c 03 ea c0
       2.2847464 -0.68483454 -0.96429384 -7.3129253
000230 76 46 a1 be 01 f7 7c c0 94 85 88 3f 3a 21 19 3f
       -0.3149907 -3.952576 1.0665765 0.59816325
000240 63 f7 66 bf bd 62 18 c0 68 ad 31 bf 76 1e 95 c0
       -0.9022123 -2.3810265 -0.6940522 -4.6599684
000250 dc 38 46 be 53 71 fc c0 1e 5d 87 be 00 ec 39 c0
       -0.19357628 -7.8888335 -0.2643823 -2.9050293
000260 c0 cf 47 bf c0 07 0b c0 5e 82 7d 3d 29 54 14 be
       -0.78051376 -2.172348 0.061891906 -0.1448523
000270 c8 7d 84 3e 13 95 41 40 f8 0d 37 bf db c7 08 c0
       0.25877213 3.0247238 -0.7150569 -2.1371982
000280 d1 37 4b 3f 3f 11 7c 40 45 10 76 3f 9c 8f a2 bf
       0.79382044 3.9385526 0.96118575 -1.2700076
000290 f0 2d 47 be 95 c1 d5 bf 3b 30 17 3f 6d e4 51 40
       -0.19451118 -1.6699702 0.5905797 3.279567
0002a0 a6 00 9d 3f 14 b8 88 bf 9e 52 39 40 7c 7d 0f bf
       1.2265823 -1.0681176 2.8956676 -0.5605085
0002b0 1e c4 f4 3f 18 b8 55 3f c6 c0 0b c0 04 7e f1 c0
       1.912235 0.8348403 -2.183641 -7.546633
0002c0 93 0e 26 3e 49 d5 8f bf df 57 43 be 5f be f2 bf
       0.16216497 -1.1236964 -0.19076489 -1.8964347
0002d0 95 96 bf bf 57 a2 ff c0 d3 4b a8 3f 1a bf 8b be
       -1.4967829 -7.988567 1.314814 -0.27294236
0002e0 d4 b9 94 be 8f 35 c4 be fd af a0 bf 2c a3 07 c1
       -0.29048026 -0.38322112 -1.2553707 -8.477337
0002f0 fd 52 15 40 d1 07 eb bf f0 a2 02 40 36 ca 81 3e
       2.3331902 -1.836176 2.041195 0.25349587
000300 9c c6 b5 be dd e0 88 bf 06 c4 74 3f d3 dd 29 3f
       -0.3550309 -1.0693623 0.9561161 0.663541
000310 2a 5b b4 bf 38 f3 ff c0 52 66 9e 3f 54 8b 83 bf
       -1.4090321 -7.99844 1.2374976 -1.0276895
000320 5c 29 12 3f b0 ce 4e 40 75 e4 f5 be 39 f0 1a c0
       0.5709436 3.2313652 -0.4802586 -2.420912
000330 b1 72 b2 bf 86 e1 1b c1 51 43 8b 3e 8f 66 d3 3e
       -1.3941251 -9.742559 0.27199796 0.41289183
000340 10 1e 5e bf b5 6d 05 c1 b4 c2 c2 bf 45 d8 f1 c0
       -0.8676462 -8.339284 -1.5215669 -7.55765
000350 9d 80 19 3f c7 09 07 c0 3e e9 83 3f 50 72 4e bf
       0.59961873 -2.1099718 1.0305555 -0.8064318
000360 ca a3 1c be 5a df bb bf 07 81 e4 be b5 6a c8 be
       -0.15296856 -1.4677536 -0.4462969 -0.3914391
000370 6e e2 86 bf d4 49 c6 bf 80 44 ca 3e f9 af 70 3f
       -1.0537851 -1.549128 0.39505386 0.9401851
000380 b4 76 28 40 aa 17 bb bf 68 b9 22 bf 90 df b4 bf
       2.632245 -1.4616597 -0.6356416 -1.4130726
000390 d6 78 68 3f 95 3c 9e 3d c5 f5 96 3d f7 7d 9c be
       0.9080938 0.07726399 0.073710956 -0.30564854
0003a0 5f b2 81 be 49 ac da 3f 0c 0a c9 be a0 2a 24 c0
       -0.253314 1.7083827 -0.39265478 -2.5651016
0003b0 88 55 08 40 10 8a 2c 3f b6 86 1c 3e c1 be 85 3f
       2.1302204 0.67398167 0.15285763 1.0448838
0003c0 aa 88 f9 be 75 ed e3 bf 17 0e 21 bf ef 13 03 c1
       -0.4873708 -1.7806841 -0.62912124 -8.192367
0003d0 72 90 90 be 47 ff 7e c0 9e 6d bc 3f a9 be 4c bf
       -0.28235203 -3.984331 1.4720953 -0.79978424
0003e0 c4 04 99 3f 95 76 04 bf 09 a5 bc bf 3f 7a d1 c0
       1.1954579 -0.5174344 -1.4737865 -6.5461726
0003f0 8a a7 f7 be 9a c3 f1 bf f9 f9 d1 be 98 cd 09 bf
       -0.4837001 -1.8887818 -0.41011027 -0.53829336

fc1.bias f4 [256]
000000 99 3e 34 3d aa e5 c9 3e 08 fc b5 bd 1e 55 b3 3e
       0.04400501 0.39433032 -0.08885962 0.35025877
000010 cb 04 fe bd d5 03 92 3e cf 4a 81 3d 07 93 a9 3e
       -0.12403258 0.2851855 0.06313097 0.33119985
000020 80 1e 9a 3e 66 37 be 3e 94 77 89 3e 06 b4 ba 3e
       0.30101395 0.3715164 0.26849043 0.36465472
000030 69 57 c4 3c bb b1 d8 3b 00 c2 60 3e fb 2f ca 3d
       0.023967462 0.006612984 0.21949005 0.09872433
000040 2f 22 85 bc 5e ac 86 3e 5e 1f c1 3e 95 d9 a9 3e
       -0.016251652 0.2630338 0.37719244 0.33173814
000050 cd 0d 02 bd 1f de 90 bd 32 6f 20 be 0e 5c bd 3c
       -0.031751443 -0.07073616 -0.15667418 0.023115184
000060 2c 45 dd 3e 23 17 e2 3d 06 20 d3 bc 60 32 b4 be
       0.43216836 0.11039569 -0.025772106 -0.35194683
000070 4b 0e fb 3b a5 ac a0 be 9b 7f 6c bd 62 c5 21 be
       0.007661616 -0.31381717 -0.05773888 -0.15797952
000080 dd af ec 3b ce 8e 01 bd 4f 80 93 3e 82 c9 9c 3c
       0.007223113 -0.03163033 0.2880883 0.019139055
000090 20 ff c5 bc e9 b9 f6 bc 4b a1 9b bd e8 b3 af 3e
       -0.024169505 -0.030117946 -0.075991236 0.34316945
0000a0 35 51 31 3e 35 3d 81 be ff 49 fe be 48 36 c8 bc
       0.17316134 -0.2524201 -0.4966583 -0.024439946
0000b0 84 29 82 3d 62 3e e6 3c 66 2b 9c be 18 3a 19 3c
       0.06355575 0.028105918 -0.3050186 0.00935223
0000c0 f2 ea c6 3e 9d a7 b8 3c e9 8e 53 be 70 ea 1d 3e
       0.38851124 0.022540862 -0.20659985 0.15421462
0000d0 aa 49 9a 3e b5 d7 0e 3d 2e 29 89 3c d6 4f c3 3e
       0.30134326 0.034873683 0.016743269 0.38146847
0000e0 c1 f2 f0 3b 24 05 de 3d 3f 25 cb 3e ba 27 9a 3e
       0.0073531573 0.10840824 0.39676854 0.30108434
0000f0 73 a5 95 bd d1 5e 79 3e 09 97 b9 be c9 b0 cd bc
       -0.073069476 0.24352576 -0.36248043 -0.025108712
000100 2d 97 81 3e ca 23 77 be 11 b3 84 bd 1c d2 ae 3e
       0.2531065 -0.24134746 -0.06479467 0.34144676
000110 c3 08 2e 3c 1a 78 bb be 51 e7 d0 3e 32 90 0a bc
       0.010622206 -0.36615068 0.4080148 -0.00845723
000120 42 62 93 3e c2 ee 26 3e f4 3e ae bd 98 9d cd 3e
       0.28785902 0.16302016 -0.08508101 0.40159297
000130 0f 0f 93 3e d7 d1 c6 bc c3 15 02 3e a5 67 58 3e
       0.28722426 -0.024269981 0.12703614 0.21133287
000140 4a aa 8f 3e 42 b5 b1 b9 92 fe d4 3e 09 73 55 3e
       0.28059608 -0.00033895118 0.41600472 0.20844664
000150 6d 35 61 ba 01 9e 1b 3d ab 0d 09 3d 68 41 e8 be
       -0.000859103 0.03799248 0.0334603 -0.453624
000160 a6 80 08 bd 35 1d db 3e ef 71 98 be 48 07 6f 3b
       -0.033325814 0.4279572 -0.29774424 0.0036472846
000170 2b 0e c8 3e 37 dc a9 be 47 37 00 3d 40 05 a8 3c
       0.3907331 -0.33175823 0.031302717 0.020510316
000180 4e cd b0 3e 26 1b a2 3c f5 a6 b8 be 0d e4 42 3c
       0.34531635 0.019788336 -0.36064878 0.011895192
000190 de 16 4e 3e 50 77 9c 3e ef e2 cc 3d 03 d7 90 bd
       0.2012591 0.30559778 0.10004222 -0.0707226
0001a0 72 ec a0 be 80 67 d5 bc 9e 39 1d bd b6 b1 78 3c
       -0.31430393 -0.02605033 -0.038385026 0.015179088
0001b0 20 d8 e5 3e 0c 10 9d be 98 ef 44 3e 7e ec 8c bd
       0.44891453 -0.30676305 0.19232023 -0.06881045
0001c0 ae b5 11 3d ba e7 af 3e ab fb 88 3c 47 d0 bd bc
       0.035573654 0.3435648 0.016721567 -0.023170603
0001d0 56 14 21 bd 06 d1 b0 3e 6a ad be 3c 94 0f 02 bd
       -0.039326034 0.34534472 0.02327605 -0.031753138
0001e0 b0 9a 8d 3e a9 a5 9a be 4a 87 e0 3e 04 71 c5 3c
       0.2765708 -0.30204514 0.43853217 0.024101742
0001f0 f1 bb 3f 3c 9d a3 b1 be c3 39 96 3e 24 7f 7c 3e
       0.011702524 -0.3469514 0.29340944 0.24657875
000200 3e 45 a1 bd c6 a4 52 3e a1 4b 2a 3c dd 7a cd 3e
       -0.07874535 0.20570669 0.010394008 0.401328
000210 dd 46 be be 77 01 02 be 6f 26 61 be 87 3b 9a be
       -0.3716344 -0.12695871 -0.21987318 -0.3012354
000220 9f bb 99 be 00 a8 eb 3c 1f df 05 3e 5f b2 20 3c
       -0.30025956 0.028766632 0.13073395 0.009808152
000230 ff f9 b2 3d 07 bf 18 3e 17 08 b3 bd 34 f3 aa bd
       0.08739089 0.14916621 -0.087417774 -0.083471686
000240 1e 26 81 3e ee 32 84 3c b8 03 a4 be 4f a0 5e bb
       0.25224394 0.016137566 -0.32034087 -0.0033970063
000250 15 5c 61 3e 92 69 c4 be 59 41 84 be 2f 5a c1 3c
       0.22007783 -0.38361794 -0.25831106 0.023602573
000260 74 ed 9b 3e 11 94 90 bd 58 fb 4f bc 83 3f 5e 3e
       0.304546 -0.070594914 -0.012694202 0.21703915
000270 67 56 07 3e 83 a7 b7 3e a8 67 26 3c ab ad 00 bf
       0.13216554 0.3586999 0.0101565495 -0.50264996
000280 7b 16 ad 3e 88 5f 75 3e e7 e4 26 3c aa 2f e7 3e
       0.33806214 0.23962224 0.0101864105 0.45153552
000290 27 6b ab 3c c9 4b 39 3c d2 50 c6 3e 96 b2 f2 be
       0.020925118 0.0113095725 0.38733536 -0.47401875
0002a0 bb 15 be 3e ce 2f 53 3e e2 1b da 3d 49 08 89 3c
       0.37125954 0.20623705 0.106498495 0.016727583
0002b0 26 52 8d bd b0 fd 44 3e 05 59 a6 3e 07 80 b6 3c
       -0.06900434 0.19237399 0.32489792 0.022277845
0002c0 94 d8 e5 bd d0 57 89 bd e8 3a 94 3e fc b4 b1 bd
       -0.112229496 -0.06706202 0.28951192 -0.08677098
0002d0 f3 10 9a bd 12 f9 96 3c 4d ed bb bd 3a bb b0 3e
       -0.07522764 0.018429313 -0.09176121 0.34517843
0002e0 77 fd be 3c f8 15 d9 3e 2a 3b 7d 3c d4 0e 02 bd
       0.02331422 0.42399573 0.015456 -0.031752422
0002f0 39 1c e5 3c 9a 60 8c 3e e6 71 4d 3c bc ff b0 3e
       0.02796756 0.2741745 0.012539363 0.3457011
000300 e9 37 d3 3c 81 e7 ba 3c ed 10 99 3e 6b 5e 69 3e
       0.025783496 0.022815468 0.29895726 0.22789924
000310 83 11 b0 be d0 19 44 3e 4c 5b 85 3c 47 37 81 be
       -0.3438836 0.19150472 0.016278885 -0.25237486
000320 8a e0 d5 be 6e 4b 8d 3d 1d bd a2 3e 2b e6 4c 3e
       -0.41772872 0.06899153 0.31784907 0.20009677
000330 e1 17 8f 3c 58 ac 33 bc f5 e5 cb 3e e1 32 90 bd
       0.017467441 -0.010966383 0.3982388 -0.070409544
000340 22 2c c2 3e bd 04 8e bd 71 a2 7b 3e 3e 18 ea be
       0.37924296 -0.069344975 0.24573685 -0.4572162
000350 54 e8 6a 3e 53 2f 2c be b3 81 ac be 06 f4 50 3e
       0.22940189 -0.16814928 -0.33692703 0.20405588
000360 eb 77 27 3e f3 ef a7 3e dd 3c c7 3e f7 75 08 bd
       0.16354339 0.32800254 0.38913622 -0.033315625
000370 96 aa b7 bd 0f 21 d9 bc 14 de 01 bd 9a eb 81 bd
       -0.089680836 -0.026505021 -0.03170593 -0.063437656
000380 b6 3a 71 be 30 01 67 be 3c 00 3a 3e 7a d2 68 3d
       -0.23557553 -0.22559047 0.18164152 0.05684135
000390 ed 65 a8 3e 50 7e 80 be e3 c3 1c 3c 42 d5 4c 3e
       0.32890263 -0.2509637 0.009568187 0.20003226
0003a0 01 46 8d bd 55 f7 8e 3c 95 06 fa be a7 4e c2 3e
       -0.06898118 0.017451921 -0.48833147 0.37950632
0003b0 e3 4e bf 3e dd 9b a7 3c db ad 6a be b8 bc af 3e
       0.37364873 0.020460064 -0.22917883 0.34323668
0003c0 65 c6 2a be 29 b5 97 bd 15 d9 f8 be 30 9c 5a 3c
       -0.16677244 -0.074076004 -0.4860312 0.013342902
0003d0 6b 9f 24 3e 62 33 24 3e 44 73 10 3d 38 9f b3 3e
       0.16076438 0.16035226 0.035266176 0.35082412
0003e0 49 2f af 3e 90 56 d0 3e 8a 29 93 be 6a 80 10 3c
       0.34215763 0.40691042 -0.2874263 0.008819679
0003f0 dd 4c c5 3b 5b 9d 0b bd dd 71 f1 bb 55 ef 19 bc
       0.0060211257 -0.034085613 -0.00736831 -0.00939544

fc2.weight f4 [128, 256]
000000 85 c8 3b bc ad de 5c 3d 06 6f 1d bd 39 2e 4a 3d
       -0.011461382 0.053923298 -0.03843596 0.049360488
000010 3c 95 c0 3c 65 f4 9b bd a7 e4 c3 3c 22 72 a0 bd
       0.02350866 -0.07614974 0.02391274 -0.07834269
000020 90 b9 61 3c 89 60 75 3d e4 92 13 3b 9e 61 fa bd
       0.013777152 0.059906516 0.0022517974 -0.1222565
000030 82 43 f3 3a e7 bf d0 3d 90 7e bf bd 3e 07 d1 bd
       0.0018559548 0.101928525 -0.09350312 -0.102064595
000040 66 77 4e 3d 03 42 67 bc 34 28 c5 3d 69 a2 88 bd
       0.050406836 -0.0141148595 0.09626809 -0.06671602
000050 c2 4d ab 3d c1 de ae bd bf 35 36 b9 07 c5 48 3c
       0.083644405 -0.08538581 -0.00017376895 0.012254006
000060 bf 38 47 bd 60 28 1c 3d 07 39 28 be a3 b7 42 bc
       -0.0486381 0.038124442 -0.16428004 -0.011884603
000070 1c e8 d7 3d 49 ed 73 3d b2 6d 8c bc df 82 bf bd
       0.10542318 0.059552465 -0.01714215 -0.093511336
000080 60 08 01 be 78 61 a9 bc 70 cd 09 be 0a c6 09 be
       -0.12600851 -0.02067636 -0.13457274 -0.13454452
000090 ae 84 44 3d f3 36 a4 bb 4b 48 89 bd 67 5d a2 3d
       0.047978096 -0.0050114333 -0.06703242 0.07927971
0000a0 8c 78 a6 bc 15 44 85 3d 32 bb ab bd a3 d1 a2 bc
       -0.020321153 0.06507126 -0.08385314 -0.019875353
0000b0 c2 4b d6 3c 21 4a 38 be e3 7f 00 3d 13 7c 5f bc
       0.026159171 -0.17997028 0.031371962 -0.013640421
0000c0 13 f5 9a bd ce fb bc 3d e6 90 88 be bc 5c 00 3e
       -0.075662754 0.092277154 -0.2667305 0.12535375
0000d0 2d cf 84 39 fb 93 e1 bb 3e ea f7 3d 3c a1 9c bd
       0.0002533136 -0.0068840957 0.12105225 -0.076479405
0000e0 07 f2 1f 3d 79 ae 94 3d 26 da 8a bd 0a 01 ae 3d
       0.039049175 0.072598405 -0.0677989 0.08496292
0000f0 72 6f cc 3c e7 f5 99 3d d3 c6 59 bd 8d 02 a9 3d
       0.024955485 0.07517605 -0.05316813 0.0825244
000100 15 c5 71 bd af 35 17 3e ba ad a3 bb 90 b5 5f 3d
       -0.059025843 0.14766572 -0.004995075 0.05461651
000110 35 25 18 be 4f da 88 3d e7 b6 3b 3d 28 ce 19 be
       -0.14857943 0.06682264 0.045828726 -0.15020049
000120 ab 46 18 bd 54 12 31 bd 84 7b a2 3d 49 ef a3 bd
       -0.03717677 -0.04323037 0.07933715 -0.080046244
000130 79 04 26 bd b8 2c d1 3d 90 9a b6 bc 82 29 68 bd
       -0.04053161 0.102136075 -0.022290498 -0.05668021
000140 76 12 0d 3d be cd 25 3d e4 c9 b3 3d 7a 98 23 bd
       0.034441434 0.040479414 0.08778742 -0.039940335
000150 01 b8 68 3d b9 40 31 bd f1 5e a2 3d e7 6c 6b 3e
       0.056816105 -0.043274615 0.07928265 0.22990762
000160 00 58 36 3d c4 03 a1 bc e2 fa 70 bd c7 21 17 be
       0.044517517 -0.019655116 -0.05883301 -0.14758979
000170 b1 99 97 3c 31 ac 8e bb 99 aa c7 bd 16 22 27 bd
       0.018505903 -0.004354023 -0.09749336 -0.04080399
000180 e5 1c bf bd ba 68 fe bd 3c 54 2a 3d f5 ba 8c 3d
       -0.09331683 -0.12422319 0.04158424 0.06871597
000190 79 57 55 bd 9f ca ec bc b9 60 57 bd 30 f5 81 bd
       -0.052085374 -0.028905211 -0.052582476 -0.06345594
0001a0 50 8d 73 be 95 a3 bf 3c e5 c8 22 3e 38 78 9b 3d
       -0.23784375 0.023393432 0.15896948 0.07591289
0001b0 3f 4e b3 3c d3 26 80 3c 19 09 ef bc e6 b1 82 3d
       0.021887897 0.015643513 -0.029179143 0.06381588
0001c0 45 4a 1d bd c6 18 9d 3c e8 55 6e 3e 8a bf c1 3d
       -0.038400907 0.019176852 0.23274958 0.09460361
0001d0 14 1a d5 3d f2 12 b1 bc d0 61 39 3d ad af de 3d
       0.10405365 -0.02161548 0.045259297 0.10873351
0001e0 70 35 0e be 24 e6 16 3c d0 06 53 bd 35 eb 9a bd
       -0.13887572 0.009210143 -0.05152017 -0.075643934
0001f0 f8 d4 d5 bc 02 40 84 3c 93 92 06 be dd 86 5f bd
       -0.026102528 0.016143803 -0.13141851 -0.054571975
000200 4c 49 be 3d 53 18 f3 bc 57 8b 26 3e 53 fe 14 bd
       0.09291324 -0.029674685 0.16264091 -0.036375355
000210 0e bc a7 bd ca d5 8f bd 7d 95 37 3d b8 17 48 bb
       -0.081901655 -0.07023199 0.044820298 -0.0030531716
000220 fb 2c 2f be bb df 09 3e c4 48 a2 bd f8 f5 83 3d
       -0.17107002 0.13464253 -0.07924035 0.06443399
000230 14 39 fa 3c 40 06 0e be e1 79 aa bd 36 26 2f 3e
       0.030544795 -0.13869572 -0.08324028 0.1710442
000240 2b 1e 38 bd 73 a2 85 3d b7 f5 97 bd 9d 38 2f 3d
       -0.044950645 0.06525125 -0.07419913 0.0427786
000250 b5 94 1a be ba db 72 3c 14 0e d3 bc 45 85 e8 bd
       -0.1509579 0.014822895 -0.025763549 -0.11353544
000260 c8 ec 27 bd a2 a6 28 be c8 f5 3c bb 09 e0 a0 bd
       -0.040997297 -0.16469815 -0.002883302 -0.07855231
000270 e8 70 4d bd e1 70 d5 3d 76 27 83 3d 5f a4 95 3d
       -0.050156504 0.104219206 0.06404011 0.07306742
000280 76 b9 ce 3c d0 d0 b8 bd 63 99 2f 3e ca 9c 9e bd
       0.025234919 -0.09024203 0.17148356 -0.07744749
000290 2d 76 31 bd fe 53 67 3c 49 df 14 3e 6a 33 19 3e
       -0.04332559 0.014119146 0.14538302 0.14961019
0002a0 ba bb 37 be fb d3 e7 bd b2 55 0a be e2 ed c4 bd
       -0.17942706 -0.11319729 -0.13509253 -0.09615685
0002b0 84 da aa 3d ec ee a8 bc e9 fe 11 3e fe 2b a1 bd
       0.0834246 -0.02062174 0.14257397 -0.07869719
0002c0 b3 87 8d bd 26 04 93 3d 0f 43 91 3e f7 16 a9 bd
       -0.06910648 0.071785256 0.28371474 -0.08256333
0002d0 fc db 76 3d 6c f6 66 bd 81 6a 3e 3d c3 6d 75 bc
       0.060268387 -0.05638735 0.04648829 -0.0149797825
0002e0 fb aa 49 3d 1a 6a 0b be 35 a5 02 bd c7 45 48 3e
       0.049235325 -0.13614693 -0.031895835 0.19557868
0002f0 10 5e 68 bd 86 b1 a8 3d 61 e1 63 bc 68 b3 92 3c
       -0.05673033 0.08236985 -0.013908715 0.017907813
000300 22 81 09 3d af c0 c4 3d 8f 33 31 3b 24 4c 9a 3d
       0.033570416 0.09607064 0.0027038788 0.07534054
000310 4c e8 cd bd ba 6e 5b 3d 8b d4 ad bb a4 6d 65 3c
       -0.10054073 0.053572394 -0.005304878 0.014003191
000320 be 1d c9 3d 21 b8 a8 3d 82 5c 68 3d f4 88 8b bc
       0.09820126 0.08238245 0.056728847 -0.017033078
000330 a8 99 9e bc 5c 1b 28 3e d6 18 c1 bc f8 7b da 3c
       -0.019360378 0.16416687 -0.023571413 0.026670441
000340 fe 13 03 be db 0a 32 bd ca 2f 44 bd ed 41 84 3d
       -0.12800595 -0.043467384 -0.047897138 0.06457887
000350 da 65 64 3c a0 6e c1 bd 08 9f 5d bd 7c c7 34 be
       0.013940299 -0.09444928 -0.054106742 -0.17654222
000360 3d aa 11 3e 9d 77 c0 3d b7 29 a2 3c 34 2b c8 bc
       0.14225097 0.093978144 0.019795282 -0.024434663
000370 68 2d 3a 3d 56 de ce bd 14 34 0d bd 89 78 52 3d
       0.04545346 -0.10101001 -0.034473494 0.051384483
000380 72 fa 9a 3d 90 c5 ea 3d aa bb 12 be 1d 2e 08 bd
       0.075673 0.11463463 -0.143294 -0.033247102
000390 73 d6 0f 3d 3c d7 c7 bc 41 62 c3 3d 4a 07 9e bd
       0.035116624 -0.024394624 0.09540225 -0.07716234
0003a0 2e 09 fe bd cf 9e 2a bc c8 c1 a1 bc 26 a3 36 bc
       -0.12404095 -0.0104138395 -0.019745722 -0.011147296
0003b0 be 6c 4f be 80 d7 1b be 88 13 47 3d fa b2 35 bd
       -0.20256326 -0.15218925 0.04860261 -0.04436014
0003c0 97 42 38 3e 69 d4 85 bc 56 26 d1 bc f3 df a9 3c
       0.17994152 -0.016336637 -0.025530975 0.02073667
0003d0 4b 88 ed bd c4 16 e5 bc 8e eb 17 be 80 f5 18 3d
       -0.115982614 -0.027964957 -0.1483595 0.037343502
0003e0 8b a4 ea bb e9 2d 3f 3e cd 92 62 bd 51 50 f6 3d
       -0.0071607283 0.18669857 -0.05531578 0.12027038
0003f0 92 02 88 bd d9 e8 43 3d 9c b5 98 3b 8c 8d f1 3c
       -0.06641115 0.047829483 0.0046603214 0.02948644

fc2.bias f4 [128]
000000 00 00 00 00 a9 87 72 bd d0 cb 06 bd 7c a4 c6 bb
       0.0 -0.059211407 -0.032909214 -0.0060620885
000010 b0 ac 25 bd 09 0d ee bb 6d 9f b5 bc 6b 04 28 bc
       -0.04044789 -0.0072647375 -0.022170747 -0.01025496
000020 a2 da 6c 3c 00 00 00 00 bb f3 ec bc 2a e7 01 bd
       0.014456423 0.0 -0.028924813 -0.031714596
000030 57 f2 ba bc f8 31 f9 bc 1e 7d 1b bd ba 97 8b bd
       -0.022820635 -0.030419335 -0.037961118 -0.06816049
000040 97 c8 7b 3c 00 00 00 00 d5 ca cb bc 0a 95 ba bc
       0.015367649 0.0 -0.024876991 -0.022776145
000050 98 0f bb bc 6e 96 41 bc 04 50 00 bd 4b 8d e2 bc
       -0.022834584 -0.01181565 -0.03132631 -0.027655264
000060 00 00 00 00 66 1c 89 bc 0d 1a 02 bd 4c 6c a6 bc
       0.0 -0.016737174 -0.031763125 -0.020315312
000070 b6 74 b1 bb 48 4c 97 bc 00 00 00 00 ec ec e6 bc
       -0.0054155244 -0.01846899 0.0 -0.028189145
000080 48 f4 e9 bc 78 1b 26 bd f0 16 1a bc 00 00 00 00
       -0.028558865 -0.04055354 -0.009404883 0.0
000090 c4 b4 49 bb f0 80 a6 bc b5 49 e3 bc 33 a8 c9 3e
       -0.003077791 -0.020325154 -0.027745107 0.39386138
0000a0 3d 15 02 bd 06 30 ba be 00 00 00 00 1c a2 1e bd
       -0.031758536 -0.36364764 0.0 -0.03872882
0000b0 c7 8a 16 bd 00 00 00 00 f3 83 3b bd d6 40 06 bc
       -0.036753442 0.0 -0.045780133 -0.008194169
0000c0 c4 0f ff bc 34 76 03 bd 5e c9 14 bd ae 4f b0 bc
       -0.031135447 -0.03209515 -0.03632485 -0.02152237
0000d0 f2 84 3c bc 22 83 2c bc 57 1b 45 bd 00 00 00 00
       -0.011506306 -0.010529311 -0.048121776 0.0
0000e0 ae b1 29 bd 2e 15 02 bd 59 01 a2 bc c4 36 01 bd
       -0.041429214 -0.03175848 -0.019776033 -0.03154637
0000f0 ce 8c 22 bd 59 a5 02 bc df 9f 80 bc 41 fc 01 bd
       -0.039685063 -0.007973992 -0.015701232 -0.03173471
000100 63 64 0a bd ce b7 19 bc 8d c4 7c bc 94 19 d7 bc
       -0.033787142 -0.009382201 -0.015427721 -0.026257314
000110 c3 22 dd bc 6b c7 8d 3d 02 bc bf bc 2a 86 41 bc
       -0.026994115 0.069228016 -0.023405079 -0.011811772
000120 bd 82 2e bd 96 87 dd bc 4d 17 11 bd af 2b 1b bd
       -0.04260515 -0.027042191 -0.035422612 -0.037883457
000130 1e dd 34 bd 00 00 00 00 6f 1c 0b bd bd 12 02 bd
       -0.044156186 0.0 -0.033962663 -0.03175615
000140 eb f7 3c bd 2d 8f 58 bc 6c 89 e6 bc 4c 19 02 bd
       -0.04613487 -0.0132177295 -0.0281417 -0.031762406
000150 00 00 00 00 69 31 dc bc 2d b8 db 3e ab 89 53 3e
       0.0 -0.02687903 0.42913952 0.20657985
000160 71 a8 ca bc 88 3c f8 bc e5 c7 20 bc d0 c3 55 bd
       -0.024738522 -0.030302301 -0.009813284 -0.052188694
000170 95 53 e7 bc 36 5f 6e bd 25 7b dc bc 00 00 00 00
       -0.028238097 -0.05819627 -0.026914189 0.0
000180 65 d5 37 bd c1 56 ac bb 55 14 cc bc 53 9c 23 bd
       -0.044881243 -0.0052593653 -0.024912039 -0.039944004
000190 27 45 b9 bb 47 03 26 bd ef b8 68 bd 27 46 28 bd
       -0.0056539956 -0.04053047 -0.05681699 -0.041082527
0001a0 c9 0d 02 bd 48 fd 02 bc 15 16 84 bc 0e 08 02 bd
       -0.031751428 -0.007994957 -0.01612381 -0.031745963
0001b0 f1 d9 11 3b 00 00 00 00 00 00 00 00 25 8f da bc
       0.0022255147 0.0 0.0 -0.026679585
0001c0 0b f2 6f 3e ab f3 01 bd 5a 3d ff bc 5d a9 69 3e
       0.23432176 -0.03172652 -0.031157184 0.22818513
0001d0 c3 24 94 bc ab d0 e5 bc 8f 38 5e 3c d9 93 da bc
       -0.018083936 -0.028053602 0.013563289 -0.026681827
0001e0 46 47 13 bc f4 01 0f bd 00 00 00 00 5d 7f 0b bd
       -0.008989161 -0.034913972 0.0 -0.03405701
0001f0 35 99 29 bd aa 48 5a bc 91 15 02 bd 3a 0a fa bc
       -0.041405875 -0.0133229885 -0.03175885 -0.030522455

q_values.weight f4 [3, 128]
000000 fc 45 47 be ae 8c 4b be 81 13 c2 bd ce 96 ac 3b
       -0.1946029 -0.19877884 -0.09476376 0.0052670008
000010 21 1a 35 ba 80 b2 35 3e 7d aa 60 bd be bb ff bc
       -0.00069084956 0.17743874 -0.05485009 -0.031217452
000020 43 dd db bd 45 fb 1b be 04 f0 d3 3d 8a 54 b2 3d
       -0.10735562 -0.1523257 0.10348514 0.08707531
000030 91 96 0f be eb f7 1d 3e a7 f0 ea 3d bd 28 4b be
       -0.1402228 0.15426604 0.11471682 -0.19839759
000040 8a 51 99 3d f8 73 53 be c1 b8 03 3e 8e 14 7c bc
       0.074862555 -0.20649707 0.12863447 -0.01538576
000050 f7 1b 26 3e d5 00 29 be c6 8e 25 be cf 87 0c 3e
       0.16221605 -0.16504224 -0.16167745 0.13723682
000060 24 23 99 bd 4e 91 99 bd 2c 7d f5 bd 05 29 ed bd
       -0.07477406 -0.07498418 -0.11986765 -0.115800895
000070 7c ec ec bc 20 9e c9 3d 01 2f 4c 3e b7 6c 07 be
       -0.028921358 0.09844613 0.19939806 -0.13225065
000080 14 89 5b bd 5e 3b b7 3d ec 36 ec bd 12 b5 b1 bd
       -0.053597525 0.0894687 -0.11533913 -0.086771145
000090 af c1 11 3e ec 20 45 3d c1 e1 67 be b6 7d f7 be
       0.1423404 0.0481271 -0.22644712 -0.48338097
0000a0 bc 9c 07 3e 11 79 49 3f 95 03 3c 3e b5 48 1c 3d
       0.13243383 0.7870036 0.18360741 0.038155276
0000b0 5d 60 d5 bd 4c 49 75 3d 0f 32 9b 3d 3a 61 61 3c
       -0.104187705 0.059884354 0.07577907 0.013756091
0000c0 85 86 4b be 45 86 ab bc 75 5a 49 be 0d 45 c2 3d
       -0.19875534 -0.020938048 -0.19663413 0.09485827
0000d0 a9 f5 26 3d 6b 37 1f 3d 02 2c 7f bd 3c 04 67 3d
       0.040761624 0.03887121 -0.06229783 0.056400523
0000e0 f5 eb e7 3d ed 68 03 be aa 21 f3 3c 1b e4 52 be
       0.11324302 -0.12832995 0.029679138 -0.20594828
0000f0 5f 1d 99 3c 9b 66 42 be 9c 8f 8b 3d 41 d2 20 3e
       0.018690763 -0.18984453 0.06814501 0.15705206
000100 b6 b3 45 3d 93 ae e0 bd c2 bb bf 3c d3 a3 10 3e
       0.04826709 -0.109707974 0.02340496 0.14124994
000110 a4 12 f2 3d 75 2f 34 bd 29 1c 2c bd 4a c3 02 be
       0.11819962 -0.04399057 -0.042019043 -0.1276981
000120 a7 b4 14 bd 8d 5f 40 be 97 fc 46 be 17 8f 02 3e
       -0.036305096 -0.1878645 -0.19432293 0.12749897
000130 3f 8e 78 bd 1a 1f c1 3d a8 74 93 3d ee 67 df 3d
       -0.06068253 0.0942976 0.07199985 0.10908495
000140 b9 50 c4 3d b4 32 02 3d 63 07 29 3e 20 2b 13 bd
       0.09585709 0.031786636 0.16506724 -0.0359298
000150 a8 91 f1 bc dc 38 0f 3e e8 56 f4 be 3c a5 b0 be
       -0.0294884 0.13986534 -0.47722554 -0.34501064
000160 27 bf fa bc 65 49 f4 bd 4c 71 be 3d c3 c6 4f bc
       -0.030608727 -0.119280614 0.092989534 -0.012681666
000170 c7 d0 76 3b 6a d9 1e 3d 21 46 17 3b d9 23 2f 3e
       0.0037661062 0.03878156 0.0023082572 0.17103519
000180 95 15 9c 3d de 1e 52 3d 0c 02 0e bd ca d7 ca bd
       0.07621304 0.05129897 -0.03466992 -0.0990444
000190 bc d4 7d bd b2 b8 a0 bb f6 9d c4 3c b2 cf ef 3d
       -0.061970457 -0.00490483 0.024001103 0.117095366
0001a0 5b 46 ba bd 05 76 89 bd 2a 40 cc 3d 16 60 58 be
       -0.090954505 -0.067119636 0.09973176 -0.21130404
0001b0 ce fc 04 bd f8 bb 6b bd 75 5c 52 be a6 eb 89 3d
       -0.032467656 -0.057552308 -0.20543082 0.067343995
0001c0 1d b4 9c be 7f 79 cc bd d3 b4 8c 3d 71 60 4c be
       -0.30606166 -0.09984111 0.06870427 -0.19958664
0001d0 e6 b2 d6 3d f1 65 10 3e 0d 97 91 3d 54 4d e7 bd
       0.10483341 0.14101388 0.07108889 -0.11294046
0001e0 f0 7e c4 3c db 92 38 3d b4 86 23 3d f9 08 39 3b
       0.02398631 0.045061927 0.039923385 0.0028234108
0001f0 66 cb 17 be 1e eb 07 be b4 a0 1d be 38 5a be 3c
       -0.14823684 -0.13273284 -0.15393335 0.023236379
000200 b2 e0 13 be 67 78 82 3b ac 4c 0d be 1b b0 4c bd
       -0.14441183 0.0039816382 -0.13798779 -0.049972635
000210 05 82 17 bc 17 00 c9 bc 00 52 23 be 53 c9 3f bd
       -0.009247308 -0.024536176 -0.1594925 -0.046822857
000220 bc af 83 ba c0 33 27 bb 08 f9 65 3e f6 a0 3b 3d
       -0.001004688 -0.0025513023 0.22458279 0.0458078
000230 32 1c 5c 3e 6b 11 13 3e 3d a8 3d be 38 1b fd b9
       0.2149513 0.14362113 -0.18521209 -0.000482762
000240 3d 12 5c bc 80 fd 40 3c 4b 00 9b bc 93 dc 94 3d
       -0.013432083 0.011779189 -0.018921038 0.07268634
000250 44 12 14 bd d6 5d 1a bd 7b 54 03 3e 6b 88 e4 3d
       -0.036150232 -0.037687145 0.12825195 0.11158832
000260 86 e9 a1 3d 2c 5b 31 be 09 65 1a 3e 39 c0 0e 3e
       0.07905869 -0.17319936 0.15077604 0.13940515
000270 44 f3 34 bd 98 0c ae bb 93 ed 3c 3e a9 78 9f 3d
       -0.04417731 -0.00531156 0.18450002 0.07786686
000280 72 ac 06 3d 5d 6d c3 3d 73 00 fe 3d f3 5f 34 3e
       0.0328793 0.09542344 0.124024294 0.17614727
000290 a5 d7 75 bd 20 20 11 be 61 68 b3 bc e8 36 95 be
       -0.060020108 -0.14172411 -0.021900358 -0.29143453
0002a0 ca 49 c2 bd 11 4f 41 3f 34 0c 06 be fd 68 50 bd
       -0.094867304 0.7551127 -0.13090593 -0.050881375
0002b0 a2 86 45 bd f0 18 0e bc b6 d8 03 bc 1c f2 30 be
       -0.0482241 -0.008672938 -0.008047273 -0.17279857
0002c0 5a 24 ea bd 7a 24 1a be c0 6c 22 3e 6d 71 ef 3d
       -0.11432715 -0.15052977 0.15861797 0.11691556
0002d0 a3 c0 ed 3d 82 2b ed bd 89 57 e6 bd 71 63 19 3e
       0.11609008 -0.11580564 -0.11247165 0.1497934
0002e0 8c 64 0f be 1e 59 9c 3d 5d cb 36 3e 4d 9a 02 3e
       -0.140032 0.07634185 0.17851014 0.12754174
0002f0 4a 9f 76 39 f8 6f 57 3e 1b 3d 09 3e b8 fd c4 3d
       0.00023519728 0.21038806 0.13402216 0.096187055
000300 5c 2c 46 be 82 16 2e 3d 46 a6 7e 3d 9a 19 1c be
       -0.1935286 0.042501934 0.06217029 -0.15244141
000310 b6 5a f6 bd f0 cb 03 3d 6b 72 1d 3e 73 96 62 bd
       -0.120290205 0.03217691 0.15375678 -0.05531926
000320 4a e2 f6 ba ec a0 33 bd 2c f1 08 be e4 21 04 3e
       -0.001883575 -0.04385464 -0.1337325 0.12903553
000330 a2 ea 4a 3e 19 af 48 3e d9 47 87 3d 9e 2c 36 be
       0.19816068 0.19598044 0.06605501 -0.17790458
000340 4e 55 4f 3c 1b 85 82 bd 09 72 02 bc 0d 05 19 be
       0.012654616 -0.06373044 -0.007961758 -0.14943333
000350 3a 26 fa 3d 6c 7e 4d 3e b2 53 41 be 44 8b f7 be
       0.122143224 0.20067757 -0.18879583 -0.4834844
000360 c1 7a 3a be d4 f5 27 3d 13 47 b2 bd 9c 40 9f 3d
       -0.1821089 0.041005924 -0.087049626 0.07775995
000370 cc e1 2c be 9e ad 46 be a7 b3 d9 3d d6 b9 9a 3d
       -0.1688301 -0.19402167 0.10629969 0.07554977
000380 ca 28 f8 3d 5d 9e 6a bd 03 32 76 3e bf c2 32 bc
       0.12117155 -0.057279933 0.24042515 -0.010910689
000390 57 01 a3 3d e7 b8 01 be 42 51 34 3e 57 ef 88 3d
       0.0795924 -0.12668191 0.17609122 0.066862755
0003a0 42 d9 24 be b5 64 4e 3b 9c c2 c2 3d ba b1 2c 3e
       -0.16098502 0.0031493132 0.09509775 0.16864672
0003b0 68 f5 f2 39 80 68 8e bd 42 24 c4 3d a5 7c 45 bc
       0.0004634068 -0.069535255 0.09577228 -0.012053643
0003c0 f3 6d cb be c5 ab 10 bd 88 53 f4 3d 7e 14 f1 be
       -0.39732322 -0.035320062 0.11929995 -0.47085947
0003d0 20 11 05 be 5e e5 f8 bd 84 90 ac 3d d4 33 da bd
       -0.12994814 -0.12153123 0.08426002 -0.10654417
0003e0 23 8f 80 be 2c cc 9d bd f7 96 1e 3e 5e f7 a2 3d
       -0.25109205 -0.07704958 0.15487276 0.07957338
0003f0 36 43 59 3d 26 72 24 3d 16 79 b2 3d a2 4e a9 bc
       0.053042613 0.040147923 0.087145016 -0.020667378

q_values.bias f4 [3]
000000 55 19 db be c0 c6 eb bd 8d 5e 8d be
       -0.42792764 -0.11512518 -0.276112
