weights_varcrw.pth (torch, 138071 bytes, 6 tensors)

fc1.weight f4 [256, 2]
0	0x3f396604	0.7242129
1	0xc09d779b	-4.9208503
2	0x3f1ce167	0.61281437
3	0x3e831980	0.25605392
4	0x3d56fb5a	0.0524858
5	0x3fa70b1e	1.3050268
6	0x3f0cf4a4	0.5506079
7	0x410f59e8	8.95945
8	0xbf302cf6	-0.68818605
9	0xc03eff7c	-2.9843435
10	0x3b7ff810	0.003905777
11	0xbcb0704c	-0.021537922
12	0x3f624f0b	0.8840186
13	0x406fdf51	3.7480052
14	0xbf0e3ea0	-0.5556431
15	0x3ed5ee43	0.41783342
16	0xbe258136	-0.16162571
17	0xc0c7ec94	-6.247629
18	0x3e7e89a9	0.248572
19	0x3f274e65	0.65353996
20	0x3f96ae2c	1.1771903
21	0x3fb90386	1.44542
22	0xbf70ee97	-0.9411406
23	0xc0c5e641	-6.184357
24	0x3f38fc47	0.72259945
25	0x4146d230	12.426315
26	0xbec574d4	-0.38565695
27	0x4004aac8	2.0729237
28	0xbf35fdd0	-0.7109041
29	0xc0ad6dd2	-5.419656
30	0x3eb86ca6	0.36020392
31	0xc04d3972	-3.2066312
32	0xbf273cee	-0.65327346
33	0x3fd3a349	1.6534206
34	0xbdba8e69	-0.09109194
35	0xbfc75aaf	-1.557455
36	0xbe4da3d2	-0.20082024
37	0xc07a937e	-3.9152522
38	0xbea08cf7	-0.31357548
39	0x402c19d8	2.6890774
40	0x3e0a2509	0.1349069
41	0xc05857e2	-3.380364
42	0x3eb3ea46	0.35139674
43	0xbe9178ce	-0.2841248
44	0x3f128719	0.5723739
45	0xc0a9e4d5	-5.3091836
46	0xbdcf5ec4	-0.10125497
47	0x405850a7	3.3799226
48	0xbf6422b9	-0.8911548
49	0xc0d4e0a1	-6.6524205
50	0xbcf2829a	-0.029603291
51	0x400871b3	2.1319396
52	0x3e74102c	0.23834294
53	0xbea74066	-0.3266632
54	0x3dbce725	0.09223775
55	0x3f25ef1a	0.64817965
56	0xbee5748c	-0.4481548
57	0xc10e7b23	-8.905063
58	0xbf48d314	-0.7844708
59	0xc0e6c969	-7.212086
60	0xbe9cd3fd	-0.30630484
61	0x40a13a05	5.0383325
62	0x401205f7	2.281614
63	0x409df65d	4.9363236
64	0xbf059162	-0.5217496
65	0x403bc2f3	2.9337738
66	0x3df1eb6c	0.11812481
67	0x3d35e3e8	0.0444068
68	0x3f7c7ac8	0.9862485
69	0xc0606601	-3.5062258
70	0x3f9b897d	1.2151333
71	0xc0638e05	-3.5555432
72	0x3ed48a06	0.41511554
73	0x3eaf0f14	0.3419119
74	0x3d2c4941	0.042062048
75	0xc0382bbf	-2.87767
76	0x3ef7ce29	0.48399475
77	0x40fc63c0	7.8871765
78	0xbec4f74a	-0.38469917
79	0x4044c266	3.0743651
80	0xbde15c1b	-0.11003896
81	0xbeafbbe5	-0.3432304
82	0xbd1cbb8f	-0.038264807
83	0xbf8c2569	-1.0948917
84	0xbd033036	-0.0320284
85	0xc0f18ec0	-7.5486755
86	0xbd37805c	-0.044800147
87	0xc0e81424	-7.2524586
88	0xbeb3c90f	-0.35114333
89	0x4049be00	3.1522217
90	0xbe7bc6d0	-0.2458756
91	0x3fafc2b2	1.3731291
92	0xbf00996c	-0.50234103
93	0xc0196a82	-2.3971257
94	0xbed63db9	-0.41843966
95	0x40215ed7	2.5214136
96	0x3ee8e943	0.45490465
97	0x3f82b16b	1.0210394
98	0x3f191321	0.59794813
99	0xbf6be718	-0.92149496
100	0x3f2456ea	0.6419512
101	0x3eb74470	0.357944
102	0xbeaaedb8	-0.3338449
103	0x40666205	3.5997326
104	0x3ed7bbaa	0.42135364
105	0xbe3ebf0f	-0.1862757
106	0x3edeeb9c	0.4353913
107	0xbe6f983f	-0.23397921
108	0x3dea70bc	0.114472836
109	0xbf13bdd3	-0.57711524
110	0xbd1a39af	-0.037652668
111	0x3e77506f	0.24151777
112	0xbed2b7a5	-0.41155735
113	0xc1079a7a	-8.475214
114	0xbe292b27	-0.16520368
115	0xc014fa6c	-2.3277845
116	0xbf00f9a7	-0.5038094
117	0xc0e15085	-7.041079
118	0xbdacf873	-0.084458254
119	0x405f5567	3.4895875
120	0xbe7a81e8	-0.24463618
121	0x3fb71279	1.4302512
122	0x3f8ce117	1.1006192
123	0x40862817	4.192394
124	0xbe94701d	-0.28991786
125	0xbf9144e7	-1.1349152
126	0x3ee511ab	0.44740042
127	0xc0ae1ac1	-5.440766
128	0x3f518a00	0.81851196
129	0xbfc0a110	-1.5049152
130	0x3fa28149	1.2695705
131	0x40770673	3.8597686
132	0xbf3a3db9	-0.7275043
133	0x3fc50034	1.5390687
134	0x3da84cb3	0.08217754
135	0x3e9cb93b	0.3061007
136	0xbd824441	-0.06360675
137	0x40b72d4b	5.724279
138	0xbe9b0763	-0.30279073
139	0x4018140e	2.376224
140	0xbeda695a	-0.42658502
141	0xc02fcec6	-2.7469954
142	0xbd4197f3	-0.04726405
143	0x40aaedba	5.3415194
144	0xbea93e9a	-0.33055574
145	0x402a8c98	2.6648312
146	0xbed0dffb	-0.40795884
147	0x3f91f5f1	1.140318
148	0xbee70707	-0.4512255
149	0x406724c2	3.6116185
150	0xbe280233	-0.16407089
151	0x40291ea8	2.642496
152	0x3fa77ca6	1.3084915
153	0x409436a6	4.631671
154	0x3e1774f9	0.14790715
155	0xc08e3d03	-4.4449477
156	0x3ed3ab61	0.4134169
157	0xc0f57357	-7.6703296
158	0xbf4b15d2	-0.7933017
159	0xc0c943b3	-6.289514
160	0xbf17eb6f	-0.5934362
161	0xc1003044	-8.011784
162	0x3d347917	0.044060793
163	0x3d91f516	0.071268246
164	0xbe8188c1	-0.25299647
165	0x409c4424	4.883318
166	0xbf198e03	-0.5998232
167	0x4065554e	3.5833316
168	0xbf33aadb	-0.7018258
169	0xbf28e551	-0.6597491
170	0xbde29bff	-0.1106491
171	0x40a3e0b6	5.1211805
172	0x3faa5649	1.3307582
173	0x41035db6	8.210379
174	0x3f04358d	0.5164421
175	0xc08cab94	-4.3959446
176	0xbe4e7fa7	-0.20165883
177	0xc04883d5	-3.1330464
178	0x3f38dcd6	0.7221197
179	0xc04ccc12	-3.1999555
180	0xbec3009f	-0.3808641
181	0x4071690d	3.7720368
182	0x401870ff	2.3818967
183	0x3e918d7c	0.28428257
184	0xbf7cf9b6	-0.9881853
185	0xc088dbd1	-4.276833
186	0xbdce771e	-0.100813136
187	0xbe797b29	-0.24363388
188	0x3f36a78e	0.7134942
189	0x411853f7	9.520499
190	0xbb4ad74a	-0.0030951076
191	0x409a6f2c	4.826071
192	0x3f87416a	1.0566838
193	0xbf848ee1	-1.0356103
194	0x3e81ca64	0.25349724
195	0xc0cc7abd	-6.3899827
196	0x3ded97f1	0.11601246
197	0xbdd78873	-0.105240725
198	0xbeb49363	-0.35268697
199	0x40691078	3.6416302
200	0xbed91fd6	-0.424071
201	0x40420133	3.0313232
202	0x3f1c5fca	0.6108366
203	0x410f9f9a	8.976465
204	0x3fec4f8e	1.8461778
205	0x3ecc9ad1	0.39961866
206	0xbdf0be32	-0.11755027
207	0x4034edf7	2.8270242
208	0xbfaa8731	-1.3322507
209	0xc04bc10e	-3.1836581
210	0x3e0a8cac	0.13530225
211	0xbf87f45a	-1.0621445
212	0xbeeed16d	-0.46644154
213	0xc04fb5f0	-3.2454796
214	0xbf7fba1b	-0.9989335
215	0xc081e4ae	-4.059165
216	0xbe3a81f5	-0.18213637
217	0xbf527652	-0.8221179
218	0xbdf980db	-0.1218278
219	0xbf2a7616	-0.66586435
220	0xbec0658d	-0.37577477
221	0x40770592	3.859715
222	0xbf89186a	-1.0710576
223	0xc1095e23	-8.585483
224	0x3ca32f8d	0.019920135
225	0x40edac35	7.4272714
226	0x3f9be2f8	1.217864
227	0xc0925979	-4.573422
228	0xbf0f99ed	-0.5609425
229	0x3ff2066f	1.8908213
230	0xbdc9e435	-0.0985798
231	0x40884f28	4.2596626
232	0xbe58506e	-0.21124431
233	0x408f0878	4.469784
234	0xbe60a05c	-0.21936172
235	0xbfa48487	-1.2852944
236	0xbe3f6c9c	-0.18693775
237	0xbe2b874f	-0.16750835
238	0xbe6718b7	-0.22568022
239	0x4041d738	3.028761
240	0x3f9169ac	1.1360373
241	0x3fa62c69	1.2982303
242	0x3cb487fe	0.022037502
243	0xbf2a6d12	-0.6657268
244	0x3eaea167	0.34107515
245	0x40939764	4.6122303
246	0xbe3abab2	-0.18235281
247	0xbfc5a514	-1.5441003
248	0xbf62eacf	-0.8863954
249	0xc0fa36b8	-7.8191795
250	0xbee2e3f0	-0.44314528
251	0x4087dbaa	4.2455645
252	0x3f83ed6b	1.0306829
253	0x40ae360e	5.4440985
254	0x3f3b3808	0.7313237
255	0xbeb99303	-0.36244974

fc1.bias f4 [256]
0	0x3f0ee973	0.55824965
1	0x3ee3c16f	0.44483516
2	0xbdd77920	-0.1052115
3	0xbe54b5cd	-0.20772476
4	0xbf0525f6	-0.5201105
5	0xbc0ea4df	-0.0087063005
6	0xbe788934	-0.24271089
7	0xbedcf9fd	-0.43159476
8	0xbd3313c1	-0.04372001
9	0xbe370980	-0.17874718
10	0x3e8a75d0	0.2704301
11	0xbf33d62f	-0.70248693
12	0xbe8ff1c6	-0.28114146
13	0xbea0b9ce	-0.31391758
14	0xbed898b4	-0.42304003
15	0x3ea35973	0.31904182
16	0xbeec66e4	-0.4617225
17	0x3d83465a	0.06409903
18	0x3e24a1b4	0.1607731
19	0xbed26f36	-0.41100472
20	0x3e0d1081	0.13775827
21	0xbe4af56c	-0.19820184
22	0x3e01979c	0.1265549
23	0xbe8526fb	-0.26006302
24	0xbe095976	-0.13413033
25	0xbe47b0fd	-0.1950111
26	0xbe1db747	-0.15401946
27	0xbde28ada	-0.1106164
28	0xbe60bc90	-0.21946931
29	0xbde22372	-0.11041917
30	0xbe9dc187	-0.30811712
31	0xbf06372d	-0.5242794
32	0xbe94cdfb	-0.290634
33	0xbdbbc0eb	-0.091676556
34	0xbe024326	-0.12720928
35	0xbddd4abb	-0.10805269
36	0xbe6ca860	-0.23111105
37	0x3e999fc4	0.30004704
38	0xbe3eaabe	-0.1861982
39	0xbe0e1cea	-0.13878217
40	0x3e82b25d	0.25526705
41	0xbde73158	-0.112887084
42	0xbdec20ef	-0.11529719
43	0x3d247015	0.040145952
44	0xbe2ad7a1	-0.16683818
45	0xbe9c90be	-0.3057918
46	0xbf405032	-0.7512237
47	0xbea4c0a6	-0.3217823
48	0x3f1c1eb1	0.6098433
49	0xbe9f3317	-0.31093666
50	0x3f5252c3	0.82157534
51	0xbe937a5c	-0.2880429
52	0xbe8129e5	-0.25227275
53	0xbe6af011	-0.2294314
54	0xbd81cd3b	-0.06337973
55	0x3dd0c618	0.101940334
56	0xbe654241	-0.22388555
57	0x3df4bae2	0.119497076
58	0xbeb65c65	-0.35617366
59	0xbd2c4818	-0.04206094
60	0xbe9c5928	-0.3053677
61	0x3d22e582	0.039769657
62	0x3eb5c59d	0.3550233
63	0xbe771c17	-0.24131809
64	0x3e842c03	0.25814828
65	0x3cfb4d6e	0.03067657
66	0xbef7ae98	-0.48375392
67	0xbd7ab5aa	-0.061208405
68	0xbe33fcda	-0.17576924
69	0xbed5e1ac	-0.41773736
70	0xbe918d98	-0.2842834
71	0xbe22a275	-0.15882285
72	0xbedb8cd3	-0.42880878
73	0xbefcb820	-0.49359226
74	0xbec1f4bd	-0.37882033
75	0xbe874242	-0.26417738
76	0xbeac7524	-0.3368312
77	0x3dea004a	0.114258364
78	0x3e935fe7	0.28784105
79	0xbe8dde07	-0.27708456
80	0xbd001cf3	-0.031277608
81	0xbd729cb7	-0.059231486
82	0xbdc0f9cb	-0.09422644
83	0xbe94444d	-0.2895836
84	0xbea3451c	-0.31888664
85	0xbe632954	-0.22183734
86	0xbe481c34	-0.19542009
87	0x3db3cb8f	0.0877906
88	0x3e21a113	0.15784101
89	0x3f15757b	0.58382386
90	0xbe43fe95	-0.19140084
91	0x3e9d6dca	0.30747825
92	0xbf19890a	-0.5997473
93	0x3df16653	0.11787095
94	0xbe900600	-0.28129578
95	0xbd07a5ca	-0.033117093
96	0xbbe39a94	-0.0069459174
97	0x3e14b676	0.14522728
98	0xbdb9ad07	-0.090662055
99	0xbe9d76c6	-0.3075468
100	0xbea72310	-0.32643938
101	0xbe77ab8f	-0.24186538
102	0x3e9e16e6	0.30876845
103	0xbe741c1b	-0.23838846
104	0xbe3c803c	-0.18408293
105	0xbd9e6b5e	-0.077353224
106	0xbf43a500	-0.76423645
107	0xbee6e772	-0.45098454
108	0x3eafaaa2	0.3430987
109	0xbe46a6f0	-0.19399619
110	0xbe49319e	-0.19647834
111	0xbeb99d48	-0.3625281
112	0xbe5d32e3	-0.21601443
113	0xbded3a95	-0.11583439
114	0xbf2eb79e	-0.6824893
115	0xbc405808	-0.011739738
116	0xbede32e3	-0.43398198
117	0x3e099152	0.13434342
118	0x3e3a5985	0.18198211
119	0xbde084ec	-0.10962853
120	0x3e7c0f22	0.24615148
121	0xbd15b1b9	-0.036546443
122	0x3d78812a	0.060670055
123	0x3ed5e89f	0.41779038
124	0xbf05e72d	-0.5230587
125	0xbe309c08	-0.17247021
126	0xbe114030	-0.14184642
127	0x3f8971e2	1.0737879
128	0x3dd8c956	0.10585277
129	0x3df5dad0	0.12004626
130	0x3e2500ec	0.16113633
131	0xbe31bb17	-0.17356525
132	0xbe3368a9	-0.17520393
133	0xbe045867	-0.12924348
134	0xbe9245b2	-0.28568798
135	0xbf149296	-0.5803617
136	0x3d7a041f	0.061039086
137	0xbec2a199	-0.38013914
138	0x3d6ed128	0.058304936
139	0xbf44f0d7	-0.7692999
140	0xbe7174b7	-0.2357968
141	0xbe67bc0d	-0.2263033
142	0x3eb77587	0.35831854
143	0x3f170c31	0.5900298
144	0xbca15e02	-0.019698147
145	0xbe00eaf7	-0.12589632
146	0xbe1a8477	-0.15089594
147	0xbedab516	-0.42716283
148	0xbe8eab84	-0.2786523
149	0x3e83e20d	0.257584
150	0xbee832f7	-0.45351383
151	0xbf08fcd1	-0.5351077
152	0x3d8579d7	0.0651738
153	0xbd20ba01	-0.039239887
154	0x3df5ff17	0.12011545
155	0xbec7e62c	-0.39042795
156	0x3d29e2a2	0.0414759
157	0xbaf897dd	-0.0018966157
158	0xbc304000	-0.010757446
159	0xbe1f4674	-0.1555422
160	0xbeb358fa	-0.3502882
161	0x3e254c9c	0.16142505
162	0xbe1ff924	-0.15622383
163	0xbf1a84a2	-0.6035863
164	0xbe93f36f	-0.28896663
165	0xbeb31536	-0.3497712
166	0xbe630a69	-0.2217194
167	0xbe9b4298	-0.30324244
168	0xbe02b2c2	-0.12763503
169	0xbe525bee	-0.20542881
170	0xbd5e01d3	-0.05420096
171	0x3d4cc071	0.049988214
172	0x3dae5385	0.08512024
173	0xbbded6e5	-0.00680052
174	0xbee14a35	-0.44001928
175	0xbeddea05	-0.43342605
176	0x3e3c30d7	0.18378006
177	0xbcb59337	-0.022164924
178	0xbeb331cc	-0.3499893
179	0xbeb149a2	-0.3462649
180	0xbf1f4e62	-0.6222898
181	0x3ec83aa3	0.39107236
182	0xbde12515	-0.10993401
183	0xbd4b5164	-0.049638167
184	0xbd82fcd4	-0.063958794
185	0xbf0d5135	-0.5520204
186	0xbe099af9	-0.13438024
187	0xbdc529f5	-0.09627143
188	0x3ebbeaef	0.36702678
189	0x3ddfe544	0.10932401
190	0xbf2e8f95	-0.6818784
191	0x3df0e859	0.11763067
192	0xbddb76e4	-0.10716036
193	0x3e5a4d7e	0.21318623
194	0x3e9037b9	0.28167513
195	0xbe18f4ac	-0.14937085
196	0xbd8207de	-0.06349157
197	0xbe76607f	-0.24060248
198	0x3d0b7111	0.034043375
199	0xbeec86ba	-0.46196538
200	0x3d4f5576	0.05061861
201	0xbebff86a	-0.37494212
202	0x3e93b72e	0.28850693
203	0x3e04cafb	0.12968056
204	0x3d526101	0.05136204
205	0x3dd3d4aa	0.10343297
206	0x3e49a6f8	0.196926
207	0xbdbec680	-0.093152046
208	0x3e6a2f65	0.22869642
209	0x3eefb10f	0.46814772
210	0xbddabee7	-0.10680943
211	0xbf0cf301	-0.55058295
212	0x3eb050d3	0.34436664
213	0xbeac08a6	-0.33600348
214	0xbd19efa6	-0.037582062
215	0xbe0d51b6	-0.13800701
216	0xbdfa2ab0	-0.12215173
217	0xbec11244	-0.37709248
218	0xbe855100	-0.2603836
219	0xbe6d51c9	-0.2317573
220	0x3eda8118	0.42676616
221	0xbedfef6b	-0.4373735
222	0x3e49837d	0.19679065
223	0xbd45942f	-0.048237022
224	0x3ceb737b	0.028741589
225	0xbdf5a3f9	-0.11994166
226	0xbf17141e	-0.5901507
227	0xbf51ddad	-0.81978875
228	0xbe2ddc90	-0.16978669
229	0xbe4e8578	-0.20168102
230	0xbea86920	-0.32892704
231	0x3e40ce86	0.18828782
232	0xbdde5434	-0.10855904
233	0x3e969ceb	0.29416594
234	0xbe9cea53	-0.30647525
235	0xbea569ea	-0.3230737
236	0xbec60b39	-0.38680437
237	0x3e454bb3	0.19267158
238	0x3f046b3f	0.51726145
239	0xbec4d22a	-0.38441592
240	0xbf024cd7	-0.508985
241	0xbd9364e6	-0.07196979
242	0xbe8e2c9f	-0.27768418
243	0xbe882674	-0.26591837
244	0xbde3532f	-0.110998504
245	0xbd022ef7	-0.03178307
246	0x3de80c3b	0.11330458
247	0xbe7595d0	-0.2398293
248	0x3b5de594	0.0033858763
249	0xbeb132b9	-0.3460901
250	0xbe3daed5	-0.18523724
251	0xbd8376d3	-0.06419148
252	0x3e0c9c6d	0.13731547
253	0x3eae873c	0.3408755
254	0xbeacebfb	-0.3377379
255	0x3ecdd3a6	0.40200537

fc2.weight f4 [128, 256]
0	0xbd8c920e	-0.06863795
1	0x3bf8940b	0.0075860075
2	0xbc8bb34b	-0.017053267
3	0xbd8f50fe	-0.0699787
4	0x3d506ad0	0.050883114
5	0x3ce3ce81	0.02780843
6	0xbd833b78	-0.06407827
7	0xbe5a0780	-0.21291924
8	0x3d3ab704	0.045584694
9	0x3dddd0bb	0.10830828
10	0x3c0075cd	0.007840586
11	0xbe11dc8e	-0.14244291
12	0x3abca9dd	0.0014393885
13	0x3c6f603e	0.014610348
14	0xbd8f2e33	-0.06991234
15	0xbe727e11	-0.23680903
16	0x3d3e7eac	0.046507522
17	0x3df690b8	0.12039322
18	0xbdc15047	-0.0943914
19	0xbde74e8d	-0.11294279
20	0x3da8a9cd	0.08235512
21	0xbca3f4aa	-0.020014126
22	0x3dfc4406	0.12317662
23	0xbe29af7f	-0.16570853
24	0xbe449a17	-0.19199406
25	0x3d6bfc7b	0.05761383
26	0xbd41f8d2	-0.047356434
27	0xbd6ac279	-0.05731437
28	0xbcd60cc2	-0.02612913
29	0xbe50dff9	-0.20397939
30	0xbd9b7253	-0.07590165
31	0xbdc24711	-0.09486211
32	0xba735d7e	-0.0009283646
33	0xbce5a177	-0.028031094
34	0xbd95d1db	-0.073154174
35	0x3d038739	0.03211138
36	0x3d7836dd	0.060599197
37	0x3c515b79	0.012778156
38	0xbd97d9ce	-0.0741459
39	0x3d344657	0.044012394
40	0xbd60577d	-0.054770935
41	0xbe7f4a37	-0.24930654
42	0x3d9c29f8	0.076251924
43	0x3db17a8f	0.08665954
44	0xbc8ca7d2	-0.017169867
45	0xbdbb213f	-0.091372006
46	0x3da0d508	0.078531325
47	0xbdb959a4	-0.09050301
48	0xbe1ac940	-0.15115833
49	0xbe0bf9f6	-0.13669571
50	0xbde671f0	-0.112522006
51	0x3d4fe438	0.050754756
52	0xbc530729	-0.012880125
53	0xbda81030	-0.082062125
54	0xbe0791f2	-0.13239267
55	0xbdd2cea5	-0.102933206
56	0xbe109a3b	-0.14121334
57	0x3d914cfc	0.07094762
58	0x3d958d2a	0.073023155
59	0xbcf34419	-0.029695557
60	0x3d7bbc0f	0.061458644
61	0xbd3a59b1	-0.045495693
62	0xbdbf0a2e	-0.093281135
63	0x3dca4864	0.09877089
64	0xbd94a1ed	-0.072574474
65	0xbdb542aa	-0.08850606
66	0xbe384773	-0.17996006
67	0xbdab4c0a	-0.08364113
68	0xbdb03f84	-0.08605865
69	0xbca4968f	-0.020091323
70	0x3e103fa3	0.14086775
71	0xbd044887	-0.03229573
72	0xbdf07d21	-0.117426164
73	0xbe1ad16e	-0.15118954
74	0xbd3e6733	-0.046485137
75	0xbb957187	-0.0045606527
76	0xbd26c0af	-0.0407111
77	0xbd70779f	-0.05870783
78	0xbbc95c56	-0.0061450405
79	0xbc9f1cc3	-0.019422894
80	0xbd7e56e5	-0.062094588
81	0x3c60ad3f	0.01371318
82	0x3d4c4315	0.049868662
83	0xbd9cc01b	-0.07653829
84	0x3d28ca61	0.04120863
85	0xbd695f28	-0.056975514
86	0xbcd51a43	-0.0260135
87	0xbd9b86be	-0.075940594
88	0x3dffeb88	0.12496096
89	0xbd612175	-0.054963548
90	0x3c90cd88	0.01767613
91	0x3e2142e6	0.15748176
92	0xbcafc10f	-0.021454362
93	0xbd2f2aa1	-0.042765263
94	0xbc352a62	-0.011057468
95	0xbe836a87	-0.2566721
96	0x3dd734dd	0.1050813
97	0x3df541a7	0.11975413
98	0x3ddc36f7	0.10752671
99	0xbd7a7fcf	-0.061157044
100	0xbdbe3fbf	-0.09289502
101	0xbd14b07b	-0.036301117
102	0x3d457998	0.048211664
103	0xbbc67e12	-0.006057509
104	0xbe5d52f3	-0.21613674
105	0x3e8c8a2a	0.2744916
106	0x3c16229a	0.009163523
107	0x3af44b5a	0.0018638179
108	0xbd96aef1	-0.07357586
109	0xbe35f30b	-0.17768495
110	0x3e0ad920	0.13559389
111	0xbe168f97	-0.14703213
112	0xbe0a3d26	-0.13499889
113	0x3cd75a0a	0.026288051
114	0xbca0f5bd	-0.019648427
115	0x3cfde5d4	0.03099338
116	0x3d8d9760	0.06913638
117	0xbe3d2560	-0.18471289
118	0x3c1d35ab	0.009595315
119	0x3daa2341	0.083075054
120	0xbe922734	-0.28545535
121	0xbdfa9601	-0.12235642
122	0x3d7ca388	0.061679393
123	0x3db80db0	0.08986986
124	0xbd0753ba	-0.033038832
125	0x3d71c4ba	0.059025504
126	0x3db856d9	0.0900094
127	0xbdde8e4f	-0.10866987
128	0xbd84cf8d	-0.064849
129	0xbdfc8624	-0.12330273
130	0x3c0d6516	0.008630058
131	0xbe2e9d02	-0.17052081
132	0xbb99282d	-0.004673979
133	0xbd88581e	-0.06657432
134	0x3c7e389b	0.0155164255
135	0x3dac897f	0.08424663
136	0x3e0731ef	0.13202642
137	0xbdb62582	-0.08893873
138	0x3dd36be5	0.103233136
139	0xba80117a	-0.0009770833
140	0xbd8d260f	-0.06892025
141	0x3c1082c8	0.008820243
142	0xbe1c8d31	-0.15288235
143	0xbcbc409d	-0.022980029
144	0xbd1b5914	-0.03792675
145	0xbd94c21c	-0.07263586
146	0xbd13aeb3	-0.036055278
147	0x3bafbc51	0.0053630252
148	0xbdc86e09	-0.097866125
149	0xbdf01b95	-0.11724011
150	0x3d47d954	0.048791245
151	0x3cf39500	0.029734135
152	0x3c3a79fd	0.011381623
153	0x3d90ad05	0.07064251
154	0xbd5bf9bb	-0.05370496
155	0xbcb7b054	-0.022422947
156	0xbdaf769e	-0.08567546
157	0x3cd79ed5	0.026320854
158	0xbbf66f5e	-0.0075206
159	0x3d9f51a6	0.07779245
160	0xbcf16725	-0.029468128
161	0xbd26d7ca	-0.040733136
162	0xbbd62fa4	-0.006536441
163	0xbc37626f	-0.011192902
164	0x3d856575	0.06513492
165	0xbe067dab	-0.13133876
166	0x3dec9b2b	0.115530334
167	0xbe6dd67c	-0.2322635
168	0xbd07e549	-0.033177648
169	0x3dd90316	0.10596292
170	0xbc215ff1	-0.009849534
171	0xbcc451dd	-0.023964817
172	0xbda49ff5	-0.08038322
173	0xbd3320ab	-0.043732326
174	0xbe1eb49e	-0.15498587
175	0xbdf8a871	-0.12141503
176	0x3e1f1b32	0.15537718
177	0x3ce5e718	0.028064296
178	0xbe21a5d2	-0.15785912
179	0xbc3b8f41	-0.011447729
180	0xbcca408d	-0.024688983
181	0x3d46a45a	0.04849658
182	0xbd9c2a8f	-0.07625305
183	0xbafa2fde	-0.0019087752
184	0xbc1dd8ea	-0.009634236
185	0x3bc65fa2	0.006053881
186	0xbd428938	-0.047494143
187	0x3c35c3c1	0.011094035
188	0x3d435385	0.047687072
189	0x3d69525a	0.056963302
190	0xbd7956bc	-0.060873732
191	0xbe07d060	-0.13263083
192	0x3cb8641b	0.022508672
193	0x3d62e393	0.055392813
194	0xbc7efd35	-0.015563299
195	0xbdbece83	-0.09316733
196	0xbd7ed342	-0.06221319
197	0x3d0dde89	0.034636054
198	0xbd84c35d	-0.06482575
199	0xbd7f615d	-0.062348712
200	0x3cc6fc56	0.024290245
201	0xbcd13542	-0.02553809
202	0xbe0aa56a	-0.13539663
203	0xbdee29d7	-0.11629074
204	0xbe77c0a9	-0.24194588
205	0xbd4821d3	-0.048860382
206	0xbd7e8ade	-0.062144153
207	0xbe053467	-0.13008271
208	0xbcd04410	-0.02542308
209	0x3d9fe544	0.07807401
210	0x3d2c1bf0	0.04201883
211	0x3d60a75b	0.054847103
212	0xbdb4b034	-0.088226706
213	0xbdd7bc11	-0.10533918
214	0xbdacf496	-0.084450886
215	0x3e2c7130	0.16840053
216	0xbd472ca5	-0.04862656
217	0xbd5ae867	-0.053444292
218	0xbd139151	-0.036027256
219	0xbe09bade	-0.1345019
220	0x3dc23435	0.09482614
221	0xbd654b94	-0.05598028
222	0xbbc507c1	-0.006012887
223	0xbd8446bd	-0.06458805
224	0xbd386659	-0.04501948
225	0xbc82c3dc	-0.015962534
226	0xbd901487	-0.07035165
227	0xbd13a3aa	-0.036044754
228	0xbca11eb2	-0.019667957
229	0xbcb94fd0	-0.022621065
230	0xbe094532	-0.13405302
231	0xbd6e7a1d	-0.058221925
232	0xbd7041a4	-0.05865635
233	0xbcd139af	-0.025540201
234	0x3da74c02	0.08168794
235	0xbe1db943	-0.15402703
236	0xbd2673b4	-0.040637687
237	0xbc2e7d70	-0.010650024
238	0x3c1bbf4d	0.009506059
239	0xbd1a7b4d	-0.037715245
240	0x3e1c287e	0.15249822
241	0x3d20b1f2	0.039232202
242	0xbd21e0f8	-0.039521188
243	0xbd2591f0	-0.04042238
244	0xbda8cf49	-0.082426615
245	0xbd45eb8b	-0.048320334
246	0xbde4c9e0	-0.11171317
247	0x3d82c060	0.06384349
248	0x3ca29a2c	0.019848906
249	0x3df504eb	0.11963829
250	0x3d299579	0.041402314
251	0x3cd59b36	0.026074987
252	0xbd47ebfd	-0.04880904
253	0xbcc6dedc	-0.02427619
254	0xbc02638a	-0.007958302
255	0x3dbfb4dd	0.09360669

fc2.bias f4 [128]
0	0xbd6f0f57	-0.05836424
1	0x3f196257	0.5991568
2	0xbd02148d	-0.03175788
3	0xbd2696a3	-0.040671002
4	0x3e71ac85	0.23600967
5	0xbd774603	-0.060369503
6	0xbd897728	-0.067121804
7	0x00000000	0.0
8	0xbd48a033	-0.048980903
9	0xbd828f43	-0.06374981
10	0xbd7fdb3f	-0.06246495
11	0x3ec392fb	0.38198075
12	0x3cd1e704	0.025622852
13	0xbd0db0af	-0.034592327
14	0xbd02125e	-0.031755798
15	0xbd832b72	-0.06404771
16	0xbcea95f3	-0.028635954
17	0xbd81bfce	-0.06335412
18	0xbd01deb8	-0.03170654
19	0xbce43607	-0.027857793
20	0xbd80b3bc	-0.062842816
21	0xbc084502	-0.008317234
22	0x3d9afd4e	0.07567845
23	0xbd68d302	-0.056841858
24	0xbd88e194	-0.066836506
25	0xbd34e9f4	-0.044168428
26	0xbdccb0ce	-0.0999466
27	0x3f0f293b	0.5592229
28	0x3b64dc2f	0.0034921279
29	0x3e22d69b	0.15902178
30	0xbdb21323	-0.08695056
31	0xbd34fc86	-0.044186138
32	0x3f2b8667	0.67001957
33	0xbc01fe63	-0.007934186
34	0xbd76088d	-0.06006675
35	0xbcd2c250	-0.025727421
36	0xbc579ed6	-0.013160428
37	0xbd020db8	-0.031751364
38	0x3f1cc24e	0.61233985
39	0xbd658678	-0.056036443
40	0xbd017dd3	-0.031614136
41	0xbd9ca1e2	-0.07648064
42	0xbcff85f0	-0.031191796
43	0xbcca1f7b	-0.024673214
44	0xbed1b0b4	-0.40955126
45	0x00000000	0.0
46	0xbe5c8578	-0.2153529
47	0xbd12c6b1	-0.03583402
48	0x3f299183	0.6623766
49	0xbd7ac94b	-0.061227124
50	0xbc99274b	-0.018695494
51	0xbbb12d77	-0.005407031
52	0xbd9b1b97	-0.07573622
53	0xbdb6ab03	-0.08919337
54	0xbd799708	-0.06093505
55	0xbd73ea89	-0.059549842
56	0xbdc1c8ed	-0.09462152
57	0xbe8dc104	-0.27686322
58	0xbd72ccf0	-0.059277475
59	0x3d5dd316	0.054156385
60	0x3eef96b2	0.4679466
61	0xb816c3db	-3.594519e-05
62	0xbd4d3518	-0.050099462
63	0xbdda0536	-0.10645525
64	0xbd181bdd	-0.037135947
65	0xbdf35ab3	-0.11882534
66	0x00000000	0.0
67	0x3e056006	0.13024911
68	0xbd7b578c	-0.061362788
69	0xbd81d07d	-0.06338594
70	0x3f1aee61	0.6051999
71	0xbd4f26c6	-0.050574087
72	0xbd0217f7	-0.031761136
73	0xbd820198	-0.0634796
74	0xbd219d92	-0.03945691
75	0xbd43e92c	-0.047829792
76	0xbda73d14	-0.081659466
77	0xbd0e0fac	-0.034682915
78	0xbdbc727e	-0.09201525
79	0xbd574449	-0.052555356
80	0x3e95ee17	0.2928321
81	0xbd01dbac	-0.031703636
82	0xbd2fecd1	-0.042950455
83	0xbd81ef50	-0.06344473
84	0xbd214251	-0.039369885
85	0xbd469ae0	-0.048487544
86	0xbd502ed7	-0.05082592
87	0xbd16eaaa	-0.036844887
88	0xbd1b458a	-0.037908114
89	0x3ba00532	0.004883432
90	0xbd73772b	-0.05943982
91	0xbcefd086	-0.029274236
92	0x3f053d80	0.52046967
93	0xbd011d72	-0.031522222
94	0xbccb4d39	-0.024817096
95	0xbd8e59f3	-0.0695075
96	0xbd01b4c2	-0.031666525
97	0xbd6677f8	-0.056266755
98	0xbd019258	-0.031633705
99	0x3dc3222a	0.09528001
100	0x3bca0d15	0.0061661103
101	0xbd0194d6	-0.03163608
102	0xbd0d0e32	-0.034437366
103	0xbdba8765	-0.09107856
104	0xbd60effb	-0.054916363
105	0xbd017a32	-0.031610675
106	0xbd12f782	-0.035880573
107	0xbd98f62c	-0.074688286
108	0xbd4b2dc9	-0.04960421
109	0xbd91e36e	-0.07123457
110	0x3e39ef5b	0.18157713
111	0x3dbab240	0.0911603
112	0xbd461d8a	-0.048368014
113	0xbd33f72e	-0.0439369
114	0xbd37fb3d	-0.044917334
115	0xbc2cf246	-0.010555809
116	0x00000000	0.0
117	0x3f07c6f1	0.53037935
118	0xbd1ed25f	-0.038774844
119	0x3ea576e3	0.32317266
120	0x3d86fe58	0.06591481
121	0xbd1e4eaa	-0.03864924
122	0xbd79e42a	-0.06100861
123	0xbd37c653	-0.04486687
124	0xbceff688	-0.02929236
125	0xbd82121f	-0.063511126
126	0x3ef5361d	0.47892848
127	0xbcdbc8cf	-0.026829151

q_values.weight f4 [3, 128]
0	0xbe1cea6d	-0.15323801
1	0xbeb7ba18	-0.35884166
2	0xbd80a996	-0.06282346
3	0x389ce942	7.482107e-05
4	0xbe9b1631	-0.30290368
5	0xbe178645	-0.14797314
6	0x3c56d61b	0.01311257
7	0xbc448090	-0.011993542
8	0x3ecff192	0.4061399
9	0xbde287ac	-0.110610336
10	0xbcf473cd	-0.029840374
11	0x3fa8b192	1.317919
12	0x3f2caee0	0.6745434
13	0xbd7840ea	-0.060608782
14	0x3e2d2f4d	0.16912575
15	0xbd088774	-0.033332303
16	0x3d01195d	0.03151833
17	0xbd5c28fd	-0.053750027
18	0x3e286b69	0.16447224
19	0x3d8488e8	0.06471425
20	0xbd99767f	-0.074933045
21	0xbdfe145f	-0.12406229
22	0x3f61db82	0.8822557
23	0x3e9ae476	0.30252427
24	0xbd9aad53	-0.0755259
25	0x3e1291d3	0.1431344
26	0x3d7edda9	0.06222311
27	0xbe6e25d8	-0.23256624
28	0x3c84e2ea	0.016221482
29	0xbf727a11	-0.9471751
30	0x3db54e56	0.08852832
31	0x3e2f24f2	0.17103937
32	0xbed1abe7	-0.40951464
33	0x3d45482a	0.048164524
34	0xbdbce858	-0.092240036
35	0xbd149f63	-0.036284816
36	0xbe17a406	-0.14808664
37	0x3e17bd77	0.14818369
38	0xbe985727	-0.29753992
39	0xbe0ec918	-0.13943899
40	0xbd785840	-0.060631037
41	0x3e2dc0fb	0.16968147
42	0xbbe9aac0	-0.0071309507
43	0xbdaf080e	-0.08546458
44	0xbf8c89c9	-1.0979549
45	0x3dc123be	0.094306454
46	0x3ecc1d61	0.39866164
47	0xbc816bc8	-0.015798464
48	0xbeb9a7b3	-0.36260757
49	0x3c86b1ce	0.016442206
50	0xbd884a8d	-0.066548444
51	0x3e40e655	0.18837865
52	0x3d421cac	0.047390625
53	0xbd9622c9	-0.073308535
54	0xbda41661	-0.08012081
55	0x3d72a23e	0.059236757
56	0xbf15e5df	-0.5855388
57	0x3cb5d83c	0.022197835
58	0xbcac1e90	-0.021010667
59	0xbd9fbaa5	-0.077992715
60	0xbf994fed	-1.1977516
61	0x3dcb5635	0.09928552
62	0xbd8c561d	-0.06852362
63	0xbcbb813a	-0.022888768
64	0xbdcea98c	-0.10090932
65	0xbc720322	-0.014771255
66	0x3d92516a	0.07144435
67	0x3d375584	0.04475929
68	0xbbdaef75	-0.0066813775
69	0xbe149891	-0.14511324
70	0xbea37aea	-0.31929713
71	0xbdfa8b76	-0.12233631
72	0x3e447167	0.19183885
73	0xbd299a44	-0.041406885
74	0xbd9e7719	-0.0773756
75	0x3e46b3b4	0.19404489
76	0xbd28331b	-0.041064363
77	0x3dda79fe	0.106677994
78	0xbd56182b	-0.052269142
79	0x399bee72	0.0002974156
80	0xbead2e35	-0.33824316
81	0xbe2756dd	-0.1634173
82	0xbe1b0c1d	-0.1514134
83	0xbd62547d	-0.055256356
84	0x3ded52ba	0.115880445
85	0x3d281195	0.041032393
86	0x3db937ac	0.09043822
87	0x3c0fc9d3	0.008776146
88	0xbb3364ba	-0.002737327
89	0xbd82b638	-0.06382412
90	0x3dbb0103	0.09131052
91	0xbe2defe4	-0.16986042
92	0xbe495223	-0.19660239
93	0xbe029404	-0.12751776
94	0x3e633634	0.22188646
95	0xbde41bd6	-0.11138122
96	0xbd47ec64	-0.048809424
97	0xbdc279ab	-0.094958626
98	0x3e1e7e5f	0.15477894
99	0xbf06490e	-0.5245522
100	0x3b48caf5	0.003063855
101	0x3cbda3e8	0.023149446
102	0x3d760b74	0.060069516
103	0xbc8c8e98	-0.017157838
104	0x3cbdd18a	0.023171205
105	0x3de6ac17	0.11263292
106	0xbe471edb	-0.19445364
107	0xbe40229c	-0.18763202
108	0xbd7dc17c	-0.0619521
109	0xbe152e78	-0.14568508
110	0xbea9c1ac	-0.33155572
111	0x3e82c9a9	0.2554448
112	0xbd1cfe32	-0.038328357
113	0x3c4c3bb8	0.01246541
114	0xbcac1250	-0.021004826
115	0x3d171be9	0.03689185
116	0x3e26db2f	0.1629455
117	0xbf887264	-1.0659909
118	0x3f893e86	1.0722206
119	0xbdf489e0	-0.1194036
120	0xbc8a2be7	-0.016866637
121	0xbe22dc83	-0.15904431
122	0x3e3af2b3	0.18256645
123	0xbe19a5a3	-0.15004592
124	0xbd8904af	-0.066903464
125	0x3e18131d	0.14851041
126	0xbe50333f	-0.20332049
127	0xbc6b0337	-0.014344028
128	0x3e1ff971	0.15622498
129	0xbe9be631	-0.3044906
130	0x3dec8912	0.115495816
131	0xbdf194f3	-0.11795988
132	0xbeb107e2	-0.34576327
133	0xbdc75448	-0.09732872
134	0xbd27ebd0	-0.040996373
135	0x3e3272e9	0.17426647
136	0x3f009878	0.5023265
137	0xbe0cfad4	-0.13767558
138	0x3c361990	0.011114493
139	0x3fc171c5	1.5112845
140	0x3f3cd1f5	0.7375787
141	0x3e3d88d3	0.18509226
142	0xbb03e480	-0.002012521
143	0xbd983dc8	-0.07433659
144	0x3cd650a8	0.026161507
145	0x3d058cf0	0.03260511
146	0x3b1ba1eb	0.0023747634
147	0x3dd6e851	0.104935296
148	0xbcccdef8	-0.025008664
149	0xbe40e781	-0.18838312
150	0x3f62c396	0.8857969
151	0x3e8cb78c	0.27483785
152	0xbd8f9d1a	-0.070123866
153	0x3b7d8b08	0.0038687605
154	0x3b16167a	0.002290158
155	0xbe9a883a	-0.30182058
156	0x3df656cc	0.12028274
157	0xbf575624	-0.84115815
158	0xbe2f9cec	-0.17149705
159	0xbe28e92d	-0.164952
160	0xbebcf4e8	-0.369056
161	0x3d1c40bd	0.038147677
162	0xbdf4739b	-0.119361125
163	0xbdd44718	-0.103651226
164	0x3df13ae0	0.11778808
165	0x3d28b5d4	0.04118903
166	0xbebf9e2a	-0.37425357
167	0xbd425a2c	-0.047449276
168	0x3d89eae2	0.067342535
169	0xbc5c7b4b	-0.01345713
170	0x3ae9b9b2	0.0017831831
171	0xbdcd9a34	-0.100391775
172	0xbf96a501	-1.1769105
173	0x3d173c1c	0.03692256
174	0x3ed816d3	0.42204913
175	0xbda58d1a	-0.080835536
176	0xbec74b46	-0.38924617
177	0x3ce3823b	0.02777206
178	0x3e190ca0	0.14946222
179	0x3cdf9316	0.027291816
180	0xbe1104b8	-0.14161956
181	0xbdc49a0b	-0.09599694
182	0xbc973a26	-0.018460345
183	0xbe38e51c	-0.18056148
184	0xbf5ac446	-0.8545574
185	0x3b344348	0.0027505923
186	0x3e30afd0	0.17254567
187	0xbe77c556	-0.24196371
188	0xbfa0014b	-1.2500395
189	0x3c3c307b	0.011486168
190	0x3dceb6e4	0.10093477
191	0x3c974660	0.018466175
192	0xbe146d1b	-0.14494745
193	0x3cf98608	0.030459419
194	0x3e1c2c49	0.15251268
195	0x3dc76c97	0.09737509
196	0xbda8a103	-0.082338355
197	0xbe2c3a8a	-0.16819206
198	0xbe834d1a	-0.2564476
199	0xbbe14d46	-0.006875667
200	0x3d831d2a	0.06402047
201	0xbe2c1be4	-0.16807514
202	0x3d8ac3d4	0.067756325
203	0xbe4676d2	-0.19381264
204	0xbcab0774	-0.020877577
205	0x3e21ee60	0.15813589
206	0xbd1a74b5	-0.037708957
207	0xbda6a7b3	-0.08137455
208	0xbd6a8477	-0.057255235
209	0xbcb1b218	-0.021691367
210	0x3e49157d	0.19637103
211	0x3ddd3d42	0.108026996
212	0xbe38f623	-0.18062644
213	0x3deae9bc	0.114703625
214	0x3dec7ed7	0.1154763
215	0x3dec3c08	0.115348876
216	0x3e2f8404	0.17140204
217	0x3e0cbd08	0.13743985
218	0x3cb3f065	0.021965215
219	0xbe43015c	-0.19043487
220	0xbe30c780	-0.17263603
221	0x3d9fd932	0.078050986
222	0x3e10a24b	0.1412441
223	0xbd94dd51	-0.07268775
224	0xbc7cef20	-0.015437871
225	0xbd534161	-0.051576022
226	0x3de7e0ec	0.11322197
227	0xbf1226ee	-0.5709065
228	0x3c4b6932	0.012415217
229	0xbd2dc630	-0.042425334
230	0x3d8cfa55	0.068836845
231	0xbc435f37	-0.011924556
232	0x3e1859c2	0.1487799
233	0x3d2126c2	0.039343603
234	0x3d1bcbf8	0.038036317
235	0x3cb2b8ec	0.021816693
236	0xbc4c1344	-0.012455765
237	0xbe143616	-0.14473757
238	0xbecbf9a9	-0.39838913
239	0x3e48e441	0.19618322
240	0x3cd75310	0.026284724
241	0xbdf6361f	-0.120220415
242	0x3c92f103	0.017937189
243	0xbcabc4c3	-0.020967847
244	0xbdc9469e	-0.09827922
245	0xbfa5dca0	-1.2957954
246	0x3f4b2a14	0.7936108
247	0xbe1963e6	-0.14979514
248	0xbb987597	-0.0046526897
249	0x3d06547b	0.03279541
250	0xbd664018	-0.05621347
251	0xbc885593	-0.016642367
252	0x3dd799e5	0.105274
253	0x3af5ff80	0.0018768162
254	0xbe4a4457	-0.19752632
255	0x3d8c169f	0.06840252

q_values.bias f4 [3]
0	0xbf53a077	-0.82666725
1	0xbf2291be	-0.63503635
2	0xbf108aa0	-0.56461525
