weights_DDQN.pth (torch, 138071 bytes, 6 tensors)

fc1.weight f4 [256, 2]
000000 e8 18 77 3f f8 37 52 3d c5 fd 08 c0 f8 61 2d c0
       0.9652238 0.051322907 -2.1404889 -2.7091045
000010 b4 1e 2a bf 90 7c 8a 40 16 93 21 c0 21 0b 26 c0
       -0.664531 4.3277054 -2.5246024 -2.5944293
000020 af f9 36 bf af 32 81 c0 f1 92 a4 3f f6 6d 35 3d
       -0.71474737 -4.037437 1.2857343 0.04429432
000030 0d b5 80 3f 31 0f 0e c0 a5 fa 18 bf cc 68 59 c0
       1.0055252 -2.2196772 -0.59757453 -3.3970213
000040 a5 b0 11 bd 91 6d 9a bf 0b ae 55 c0 ee d4 76 c0
       -0.035568852 -1.2064687 -3.3387477 -3.8567462
000050 12 03 97 be 63 f5 61 bf 7a 86 f7 be 19 ec 3c 40
       -0.2949453 -0.88265055 -0.48344785 2.9519103
000060 7b d1 bc 3e 9c c7 6f bf 55 b7 6d 3d a2 05 8c 40
       0.3687857 -0.93663955 0.058036167 4.3756876
000070 e7 de 70 3f d1 8c 3f 3f 42 4d 55 3f 00 ae dd 40
       0.9409012 0.74824244 0.8332101 6.92749
000080 a9 9c 90 3f 18 61 8e 40 88 61 54 3f 51 69 12 bf
       1.1297809 4.4493523 0.8296132 -0.5719195
000090 e2 8e 2f 3e 97 c6 47 40 65 8a b2 be de 5a a3 3f
       0.17144349 3.121496 -0.34871212 1.2762105
0000a0 76 3b 3d be 71 cb a2 40 e7 e0 15 3f 05 73 b9 c0
       -0.18479714 5.087334 0.585463 -5.7952905
0000b0 4e a9 ad be 8a b1 b6 c0 10 e1 45 3f c5 25 72 40
       -0.33918232 -5.7091722 0.77296543 3.7835553
0000c0 59 d3 8c bf 49 1f 32 c0 40 16 b3 3e 99 e4 d0 40
       -1.1001998 -2.7831595 0.34977913 6.527905
0000d0 e8 ba 7d be 3c 02 8c c0 be 44 18 c0 30 1f 5d c0
       -0.2477833 -4.3752728 -2.3791957 -3.4550285
0000e0 42 4a 0e bf 8a 32 29 c1 0c d4 91 bf a6 e2 95 c0
       -0.5558206 -10.574839 -1.1392837 -4.683917
0000f0 c7 3d 35 bc 71 fd 87 3e 7e 83 97 3f cb f8 f5 bf
       -0.011062092 0.26560548 1.1837003 -1.921655
000100 26 1f f2 3d c1 a4 35 c0 1c 08 90 bf ce eb 6a c0
       0.11822347 -2.8381808 -1.1252475 -3.6706424
000110 8e 22 7b 3d 4e 45 cf c0 9b 4c 84 bf 13 c8 94 c0
       0.06131225 -6.47721 -1.0335878 -4.649423
000120 ac be 81 3f 9e 96 24 40 9e 73 d9 bf c4 55 42 c0
       1.0136313 2.571693 -1.6988409 -3.0364847
000130 56 ca 17 bf d9 67 0c 40 6b 50 ce be 55 3c 8f c0
       -0.59293115 2.1938384 -0.4029573 -4.4761147
000140 2d e8 92 3d a8 fd 6f 40 b8 a8 0b 40 95 89 2b bf
       0.0717319 3.749857 2.1821728 -0.6700681
000150 7d 86 d4 3f b0 ca 91 40 19 16 50 3f d4 27 b4 be
       1.6603543 4.555992 0.8128372 -0.35186636
000160 61 6a ce 3e 88 b2 cf 40 ae bc a5 3f c4 92 5c 40
       0.40315536 6.4905434 1.2948205 3.4464579
000170 8d a8 38 bd a7 54 02 c0 44 40 7b 3f f6 45 73 40
       -0.045082618 -2.0364168 0.98144937 3.801145
000180 3a 65 62 bf 3e 26 9a c0 66 bb f6 3e 6b 4c d1 40
       -0.8843571 -4.817168 0.4818985 6.5405784
000190 1c b1 5e bf 8c 6f 2c c0 63 12 85 be de 34 35 c0
       -0.86989 -2.6943083 -0.2599059 -2.8313518
0001a0 c2 86 77 3f bf 2f 12 40 cf 96 d0 bd fd 10 03 c1
       0.9669 2.2841642 -0.101850145 -8.191648
0001b0 c7 fc 2c bf 1f 43 4e bf 15 cb 7b 3f 53 a2 15 41
       -0.6757321 -0.8057117 0.98356754 9.35213
0001c0 d6 e9 29 bf 6f 19 17 c1 7e c8 73 3e 20 3a ac be
       -0.6637243 -9.443709 0.2380695 -0.33638096
0001d0 b7 ce 5f be 13 29 b3 bf d8 db 95 3f c6 5b 4f 40
       -0.21856199 -1.399691 1.1707716 3.2399764
0001e0 5d 98 40 3f 25 80 82 c0 0d 9e bc 3d 5b c2 80 bf
       0.7523249 -4.0781426 0.09209833 -1.0059313
0001f0 49 1d 2d 3d 32 85 ac be 0d be db be 53 4b 7d 40
       0.042264257 -0.3369537 -0.42918435 3.9577224
000200 27 ea 5c bf b8 f9 c4 bf 84 5b d3 3f ee 23 52 40
       -0.8629479 -1.5388708 1.6512303 3.283443
000210 02 80 ee be 0f 5a 2f 40 2e a7 cf 3d 64 76 00 bf
       -0.46582037 2.7398717 0.10139309 -0.5018065
000220 8e 3c 70 3f c8 50 84 40 57 f3 14 3f d5 06 f1 40
       0.938424 4.134861 0.5818381 7.532084
000230 91 d2 57 bf 85 35 8f bf 5c 85 02 bf 5e 02 d5 c0
       -0.84305674 -1.1188208 -0.5098474 -6.656539
000240 aa 98 19 3f 13 b6 06 bf 9f 5e 1e bf f3 8a 4f 3e
       0.5999857 -0.52621573 -0.6186313 0.20267849
000250 62 03 92 bf dc 8c 7a bf 48 b0 08 3f 2f 77 0d 3e
       -1.1407282 -0.97871184 0.53393984 0.13814996
000260 af 57 94 bf d3 f0 c8 c0 72 35 ad 3f 9f 45 b0 3f
       -1.1589259 -6.2793975 1.3531935 1.3771247
000270 e1 97 d7 3c 1e 30 0f 3e 6d 34 8c bf 13 c8 3c c0
       0.026317539 0.13983199 -1.0953499 -2.9497116
000280 b1 ff 5e bf 25 4f 81 c0 a3 61 98 3f 59 56 56 be
       -0.87108904 -4.040911 1.1904796 -0.20931377
000290 02 d6 62 3f a9 b6 26 c0 b0 2b 67 3e af b9 e3 40
       0.886078 -2.6048987 0.22575259 7.1164165
0002a0 5d 2c ff be 71 85 98 c0 ac 51 82 bf 75 0c 18 c0
       -0.49838534 -4.766289 -1.0181174 -2.3757603
0002b0 40 05 ab bf 13 dd ab c0 91 67 4b 3d dd 8a 0b c1
       -1.3360977 -5.3707366 0.049659315 -8.721402
0002c0 9a 09 dd be 17 e4 c4 3e b3 5f f2 bd ae 84 3d c0
       -0.43171388 0.3845527 -0.118346594 -2.9612231
0002d0 47 31 ad bf 70 75 7d c0 30 bb 21 c0 51 d5 2a c0
       -1.3530663 -3.9602928 -2.52705 -2.6692698
0002e0 8d a5 04 be b1 01 dd c0 45 ff 84 bf 6c a7 85 c0
       -0.12953778 -6.9064565 -1.0390402 -4.1766872
0002f0 ce 3e 73 bf 2c 72 c0 c0 ed 0c 6b 3d 13 b7 7e 40
       -0.9501771 -6.013937 0.057385374 3.979924
000300 8d ac 18 bf 60 03 9e 40 56 66 ea 3d e7 c2 a2 40
       -0.5963829 4.937912 0.114453 5.086292
000310 f0 6e 52 3f e6 09 2d c0 9c 05 77 3c 01 cf 02 c1
       0.8220053 -2.7037292 0.015077021 -8.175538
000320 8d 5c b7 3d 33 b9 96 40 ea 0d 2e bf bf 71 fc bf
       0.089531995 4.7101073 -0.6798998 -1.9722213
000330 8c 0d 2b 3e 80 d3 90 40 73 a0 7e 3f 23 7b d5 3e
       0.16704386 4.525818 0.99463576 0.41695508
000340 52 b6 c6 be f5 74 e0 3f 22 d9 83 be 67 4c 80 c0
       -0.38810974 1.7535692 -0.25751597 -4.0093265
000350 da da 03 3f e7 57 6d 40 7b 1b 20 3e 74 6f 0d 40
       0.51505816 3.7084901 0.15635483 2.2099276
000360 42 ed b5 be b4 b4 9f 3f 91 6a 47 3d 6d 06 19 3d
       -0.35532576 1.2477021 0.048685614 0.037359644
000370 cb bd 2c bf cf 67 e7 c0 04 51 44 be b4 3a e6 bf
       -0.674771 -7.231422 -0.1917153 -1.7986665
000380 ae 58 0f 3f 36 dd b4 40 f6 0c ba 3f e2 b6 60 3c
       0.5599469 5.6520033 1.4535205 0.013715478
000390 85 90 17 3e 5d 56 a2 40 71 82 1f 3e df 2c 6e 40
       0.14801224 5.0730424 0.15577103 3.7214887
0003a0 b3 d0 61 bf 9c 20 c7 c0 05 f9 78 3f 70 67 6f 40
       -0.88209075 -6.2227306 0.97254974 3.7406883
0003b0 c6 b5 ac be 06 45 f9 bf 4d d9 a1 be f5 2b ba c0
       -0.33732432 -1.9474189 -0.316111 -5.817866
0003c0 74 cd a4 3e 0c 0c 66 bf 2f 34 1e bf fa 97 ec c0
       0.32187998 -0.8986213 -0.61798376 -7.393552
0003d0 de a2 0a 40 c9 0b e6 bf f4 dc af 3e 67 a0 66 3e
       2.1661906 -1.7972347 0.3434826 0.22522126
0003e0 4d bb 50 3f 41 83 ce bf 9a 19 d3 3f ca cc 40 40
       0.815358 -1.6133806 1.6492188 3.0124993
0003f0 d5 81 46 be 68 56 dc 3f f0 2f 40 3d a4 a5 2e 40
       -0.19385464 1.7213869 0.046920717 2.72886

fc1.bias f4 [256]
000000 d2 27 fa be 22 d3 cd bd 57 59 9c be e7 20 35 be
       -0.48858505 -0.10050036 -0.3053691 -0.17688332
000010 5a 03 1b bf 38 1b 35 3e 9e 91 b6 3e 22 e8 a8 3e
       -0.6055199 0.17686164 0.35657972 0.32989603
000020 1f f2 03 3f 10 66 6f be 73 8f ef be 5b 2e d0 be
       0.5154132 -0.23378778 -0.4678913 -0.40660366
000030 3d 74 37 be 44 ec 1f bd f8 8d e3 3d c8 cc a6 be
       -0.17915435 -0.03904368 0.11111063 -0.3257811
000040 34 33 cd 3e b8 85 c9 3c 0a e2 7a 3e 6c c2 e4 be
       0.40078127 0.024599895 0.2450029 -0.44679582
000050 db 29 7f be ae 5c 38 3e da c0 55 3e 43 e9 82 3e
       -0.2491831 0.18004104 0.20874348 0.2556859
000060 cb 66 d3 be 9c b3 36 be 16 56 21 3e b6 77 5c be
       -0.41289362 -0.17841953 0.15755495 -0.21530041
000070 a1 b0 1b bf 90 ee 45 bf b7 f8 54 bd b1 cf 2a 3f
       -0.6081639 -0.7731714 -0.051995005 0.6672316
000080 90 28 d8 3e b1 29 ac 3e 66 aa d9 be 2b 71 b1 3e
       0.42218447 0.33625558 -0.42512816 0.34656653
000090 cb 4d da bd 17 87 ae 3d 4e 33 f1 be 96 f2 50 3e
       -0.10659369 0.0852186 -0.47109455 0.20405039
0000a0 4b a8 14 bb aa 4a d1 bd 14 02 cb 3e 10 ca 90 3d
       -0.0022683318 -0.10219319 0.39650023 0.0706979
0000b0 c4 39 30 be a3 5d 1a 3e 7f d6 c0 3e 3c 17 b6 3e
       -0.17209536 0.15074782 0.37663648 0.355646
0000c0 83 a4 96 3e fa 77 47 be d2 2e 04 3f f7 9d 0c bf
       0.29422387 -0.19479361 0.5163394 -0.54928535
0000d0 18 0f ce bd da ff fb bd d1 17 e2 bd 8c e5 b4 be
       -0.10061473 -0.12304659 -0.11039699 -0.3533138
0000e0 e6 99 f8 be 21 07 a3 3e 93 36 ed 3e 22 80 d3 3d
       -0.48554915 0.31841376 0.463307 0.10327174
0000f0 8b c1 81 3e e5 88 04 3f 2f 23 88 bd 93 83 bf be
       0.25342974 0.51771384 -0.06647336 -0.3740507
000100 86 92 96 3c 95 40 16 3f 72 68 93 be 01 13 82 bd
       0.018380415 0.58692294 -0.28790623 -0.06351281
000110 27 4d 94 be 24 6a 6b be 73 0e 55 3e 07 eb e0 be
       -0.28965113 -0.22989708 0.20806293 -0.43929312
000120 69 e1 10 3f aa 6c 4f be 77 2a 46 be 4a 6a 8d be
       0.5659395 -0.20256296 -0.19352137 -0.27620155
000130 27 27 01 bf 26 f5 ce be ec 53 80 bd 37 68 d1 be
       -0.50450367 -0.40421408 -0.06266007 -0.40899822
000140 eb a9 8b 3e a1 9f 0d 3e 61 4b c3 bd f5 40 d5 bd
       0.27278075 0.13830425 -0.09535862 -0.1041278
000150 ca 7b 72 3e 8a d0 92 3e a9 80 2c 3e 46 b6 14 bd
       0.23680034 0.28674728 0.16845955 -0.036306642
000160 3b c4 76 be a2 3d 01 3f d2 0a cc be 2e 98 bb be
       -0.24098293 0.5048467 -0.39852005 -0.3663954
000170 b5 df 81 3d b3 cb 2b bd 9d 61 8f bd 06 d6 c8 bc
       0.06341497 -0.04194231 -0.0700104 -0.024516117
000180 3b 47 92 be 94 f5 19 3c fa 46 b7 3e e2 b6 08 3d
       -0.2856997 0.009396929 0.35796338 0.033377536
000190 fd 4e 1b be 47 e8 cd 3e e2 b3 0b be ba dd 65 3e
       -0.1516685 0.40216276 -0.13642839 0.22447863
0001a0 0e 16 55 be 5a fd 1b 3e e8 7c fe 3d e8 44 4a 3e
       -0.20809194 0.15233365 0.12426168 0.19752848
0001b0 7b ad ea be 1e 0d 82 bd be 2a 7b bd de a0 76 3d
       -0.4583548 -0.06350158 -0.06132006 0.06021201
0001c0 e0 4e bf bd 8f 77 f9 3e bb 89 1a be 1b 24 d2 bc
       -0.09341216 0.48724028 -0.15091603 -0.025651982
0001d0 e2 ad 90 be 64 56 b1 3e b1 de b0 3e 49 1e 55 3e
       -0.28257662 0.34636223 0.345449 0.20812334
0001e0 ff ec 9a 3e a3 14 d2 be fa cd ab 3d cb 91 41 be
       0.3025894 -0.4103137 0.08388896 -0.18903272
0001f0 2e c0 42 3b 1e 7d 44 3e d9 f7 83 be a2 91 6b bc
       0.0029716599 0.19188353 -0.2577503 -0.014377983
000200 b6 cc a1 be b7 34 59 3e 98 3f ae 3e 82 28 52 be
       -0.31601495 0.21211515 0.34032893 -0.20523265
000210 be cc 0b bf df 10 50 3e 8a 8a 5a be 6e c6 8a be
       -0.54609287 0.20318936 -0.21341911 -0.27104515
000220 69 33 e1 bc a6 15 c1 3e cf 4a b1 bd 8f bf 0b bd
       -0.027490335 0.3771183 -0.08656847 -0.03411823
000230 28 aa ec 3e ba 16 88 3e 64 53 b0 be 0c 69 2e be
       0.4622357 0.2657984 -0.34438622 -0.1703226
000240 2c 1b 55 bd 79 7a bf be f4 47 84 be f8 9c b5 bd
       -0.052027866 -0.37398127 -0.25836146 -0.0886783
000250 db 52 1a 3e 75 25 1e 3f af a5 9a 3e 49 8a 21 bc
       0.1507067 0.61775905 0.30204532 -0.00985963
000260 69 52 38 be 35 aa 02 3f 73 4a f1 be a2 6c 49 be
       -0.18000187 0.51040965 -0.47127113 -0.19670346
000270 38 32 5d 3e d9 d8 ac 3e 9d 27 42 bf e9 44 2b bf
       0.21601188 0.33759192 -0.75841695 -0.66902024
000280 a1 91 3b bd 88 f1 02 bf f1 35 46 be 2c bd e1 be
       -0.04579318 -0.511498 -0.19356515 -0.4408964
000290 91 64 3c bd 62 e2 3b 3e c1 e8 22 3d 79 1c 3d 3e
       -0.045994345 0.18348077 0.039772753 0.18467893
0002a0 0f 44 cc 3d d0 17 65 be 06 4c 0e 3d 29 a3 1a 3d
       0.09973919 -0.22372365 0.03474047 0.037753258
0002b0 98 57 f9 3c c6 d0 59 3c a4 20 a6 3e c4 c7 f2 bc
       0.030437276 0.013294404 0.32446778 -0.029636271
0002c0 78 dd dc bd 76 75 a8 3e 33 83 cd 3e 42 33 d5 be
       -0.10784429 0.32902116 0.4013916 -0.4164067
0002d0 08 67 8a 3e 9a f0 3f be 0e cc 0d be cb 96 46 3e
       0.27031732 -0.18744126 -0.13847372 0.1939346
0002e0 ec db 52 be 8d 81 c9 3e cb 19 50 be 0d b9 34 bf
       -0.20591706 0.39356652 -0.20322339 -0.70594865
0002f0 ad 96 80 3e 70 e7 aa 3e bc ee cb be 50 34 2a be
       0.25114956 0.33379698 -0.39830577 -0.16621518
000300 50 0f fa bd 77 b1 4e be 2f 1b 1e 3f cf fb 98 be
       -0.12209952 -0.20184885 0.6176023 -0.29879615
000310 e3 9f ed be 4b 06 c1 3e 6e a1 97 bd 16 15 9e be
       -0.46411046 0.37700114 -0.07403837 -0.30875462
000320 4b 36 83 3d f2 50 5f be ad 9f 0c 3f 56 e7 94 3e
       0.0640684 -0.21808222 0.54931146 0.29082745
000330 0d 04 60 be 8e c9 62 be 13 47 f9 3e 0e 9b 5d be
       -0.21876545 -0.221472 0.48687038 -0.2164118
000340 34 ea 06 bd a3 76 dc bd 87 44 32 3e 0b 52 64 3e
       -0.032938197 -0.10764816 0.17408954 0.22296922
000350 b5 e8 fc be b6 d5 44 3e 8f 25 11 3f e7 46 56 be
       -0.4939629 0.19222149 0.56697935 -0.20925485
000360 a4 65 4e be ad 54 fc be 5e 60 49 be 65 4b 97 bc
       -0.2015596 -0.49283352 -0.19665667 -0.018468568
000370 54 6d bf 3e 40 a9 91 be 0d 56 ae 3e 8a 08 1c 3e
       0.37388098 -0.2844944 0.34050027 0.15237632
000380 f7 e3 88 be b8 72 f8 3e 35 14 b8 3e 14 f4 a9 3e
       -0.26736423 0.48525023 0.35952917 0.3319403
000390 42 5f 89 3e e2 d5 0c bf 0e a0 03 bf 67 b3 4e bf
       0.26830488 -0.5501386 -0.514161 -0.80742496
0003a0 bc 9e 23 3b b3 d9 9c 3d 50 04 8a 3e 00 90 89 bd
       0.002496644 0.0765871 0.26956415 -0.06716919
0003b0 41 22 c1 3e bf 6d 82 bd a8 e6 69 be 0e cf dc 3e
       0.37721446 -0.06368589 -0.22841895 0.4312672
0003c0 f2 40 ba 3e 01 96 2d 3e 73 47 39 3e 65 bb 2f be
       0.36377674 0.16951753 0.18093662 -0.17161329
0003d0 46 55 90 bd e3 c5 52 be 8c 37 f6 3e 13 0a bf 3e
       -0.070475146 -0.205833 0.48089254 0.37312374
0003e0 44 cf bb 3e c4 a5 da 3e d2 8b 89 3e f2 d5 0b be
       0.3668157 0.42704594 0.26864487 -0.13655832
0003f0 d8 8f be 3e 6a 07 68 3e 40 a5 70 bf 41 28 c3 3e
       0.3721912 0.22659078 -0.9400215 0.3811665

fc2.weight f4 [128, 256]
000000 5c 82 42 bd 2f f1 17 3d a8 bb d7 bd cb 09 a8 3d
       -0.0474876 0.037095245 -0.105338395 0.08204993
000010 61 71 11 3d f4 7f 14 bc dd 2f 7d bb 2c 10 b3 3b
       0.035508517 -0.0090637095 -0.0038633265 0.0054645743
000020 2d 0f b9 bd 1b 29 a3 bd 1a 84 35 3e 78 aa 18 3d
       -0.09036098 -0.079668246 0.17726174 0.037271947
000030 d6 af a9 3c 19 19 38 bd 60 35 2a be 41 e9 fd bd
       0.020713728 -0.04494581 -0.16621923 -0.12398005
000040 ed 38 8d 3d ae 57 ee 3d a7 01 3b bd 54 ff b6 3d
       0.06895623 0.11637817 -0.045655873 0.08935419
000050 85 54 59 bb d7 8c 68 3c 0e 03 64 3d e6 2f 10 be
       -0.003316195 0.014193735 0.055666976 -0.14080772
000060 98 a4 cb 3b ed b7 5c 3d d4 2c b5 bd 5c 2a 60 3b
       0.0062146895 0.053886343 -0.08846441 0.0034204936
000070 09 1c 15 3e 1e af f8 bd 1e 0a 0d 3d 8f a9 9a bd
       0.14561476 -0.12142776 0.034433477 -0.07551872
000080 95 30 c5 bd 79 42 93 3d 21 53 04 bd 96 93 e2 bd
       -0.09628407 0.07190413 -0.03230584 -0.11063306
000090 1d ab 58 bc 3a c3 66 bc 23 56 a0 bd 9d 4b 48 bd
       -0.01322439 -0.014084632 -0.07828929 -0.048900235
0000a0 d3 84 c4 bd 0d 40 9c bc 4b 72 2c bc 37 ba b2 ba
       -0.09595647 -0.01907351 -0.010525296 -0.0013635819
0000b0 b8 37 96 bd f0 05 77 bd 78 7d 01 bc e5 5e 03 be
       -0.07334846 -0.060308397 -0.007903449 -0.12829168
0000c0 04 63 ee bd ac 6a 7f 3d e1 16 cb bd 6b d5 e7 3d
       -0.116399795 0.06235759 -0.09916473 0.11320003
0000d0 8e 0b de 3d bc 32 34 be a0 4b da bc 4f 00 6d bd
       0.10842048 -0.17597479 -0.026647389 -0.057861622
0000e0 55 d5 31 bc ff 31 99 3d 7e 55 0f be 50 6d 96 bd
       -0.010854085 0.07480239 -0.13997456 -0.073450685
0000f0 ba a5 c9 3b 54 62 1b 3e 7a b8 77 3b 3b 72 a8 3b
       0.0061537893 0.15174228 0.0037799166 0.0051405705
000100 14 a1 23 3c 29 e8 b0 bd 51 bd 92 3d 7a 47 22 be
       0.0099871345 -0.08638031 0.071650155 -0.15847579
000110 b8 f9 78 3d cc 56 62 be 56 e5 b9 3d eb 7e d9 3c
       0.060785025 -0.22103423 0.090769455 0.026549777
000120 a6 c8 ba 3d b4 7e a7 bc 24 ee 3d 3d 65 f0 73 3d
       0.09120302 -0.020446159 0.046369687 0.05955543
000130 cf 01 58 3d 0f be 57 bd c2 b1 8d 3d 8d 9d 30 bd
       0.0527361 -0.05267149 0.0691867 -0.043119002
000140 10 e2 f9 3b 17 5a a9 3d c0 32 12 bd e0 b3 ee 3c
       0.0076258257 0.082691364 -0.03569293 0.029138505
000150 b4 44 08 bd a3 f9 82 bb 3a 5e 5b be 04 53 35 3e
       -0.033268645 -0.003997044 -0.21422663 0.17707449
000160 19 ab a1 bd a1 96 29 be 4b 59 d4 3c 14 72 aa bc
       -0.078939624 -0.16561367 0.025921484 -0.02080635
000170 75 29 bf bd aa d5 6f be 06 ab b8 3d 49 e7 07 be
       -0.09334079 -0.2342135 0.09016995 -0.13271822
000180 72 3e 46 3d 86 05 80 3e db e3 99 bc 31 3c 88 bd
       0.048399396 0.25004214 -0.018785408 -0.066521056
000190 8e fd 82 3c b9 bd 57 3d fb c8 4f 3e c9 9d cb bc
       0.015990045 0.052671168 0.20291512 -0.024855511
0001a0 d5 5a 03 bd 72 7e 53 3d 83 f2 d4 3d 7a 39 f9 bd
       -0.032069046 0.05163426 0.10397818 -0.12169166
0001b0 d7 ce 08 bd 5b b5 df 3d c9 77 09 3e 9f 40 b6 3d
       -0.033400383 0.10923263 0.134246 0.08899044
0001c0 b0 fa 4a 3d ce 40 1d be 1b bf 37 be f2 dd 29 3c
       0.04955548 -0.15356752 -0.17943995 0.010367857
0001d0 42 a3 87 3d b0 c0 37 3c bd 31 04 3d 9d e2 78 bd
       0.06622936 0.011215374 0.032273997 -0.06076299
0001e0 0a 10 9f bc 78 b8 29 3d 60 ee 0e 3e 11 c8 38 bd
       -0.019416828 0.04143569 0.1395812 -0.045112673
0001f0 6a 00 2f 3e c2 ba 5c bd 41 76 07 bc 36 66 7e bb
       0.17090002 -0.053889044 -0.00826794 -0.0038818247
000200 9e ce 3b 3e c0 34 9a 3d f4 ab 21 3d f1 b1 39 3d
       0.18340537 0.075295925 0.039470628 0.045335714
000210 45 1e 16 3c ac 46 6b 3d ce e1 f2 bd 6d 67 2c 3d
       0.00916249 0.057440445 -0.11859475 0.042090822
000220 ba e5 0e be 48 06 9c 3c a1 0c 0c 3e 56 d1 77 bc
       -0.13954821 0.019045964 0.13676693 -0.015125593
000230 da 0c a4 3d 71 bf ae 3d 62 ef 1d be 20 bf 0c 3d
       0.08010264 0.08532608 -0.15423349 0.03436196
000240 7d aa 8c 3d 5b 29 38 bd dc df eb bd c9 e1 59 bd
       0.068684556 -0.044961315 -0.11517307 -0.05319384
000250 1b 0c e0 bc cd a1 f2 bd 69 8d 7e 3d 09 ee 10 3e
       -0.027349522 -0.11847267 0.062146578 0.14153303
000260 0c 52 0f be 1d dc a1 bd 60 0a cd bd 18 36 e5 3d
       -0.13996142 -0.079033114 -0.100117445 0.11191958
000270 13 e2 15 be b5 f4 65 bc 26 06 49 bb 22 18 dc bc
       -0.14637022 -0.0140353935 -0.003067383 -0.026866976
000280 86 c8 35 bc 27 5d e7 bc 5c 36 23 bd c5 72 ee bd
       -0.011095172 -0.02824266 -0.039846763 -0.11642984
000290 5b 6d 77 bd 89 d6 08 bd 09 5f c6 3d 6e 2f 11 3d
       -0.060407024 -0.03340772 0.09686095 0.035445623
0002a0 6f 9a b8 bd b2 52 7b bd 7a 0b 3c be 7e 99 fb 3c
       -0.09013831 -0.06135816 -0.18363753 0.03071284
0002b0 96 12 88 3d a2 2d ec 3d ea a2 13 3e a8 a5 1d be
       0.0664417 0.11532141 0.14417616 -0.15395224
0002c0 03 bc 3b bc d1 6a 50 3e 6f b5 d5 bd fb c0 d8 3d
       -0.0114584 0.20353247 -0.10434996 0.10583683
0002d0 48 00 e0 bd c8 54 c1 bb 69 2d 13 bd e6 09 36 be
       -0.10937554 -0.0058999993 -0.03593198 -0.17777213
0002e0 cd b1 ee 3c ec bd 2b bc 78 66 ca 3d ab 0d 12 be
       0.029137516 -0.010482293 0.098828256 -0.14263026
0002f0 f6 58 7b bc f7 b8 90 bc f0 c0 f6 bb 43 08 d9 3d
       -0.015341034 -0.017666323 -0.007530324 0.10597279
000300 d6 da fd 3c 0e 48 08 3d ca b1 64 3e 8e bd f9 bc
       0.030988138 0.03327184 0.22333446 -0.030485895
000310 f4 75 69 bd b4 69 89 bc 5c f3 6c 3d 20 23 7c 3b
       -0.056997254 -0.016774036 0.057849273 0.0038473085
000320 09 67 a4 bd be 6d d9 3c 5e c4 99 bd 1f d9 be 3d
       -0.08027465 0.026541587 -0.07508157 0.09318756
000330 2e 04 95 bd 7f e2 d4 bd ba cb d8 bd a1 3c 15 be
       -0.07276188 -0.10394763 -0.10585733 -0.1457391
000340 43 0d da 3c 05 13 49 bd 3b e0 e2 bd 9b b3 36 bb
       0.026617652 -0.049090404 -0.11077925 -0.002787805
000350 53 3e 91 bd 38 fc cf bd b5 94 01 3e 87 50 23 3e
       -0.070919655 -0.10155529 0.12654383 0.15948687
000360 90 71 03 3d 27 d3 e6 3d 70 c6 e5 bd 7b 9e 20 3c
       0.032090724 0.11270743 -0.112194896 0.00980341
000370 a4 cf 22 bd eb 05 d3 bc c7 59 c6 3d 58 8b 81 bd
       -0.039748803 -0.025759658 0.096850924 -0.06325406
000380 4f b0 a4 bc 19 bd c9 3d 95 11 e5 3b f9 6f 77 bd
       -0.020103602 0.09850521 0.0069906213 -0.06040952
000390 ab 3b 30 be 71 22 2b 3e b3 e0 36 bd bc 07 21 bd
       -0.17210262 0.16712357 -0.044647884 -0.039314017
0003a0 9c 29 0c 3e 5d d5 21 3e f4 2a d9 3c 07 77 ff bc
       0.13687748 0.15804048 0.02650974 -0.031184686
0003b0 2e 13 98 bb bf 22 d6 3d fd 62 07 bd 24 2c 4b be
       -0.0046409583 0.10455846 -0.033053387 -0.19841057
0003c0 18 3c 13 bd 2a 8a 4f 3b e5 d1 0e 3d 22 62 dd 3d
       -0.03594598 0.0031668046 0.03486814 0.10809733
0003d0 80 89 0d 3e 09 00 40 3a 30 e5 cd bd 28 bc 13 be
       0.13821983 0.0007324224 -0.1005348 -0.14427245
0003e0 ee 27 53 bd b1 03 4c be 53 f3 f8 3d bc c2 96 3d
       -0.05155175 -0.19923283 0.121557854 0.073613614
0003f0 42 7d 26 bd fe 71 69 bd 57 ec 3c 3d 1c 1c 7a bd
       -0.0406468 -0.056993477 0.04612383 -0.061061963

fc2.bias f4 [128]
000000 a9 77 12 bc 6e ba e6 3b b3 18 02 bd f6 19 02 bd
       -0.008939662 0.007041267 -0.031761836 -0.03176304
000010 6a 1a 02 bd a3 a4 25 bd 68 be fe bc 2e 0c 02 bd
       -0.03176347 -0.040440213 -0.031096652 -0.031749897
000020 00 00 00 00 b6 3b 6a bd 8f 70 62 bd 47 cc d3 bc
       0.0 -0.05718585 -0.055283125 -0.025854243
000030 52 cb 59 bd c5 86 0f be db dd f9 bc 65 1a 02 bd
       -0.053172417 -0.14016254 -0.030501297 -0.031763453
000040 6b 16 02 bd 3d 05 98 bd 00 00 00 00 8c 2d 2a bc
       -0.03175966 -0.07422874 0.0 -0.010386836
000050 f2 a7 e9 3e 38 96 ff 3d 00 00 00 00 8e 8b b0 3e
       0.45635945 0.12479824 0.0 0.34481472
000060 45 07 c2 bc 55 17 02 bd d9 13 02 bd 4b dc 49 bd
       -0.023685107 -0.031760532 -0.03175721 -0.049282353
000070 98 34 bc bc 23 56 c9 3e af 06 02 bd 44 84 13 3e
       -0.022974297 0.3932353 -0.031744655 0.14405924
000080 00 00 00 00 86 81 c6 bd e0 7a 33 3b 0b 6e 09 bd
       0.0 -0.096926734 0.0027386472 -0.03355221
000090 73 f8 33 bd 36 a9 d6 bc e0 09 59 bd 91 48 01 3f
       -0.04393811 -0.026203733 -0.052987933 0.5050135
0000a0 00 00 00 00 e4 0e 02 bd 4f ca e0 bc 40 8b 5f bd
       0.0 -0.031752482 -0.027440218 -0.05457616
0000b0 00 00 00 00 06 52 c3 bc db 68 29 bd 23 56 81 bd
       0.0 -0.023842823 -0.041359764 -0.063152574
0000c0 35 16 78 bc bb 5c fd bc 68 e0 01 bd 7b 23 35 bd
       -0.015142013 -0.030928006 -0.03170815 -0.04422329
0000d0 50 12 4a bd 84 e1 93 bd b4 5d cc bc b0 36 44 bd
       -0.04933387 -0.07220748 -0.024947025 -0.047903717
0000e0 f1 a6 31 bd a5 db 97 b9 c3 2b 80 bd 6c 59 2f bd
       -0.0433721 -0.00028964612 -0.06258347 -0.04280989
0000f0 ea b6 8b bc 0d 36 7d 3e d1 27 01 bd 98 5f 5d bc
       -0.017054994 0.2472765 -0.031532113 -0.013511561
000100 6b b2 47 3f 6e c8 21 bd 7a f9 01 bd 4e 35 bd bc
       0.7800662 -0.039497785 -0.03173206 -0.023096707
000110 f8 e8 52 bd 87 f8 ab 3c d7 4f 49 3f 0b d1 fd bc
       -0.051491708 0.02099253 0.7863745 -0.030983469
000120 b2 9a 1f bd 4d 07 68 bd e4 9a 0e 3f 33 03 39 bc
       -0.03896589 -0.056647588 0.55705094 -0.011292267
000130 33 bd d0 bc 00 00 00 00 7e ef 27 bd f6 82 1c bd
       -0.025480842 0.0 -0.040999882 -0.03821083
000140 83 fb 01 bd 71 5a d4 bc 8c 02 a1 3d a2 16 02 bd
       -0.031734 -0.025922032 0.07861814 -0.031759866
000150 94 1c 02 bd b8 20 ac 3d db 77 a6 bc ea 05 33 bc
       -0.031765535 0.08404678 -0.020320823 -0.010926703
000160 31 b4 c5 bc 04 9b 5d bd 84 60 26 3e 00 e4 0b 3f
       -0.024133774 -0.054102913 0.16247755 0.54644775
000170 00 00 00 00 33 52 5c bd 62 8b 74 bd 82 c4 bd bd
       0.0 -0.05378933 -0.05970324 -0.092659965
000180 ca 70 34 bd 21 80 63 bb b4 c9 c4 bb 45 77 3d bd
       -0.044052877 -0.0034713822 -0.00600549 -0.046256322
000190 3a 48 8d bd af e6 33 bd b7 fa 81 bd df 7a d7 3d
       -0.06898542 -0.04392117 -0.06346648 0.10521483
0001a0 02 08 91 bd 3e 66 49 bc 3d 38 79 bd f1 86 28 bd
       -0.070816055 -0.012292443 -0.06084465 -0.041144315
0001b0 7c 00 e0 bc e7 4c 1e bd 95 85 46 bd 49 8d 48 bd
       -0.027343981 -0.03864756 -0.048467238 -0.048962865
0001c0 13 da 56 bd 81 aa ff 3e 00 00 00 00 c4 53 66 bd
       -0.052454066 0.49934772 0.0 -0.05623223
0001d0 c7 c4 34 bd 84 a1 5c 3f b1 76 27 bd 9d 2b de bc
       -0.044132974 0.86183953 -0.040884677 -0.027120406
0001e0 7f e3 15 bd 32 c0 b4 3b 00 00 00 00 c6 78 78 bd
       -0.03659391 0.0055160755 0.0 -0.060662054
0001f0 5d 0f 02 bd 0d 12 02 bd 5c 3d 5e bd 26 25 8b bd
       -0.031752933 -0.031755496 -0.054257736 -0.06794195

q_values.weight f4 [3, 128]
000000 b3 22 87 3d c3 5e cb be 77 55 0a be 2a 60 f2 3d
       0.06598415 -0.39720735 -0.13509165 0.11834748
000010 12 1f 8a 3d 38 5a 4b 3d 01 5c 3e bd c2 db 9a 3d
       0.067442074 0.049646586 -0.04647446 0.07561447
000020 bc f7 5f 3d 71 41 2a 3e 0d a8 2e 3d 49 f0 1e 3e
       0.054679617 0.16626526 0.042640734 0.15521349
000030 f6 9f 5b 3e ad f4 8a 3f e5 1b ca 3d 58 4a 36 be
       0.21447739 1.0855919 0.09868602 -0.17801797
000040 50 c0 f5 3c 76 89 ab 3d c4 5b 8b bd 9e 0a 15 bd
       0.029998928 0.08375828 -0.06804612 -0.03638708
000050 3a da e6 be a8 4d e1 3e 20 13 e0 bc 01 5f 10 bf
       -0.4508837 0.4400456 -0.02735287 -0.56394964
000060 dd 31 25 be 2d a7 ed bd cc b5 7c 3d 4d 48 40 be
       -0.16132303 -0.11604152 0.061696813 -0.1877758
000070 1c e5 a7 3e b2 fd 47 be 52 17 88 3b 27 f1 87 c0
       0.32791984 -0.19530371 0.0041531706 -4.2481875
000080 39 95 2e 3e 64 bf b2 3d 1d 2e 8c 3d b2 75 ca bd
       0.17049111 0.08727911 0.06844733 -0.0988573
000090 86 0d 27 bd fa 7b 62 bd ed f1 4e 3d 6c de b1 be
       -0.04078438 -0.055294015 0.050523687 -0.34740007
0000a0 14 8b 24 3d c2 a4 da 3d 67 e4 ed bd 2b fa da bd
       0.040171698 0.10675956 -0.1161583 -0.10692247
0000b0 a6 4f b3 3d 1e 1b 46 3d f7 b0 b1 3d 44 c7 65 3d
       0.08755426 0.048365705 0.086763315 0.056098238
0000c0 3f 54 4e bc 2f 5b 49 3e bf 82 31 be 38 12 34 39
       -0.012593328 0.1966369 -0.17335032 0.00017172925
0000d0 44 ca c1 3d 9b 74 b2 bd e2 9d 7e bd 5e 7b 3f 3e
       0.09462407 -0.08713647 -0.062162288 0.18699405
0000e0 2e 63 07 3e c5 bd 53 3c 00 34 3e 3a ca 48 8e 3d
       0.13221428 0.012923663 0.00072556734 0.06947477
0000f0 1d 19 10 be ed 67 95 3e 7c 77 19 be 85 dc 22 be
       -0.1407208 0.29180852 -0.14986986 -0.15904434
000100 52 26 ff be d0 1f 97 bd 34 2f 36 be 0c f2 39 be
       -0.49833924 -0.07379115 -0.17791444 -0.1815874
000110 2a 3a c7 3c 90 da 9e be 4c 66 00 bf 8d b1 37 3d
       0.024319727 -0.31026125 -0.5015609 0.04484706
000120 c1 1a 35 3e 45 f4 05 3e e4 61 c2 be ba 25 19 be
       0.17685987 0.13081463 -0.3796531 -0.14955798
000130 1b 67 cd bd 66 78 c9 3d 68 89 ab bb 33 a0 82 3d
       -0.100294314 0.09837417 -0.005234886 0.06378212
000140 75 31 40 3e 5a 7d d9 3d 8e 9e 05 3f c0 5a 6e bd
       0.18768866 0.10619612 0.5219506 -0.058192015
000150 a4 21 7d bd d0 f1 7c 3e c0 08 f9 bd 64 2e 4d 3e
       -0.06179966 0.24701619 -0.12159872 0.20037228
000160 61 f0 89 bd d8 06 b1 bd f2 80 38 3f 91 d4 04 bf
       -0.06735302 -0.086438835 0.72071755 -0.5188685
000170 e8 d1 6d bd 44 3f de bd 43 8d 15 bc 51 3c c2 bc
       -0.05806151 -0.10851911 -0.009127918 -0.023710402
000180 28 f5 e7 3d c6 c5 2a bd 05 57 19 3e e7 cc bc bd
       0.11326057 -0.041692518 0.14974602 -0.092187695
000190 bc 58 5a 3d 08 97 14 be 25 4d 0d 3e 41 e0 35 3f
       0.05330728 -0.14510739 0.1379896 0.7104531
0001a0 c3 fe 81 be 76 15 2a be 5e 02 3c be 2a 39 b9 3d
       -0.2538968 -0.16609749 -0.18360278 0.09044106
0001b0 38 6a fb bd 55 8d d1 bd 19 2e 07 be f1 1a d5 bd
       -0.12276119 -0.10232035 -0.13201179 -0.10405529
0001c0 d4 0a e5 bd 76 07 0b bf 20 bb 7b 3c 03 f5 06 3e
       -0.11183706 -0.5430826 0.015364438 0.13179402
0001d0 87 d4 0e 3e 2c 55 1b bf 4a af 75 3d 16 47 1e 3e
       0.1394826 -0.60676837 0.05998162 0.15456805
0001e0 bb eb 27 3e db f7 c1 3f 46 9c 3c be 7c 1c ec bd
       0.16398518 1.5153764 -0.18418989 -0.115288705
0001f0 ff 42 03 be d8 39 95 bc d1 48 26 bd 45 4d b0 bd
       -0.12818526 -0.018216059 -0.040596787 -0.08608488
000200 d1 59 00 bc e6 1d e3 bd d5 40 1f 3e c0 b9 f9 3b
       -0.007833914 -0.11089687 0.15552075 0.00762102
000210 48 f4 6d bd bc 11 88 bb e3 99 0c 3d 5a b8 10 3d
       -0.058094293 -0.0041525047 0.034326445 0.03533206
000220 94 a9 2c 3d a7 ce 19 3e c1 f0 e1 bd a1 e3 77 3d
       0.04215391 0.15020238 -0.11032248 0.06051982
000230 a0 3a 6d 3c d4 a3 8c 3f e4 04 62 3d 5d 39 77 3d
       0.014479309 1.0987496 0.055180445 0.06035744
000240 da e5 d5 bd f4 83 98 3d 12 88 cc 3d 61 2b 74 3d
       -0.10444231 0.07447043 0.09986891 0.05961168
000250 bb bd 0a bf 24 92 0d 3f b7 c2 33 be 2a 79 ce be
       -0.54195756 0.5530112 -0.17554747 -0.40326816
000260 f0 75 a7 bb fb fc 14 be 29 b1 07 3e c7 ef 40 3d
       -0.005110495 -0.1454963 0.13251175 0.04710367
000270 30 22 25 3e 39 ee e6 be 60 9f 38 bc 30 2f 91 c0
       0.16126323 -0.45103624 -0.011268467 -4.53701
000280 be cd 80 bd bb 3b 3d 3d 44 68 36 be 2b 94 e5 bd
       -0.06289242 0.04619954 -0.17813212 -0.112099014
000290 50 6f e1 bc 0d 09 89 bc 54 8f b9 ba 43 29 a7 be
       -0.027518898 -0.016727949 -0.0014157095 -0.32648668
0002a0 3f 15 50 3e 6e 67 7e bc 5f 9e a3 bd 7b e4 15 3c
       0.20320605 -0.015527589 -0.07989191 0.009148712
0002b0 57 84 45 3e 0a 6d 10 3e 4b 0f 20 be 48 10 ff 3c
       0.19288765 0.14104095 -0.15630834 0.031135693
0002c0 b5 f2 5e be 00 20 c7 b9 ec fa 97 3c ef 97 17 3b
       -0.21772273 -0.0003798008 0.018552266 0.002313133
0002d0 a1 c7 de bd f8 5e 7c be 9b 9f a8 bd bb c6 e3 3d
       -0.1087792 -0.24645603 -0.08233567 0.11121889
0002e0 9f c3 21 3e df 21 98 3d 1e 51 84 3d bf 4f 19 be
       0.1579728 0.074283354 0.064607844 -0.14971827
0002f0 b3 d7 7f bd a0 4f b6 3e 2c ab a8 bc 30 63 2a 3e
       -0.062461566 0.35607624 -0.020589434 0.166394
000300 b8 c3 e6 be 6a a5 de bd 7c 9f 48 be 49 87 b9 3c
       -0.45071197 -0.10871394 -0.19592088 0.022647517
000310 8e 46 0e 3e 7b 34 12 be 55 a0 07 bf 46 f3 e8 bd
       0.13894102 -0.14277832 -0.5297902 -0.11374526
000320 9b 5f 93 bd a4 60 31 be d0 f6 ed be a2 91 89 3c
       -0.0719597 -0.17322022 -0.46477365 0.016793076
000330 91 3b 4e 3a 76 28 a7 3d ba 5a ab 3d 18 ca 84 3d
       0.00078671525 0.08162014 0.08366914 0.06483859
000340 28 e9 2e be c3 69 81 3d 93 6c f5 3e d8 fa f6 3c
       -0.1708113 0.063190006 0.47934398 0.030148908
000350 91 43 29 3e b5 48 43 3e ee ba 41 3e 25 bd 56 3d
       0.16529681 0.19070704 0.18918964 0.052426476
000360 67 ce 9e 3d 0e 52 99 bc ff a0 2b 3f 91 cb b0 be
       0.07754212 -0.018715885 0.67042536 -0.3453031
000370 f4 5b 36 be 39 87 4a 3d 44 a2 db bd 0b de 0b be
       -0.17808515 0.049445365 -0.10724309 -0.13658921
000380 7c 9b 69 3c e4 df fe bd a9 07 a4 bd fd ab 1e 3e
       0.014258262 -0.124450475 -0.080092736 0.15495296
000390 e4 38 04 3e 7b 9d 6f 3c df b9 7b bb 60 0b 35 3f
       0.12912327 0.014624949 -0.0038410348 0.7072048
0003a0 c5 75 de be 20 f9 45 be ae 0e 9a 3d fe 10 99 bd
       -0.43449226 -0.19333315 0.07522331 -0.07473944
0003b0 e8 6d ab 3d f5 ad 05 3d 99 f6 eb bd 0b d3 b8 bc
       0.08370572 0.0326366 -0.11521644 -0.02256157
0003c0 84 98 06 bd 11 a5 f4 be 25 50 3a 3e 1c 49 cf 3d
       -0.032860294 -0.47782186 0.18194635 0.101213664
0003d0 d7 d6 4d be 6c 36 1d bf 1a e9 4e 3e ad bc 56 bd
       -0.20101486 -0.61411166 0.20206109 -0.05242603
0003e0 6f 32 44 bd d5 94 bf 3f 5e 2b dd 3d c6 0e f5 bb
       -0.04789966 1.4967295 0.10799287 -0.007478568
0003f0 31 13 e1 bc 33 f0 2c bd 91 5b bc 3d 8e 08 de 3d
       -0.027474971 -0.04222126 0.091971524 0.108414754

q_values.bias f4 [3]
000000 d0 6f 8c bf cd c6 39 bf 0b 51 1e bf
       -1.0971622 -0.7256897 -0.6184241
