weights_CRW1.pth (torch, 138071 bytes, 6 tensors)

fc1.weight f4 [256, 2]
0	0xbe88776c	-0.26653612
1	0xc0229d9d	-2.54087
2	0x3ed7fe77	0.4218633
3	0x40df1fb8	6.972622
4	0xbc611b5b	-0.013739432
5	0xc0da32f1	-6.8187184
6	0xbd88bf85	-0.066771545
7	0xbfa7bafb	-1.3103937
8	0x3f3a591f	0.7279224
9	0x40867aee	4.202506
10	0xbe9628af	-0.29327914
11	0xc092224a	-4.5666857
12	0xbe729795	-0.23690636
13	0xc03fd494	-2.9973497
14	0x3db002bc	0.085942715
15	0xbe87992f	-0.26484057
16	0xbf4b929d	-0.7952059
17	0xbfe3f71e	-1.7809789
18	0xbebc2161	-0.36744216
19	0xc12a6d14	-10.65163
20	0x3e884e95	0.26622453
21	0xbf0458a0	-0.5169773
22	0x3ee0d770	0.43914366
23	0xbfcc9a8c	-1.5984664
24	0x3f102835	0.5631135
25	0xc0dd1ed9	-6.9100156
26	0x3f036144	0.5132029
27	0x40dd3895	6.913157
28	0x3f693adf	0.91105455
29	0x4125c52f	10.360641
30	0xbeea76c3	-0.45793733
31	0xc04855aa	-3.1302285
32	0xbebf7a03	-0.37397775
33	0xc07268da	-3.7876496
34	0xbdb98d9d	-0.09060214
35	0xc065084f	-3.578632
36	0xbe4dfba2	-0.20115522
37	0xbfb20439	-1.3907539
38	0xbf31897f	-0.6935043
39	0xc03debd3	-2.9675186
40	0x3da7855d	0.08179734
41	0xc0faf765	-7.8426995
42	0xbf12dc59	-0.57367474
43	0xc0d4c0c3	-6.6485305
44	0x3dfba96f	0.12288176
45	0x40d3d435	6.619654
46	0xbe80a675	-0.25126997
47	0x40b524cf	5.660743
48	0xbf23ce7e	-0.6398696
49	0xc04479c2	-3.0699315
50	0x3e8bea80	0.27327347
51	0x3ec9a890	0.39386415
52	0xbd869790	-0.06571877
53	0xc04b0cd9	-3.1726592
54	0xbf3e2438	-0.74274015
55	0xc0590b9f	-3.3913343
56	0x3ea79493	0.3273054
57	0x40ae2409	5.441899
58	0xbe4a3e46	-0.19750318
59	0xc0dca17e	-6.8947134
60	0xbf1bcb39	-0.6085697
61	0xc025ce36	-2.590711
62	0xbe5eb356	-0.21748099
63	0xc024ab17	-2.5729425
64	0xbe29afc9	-0.16570963
65	0xbfaed3c4	-1.3658376
66	0x3c934cd1	0.017980965
67	0x40c31045	6.095736
68	0x3f04f2e0	0.519331
69	0xbec83816	-0.3910529
70	0xbf6324c7	-0.8872799
71	0xc09e0560	-4.938156
72	0x3e8b4047	0.27197477
73	0x41197a04	9.592289
74	0x3f03592a	0.5130793
75	0x40ee0b2a	7.438863
76	0x3ebd0c2c	0.3692335
77	0xbeb2fa2d	-0.34956494
78	0x3fabc809	1.3420421
79	0x40dd7428	6.920429
80	0x3ded7e93	0.11596408
81	0x3d61c597	0.055120077
82	0x3e5fd62c	0.21859044
83	0xbf2a9d9f	-0.6664676
84	0xbe64efeb	-0.22357146
85	0x408f42fc	4.476927
86	0x3e741a65	0.23838194
87	0x40c370c9	6.1075177
88	0xbf237876	-0.63855684
89	0x4075ea41	3.8424227
90	0xbfc47bd4	-1.5350289
91	0xc0433ddd	-3.0506508
92	0xbfb53fee	-1.4160135
93	0xc08e937e	-4.4555044
94	0xbeb1538d	-0.34634057
95	0xc006bd2a	-2.1052957
96	0x3eddf366	0.4334976
97	0x40fa9820	7.83107
98	0x3faa7a3f	1.3318557
99	0xc03454d3	-2.8176773
100	0x3df6597c	0.120287865
101	0xbdbea714	-0.093092114
102	0xbf1ff4b9	-0.6248279
103	0x3fa9dfdb	1.327144
104	0xbeec8517	-0.4619529
105	0xbffaccd0	-1.9593754
106	0xbf0487c1	-0.51769644
107	0xc01daeeb	-2.4638011
108	0x3dbec25c	0.09314415
109	0xbf215403	-0.63018817
110	0x3f18115e	0.594015
111	0xc0e4782a	-7.1396685
112	0xbe8103d8	-0.25198245
113	0x4062a702	3.5414433
114	0xbe949c4b	-0.29025492
115	0x40e00457	7.00053
116	0xbf371bce	-0.715268
117	0x3f1e1ca3	0.61762446
118	0xbf5b698d	-0.8570793
119	0xbfef6d14	-1.8705163
120	0x3e60f0aa	0.21966806
121	0xbe5beefa	-0.21477881
122	0xbf02d130	-0.51100445
123	0x40865d8c	4.1989193
124	0x3f7afe5d	0.9804438
125	0x414254e3	12.145724
126	0x3f96ef14	1.1791711
127	0xbe291bc9	-0.16514505
128	0x3eba4bdf	0.3638601
129	0xc0b19081	-5.5488896
130	0x3d617d58	0.055051178
131	0x3ee69a67	0.45039675
132	0xbe1afb00	-0.15134811
133	0xc05d3f7d	-3.457
134	0xbed262de	-0.41091055
135	0xc0558d16	-3.3367362
136	0xbea32839	-0.31866625
137	0xc04f5e14	-3.240117
138	0x3ea0d6a6	0.31413764
139	0xbf5dc32c	-0.86625934
140	0xbe550c62	-0.20805505
141	0xc04b2cd8	-3.174612
142	0xbf481a00	-0.7816467
143	0xc06732f3	-3.6124847
144	0xbe3bcc36	-0.18339619
145	0xc04b1eff	-3.1737669
146	0xbe52048e	-0.2050955
147	0xc0103efb	-2.253844
148	0x3d7b8df7	0.061414685
149	0x3f70e8d4	0.9410527
150	0x3e3a505d	0.18194719
151	0x40354a66	2.832666
152	0xbf3d4387	-0.73931164
153	0xbf417866	-0.7557434
154	0x3f1b0931	0.605609
155	0xc09cc307	-4.898807
156	0xbe6893a7	-0.22712575
157	0xc08dd314	-4.4320164
158	0x3da43690	0.080182195
159	0xc06972ce	-3.6476321
160	0x3eeecb59	0.46639517
161	0x40d16708	6.543827
162	0x3cc3f455	0.023920218
163	0xc0d95059	-6.791058
164	0x3dfecbef	0.12441241
165	0xbe4bc593	-0.19899587
166	0xbf21a9bc	-0.6314962
167	0xc14243c3	-12.141543
168	0x3e5c8aff	0.21537398
169	0xbf06916b	-0.5256564
170	0x3ea52bd2	0.32259995
171	0xbe8c75af	-0.27433535
172	0x3da32e15	0.07967774
173	0x3db7d43f	0.089760296
174	0x3f4ff473	0.81232375
175	0x40d74efb	6.728391
176	0xbe237750	-0.15963483
177	0xc0f74d82	-7.7282114
178	0xbf2c0264	-0.6719115
179	0x401bac98	2.4324093
180	0xbebe8ac2	-0.3721524
181	0x40871a72	4.221978
182	0x3ddf8b5a	0.10915251
183	0xbe8d3359	-0.27578238
184	0x3efc838f	0.4931912
185	0xbf683329	-0.90703064
186	0x40029bd9	2.0407622
187	0x3f4439d5	0.76650745
188	0x3ed9096a	0.42389995
189	0xc07b1b58	-3.923544
190	0xbf0b6f08	-0.54466295
191	0x40b34791	5.602486
192	0x3d163416	0.036670767
193	0x40c69897	6.2061267
194	0xbe24b7aa	-0.16085687
195	0xc04b92d9	-3.1808379
196	0x3bd6760f	0.0065448354
197	0xbe96cd1d	-0.29453364
198	0xbecae58f	-0.39628264
199	0x405d1bb3	3.4548156
200	0x3db356ec	0.087568134
201	0x40537db9	3.3045485
202	0xbe5d9daa	-0.21642175
203	0xbfc3670b	-1.5265821
204	0x3e90e6b1	0.28301004
205	0xbf0d3b10	-0.5516825
206	0xbdade59d	-0.08491061
207	0xc09c8bc6	-4.892062
208	0x3f43a20b	0.7641913
209	0xbf2f02c1	-0.6836358
210	0xbe7014a5	-0.23445375
211	0xbfadfb37	-1.359229
212	0xbee519e0	-0.44746304
213	0xc00bd0bd	-2.1846154
214	0x3fa48db4	1.2855744
215	0x407b8730	3.9301262
216	0xbe9a1edb	-0.30101666
217	0xc023b6c1	-2.5580294
218	0xbe1ea82c	-0.1549384
219	0xc073e1da	-3.81066
220	0xbe3726a2	-0.17885831
221	0xc007945a	-2.1184297
222	0xbe072ce6	-0.13200721
223	0xc01527cb	-2.3305538
224	0xbf061a07	-0.52383465
225	0x40aef20b	5.4670463
226	0xbe028980	-0.12747765
227	0xbffae668	-1.9601564
228	0xbeaff2c1	-0.34364894
229	0xc02c7a00	-2.6949463
230	0x401a8369	2.4142706
231	0x40f9d4b4	7.8072147
232	0xbe048cc4	-0.12944323
233	0xc01e4f38	-2.4735851
234	0x406f1a32	3.7359738
235	0x3bcb9723	0.0062130853
236	0xbe1cc8f5	-0.15311034
237	0xc0e08b86	-7.0170317
238	0x3f2d7536	0.67756975
239	0x4090dc48	4.52689
240	0x3f1e2280	0.6177139
241	0x41165bec	9.397442
242	0x3f5cf58f	0.8631219
243	0xc127f1c8	-10.496529
244	0xbeb3e27c	-0.3513373
245	0x408edfd7	4.464824
246	0x3f650927	0.8946709
247	0x406a6eb2	3.6630063
248	0x3f4bbe0a	0.7958685
249	0xc1132dcc	-9.198681
250	0xbe8550d4	-0.2603823
251	0x40e10d69	7.032887
252	0x3e7a7d59	0.24461879
253	0xbf44f3dc	-0.769346
254	0xbefd691f	-0.49494264
255	0xc062681b	-3.537604

fc1.bias f4 [256]
0	0x3e4540b8	0.1926297
1	0xbd0574e7	-0.03258219
2	0x3e8613ad	0.26186886
3	0x3ec6550d	0.38736764
4	0x3df0b2f4	0.117528826
5	0xbb802103	-0.0039101853
6	0x3e26cbfd	0.16288753
7	0xbd7606dc	-0.060065135
8	0xbf25a438	-0.647037
9	0x3cec7b78	0.028867468
10	0xbe0b56a0	-0.13607264
11	0xbe7b9569	-0.24568714
12	0x3e85bc33	0.26120147
13	0xbe51a1ad	-0.2047183
14	0xbeb2c964	-0.34919274
15	0x3e5d0402	0.2158356
16	0x3e28e98e	0.16495344
17	0x3e370a95	0.1787513
18	0x3e01f4ad	0.12690993
19	0xbec2f9cd	-0.38081208
20	0xbcda90d5	-0.02668039
21	0xbf0605f8	-0.5235286
22	0xbda81572	-0.08207215
23	0xbe219f72	-0.1578348
24	0xbe1428a1	-0.14468624
25	0xbe293743	-0.16524987
26	0x3d558f14	0.052138403
27	0x3e1a6def	0.15080999
28	0xbe190609	-0.14943708
29	0x3e607a68	0.21921694
30	0xbd9d2af1	-0.07674206
31	0xbe91a2bc	-0.2844447
32	0x3de54556	0.111948654
33	0xbe5ba066	-0.21447906
34	0xbe9a2229	-0.30104187
35	0xbb981855	-0.0046415725
36	0xbe915b55	-0.28389993
37	0xbe59fb1c	-0.21287197
38	0xbe671df0	-0.22570014
39	0xbed2df24	-0.41185868
40	0xbd9e2be4	-0.07723215
41	0xbdff71ee	-0.12472902
42	0xbe161dec	-0.14659852
43	0xbe0995bf	-0.1343603
44	0xbebe0852	-0.37115723
45	0xbd3a0189	-0.04541162
46	0xbf16d817	-0.58923477
47	0x3da8b094	0.082368046
48	0xbe61954d	-0.2202961
49	0xbbeb2909	-0.0071765226
50	0xbdbebf1e	-0.093137965
51	0xbefebf76	-0.49755448
52	0xbe13e8c9	-0.14444269
53	0x3e05345a	0.13008252
54	0xbd4de053	-0.05026276
55	0x3f01764a	0.5057112
56	0xbdcf39b6	-0.10118429
57	0xbe4a1c01	-0.19737245
58	0xbf17679d	-0.59142476
59	0xbdd65962	-0.10466267
60	0xbdf2c34b	-0.118536554
61	0xbed56d93	-0.4168516
62	0xbec2a4f1	-0.38016465
63	0x3f26304b	0.6491744
64	0x3ecdc4df	0.40189263
65	0xbd8d50c2	-0.06900169
66	0xbdd6b708	-0.10484129
67	0x3e2e4d94	0.17021781
68	0x3e1176a7	0.14205419
69	0xbe4ada4d	-0.19809838
70	0x3e7a52c3	0.24445634
71	0xbf2f54f3	-0.68489
72	0x3e290e9e	0.16509482
73	0x3e9bf0d8	0.30457187
74	0xbda7b295	-0.08188359
75	0x3e1a2549	0.15053286
76	0x3e235be1	0.15953018
77	0x3ef431f0	0.4769435
78	0xbdb8aba6	-0.09017114
79	0xbc5645d7	-0.013078175
80	0xbe411f75	-0.18859656
81	0x3e5fb077	0.2184466
82	0xbddca215	-0.10773102
83	0xbf1f785c	-0.6229303
84	0xbde51c6b	-0.11187061
85	0xbe4f780b	-0.20260637
86	0xbd7244d8	-0.059147686
87	0x3d0c511e	0.034257047
88	0xbe663cba	-0.22484103
89	0xbf09897d	-0.53725415
90	0xbe755c8f	-0.2396109
91	0xbda4f3e3	-0.0805433
92	0xbe8e9e37	-0.27855083
93	0x3dad4855	0.08461062
94	0x3edb47e7	0.42828295
95	0xbef9fa13	-0.48823604
96	0xbe616d1c	-0.22014278
97	0x3ed66541	0.41874126
98	0xbd92fb35	-0.0717682
99	0xbe208036	-0.15673909
100	0xbdc86e9e	-0.097867236
101	0x3e0c6deb	0.13713805
102	0xbe15a457	-0.14613472
103	0x3e345289	0.1760961
104	0x3ebf70c9	0.37390736
105	0x3e9761ce	0.29566807
106	0x3e84dbc0	0.25948906
107	0xbe327802	-0.17428592
108	0x3e00e9eb	0.12589233
109	0x3ee69cd2	0.4504152
110	0x3e14f701	0.1454735
111	0x3eccdf12	0.4001394
112	0xbeef3f0d	-0.4672779
113	0x3dd06d4a	0.10177095
114	0x3e669ee8	0.22521555
115	0xbecdb1b8	-0.4017465
116	0x3ec013b0	0.3751502
117	0x3d9b459c	0.07581636
118	0x3d88432a	0.066534355
119	0xbdf6859b	-0.12037202
120	0xbe834e91	-0.2564588
121	0x3f45a77a	0.77208674
122	0xbe7f12d5	-0.24909528
123	0x3ecb1024	0.39660752
124	0x3ef1c371	0.47219422
125	0xbd3abe41	-0.045591597
126	0xbe293d65	-0.16527326
127	0x3dcc3ef2	0.09972943
128	0xbe480849	-0.1953441
129	0xbe47532e	-0.19465324
130	0x3f09fa5a	0.5389763
131	0xbe04072d	-0.12893362
132	0xbd88bf14	-0.0667707
133	0xbeca00c3	-0.39453706
134	0x3de6de66	0.11272888
135	0x3d8f6d1c	0.07003233
136	0x3ece03d3	0.40237293
137	0xbd2d31bc	-0.04228376
138	0x3f1457ef	0.57946676
139	0x3e2cec18	0.16886938
140	0xbc88560f	-0.016642598
141	0xbe6f00b6	-0.23340115
142	0x3edc1068	0.42981267
143	0x3ea77dc1	0.3271313
144	0x3f2551c0	0.64577866
145	0xbe6935b6	-0.22774395
146	0x3e9a39f0	0.30122328
147	0xbeeadc3d	-0.45871153
148	0xbe67cfaf	-0.22637819
149	0xbee06aa5	-0.43831363
150	0x3e0796bb	0.13241093
151	0xbec2eca0	-0.38071156
152	0x3e97d0e7	0.29651567
153	0xbdacf328	-0.08444816
154	0x3e98b506	0.2982561
155	0xbe9d2029	-0.306886
156	0x3ee4609e	0.44604963
157	0x3dd96ce2	0.10616471
158	0x3eac49fd	0.336502
159	0x3d007155	0.03135808
160	0xbdccb581	-0.099955566
161	0x3dec8326	0.11548452
162	0xbdab0ac8	-0.08351666
163	0x3e48e9d7	0.19620453
164	0xbee878f3	-0.45404777
165	0xbf182ffe	-0.5944823
166	0xbd96226f	-0.073307864
167	0x3e7f3add	0.24924798
168	0x3efaa483	0.48953637
169	0x3d32a92e	0.043618374
170	0xbe32f7dd	-0.17477365
171	0x3e4833f5	0.1955107
172	0xbe5441b7	-0.20728193
173	0xbe6eb680	-0.23311806
174	0x3e5639c2	0.2092047
175	0xbe7fbe2b	-0.24974887
176	0xbd417044	-0.047226205
177	0x3bd11f9e	0.006381943
178	0x3dbd0926	0.092302606
179	0xbde560dc	-0.11200115
180	0xbf10dafc	-0.56584144
181	0xbf0785f3	-0.52938765
182	0x3e662168	0.22473681
183	0xbdcb1859	-0.09916753
184	0xbe35c395	-0.1775039
185	0xbdb70a97	-0.08937567
186	0x3eab068a	0.33403426
187	0x3e7b58c6	0.24545583
188	0x3e37a024	0.17932183
189	0xbdb2adcd	-0.08724556
190	0xbd38d9a7	-0.045129444
191	0x3f231fbd	0.63720304
192	0x3c82a5b5	0.015948156
193	0xbdb78f30	-0.08962858
194	0x3e72e8a0	0.23721552
195	0xbdebc794	-0.11512676
196	0xbe567611	-0.20943476
197	0xbe9807ca	-0.29693443
198	0x3c89eaa3	0.016835516
199	0x3e9ee53c	0.31034267
200	0x3efe7768	0.49700475
201	0xbdc066bb	-0.09394594
202	0x3ea93fe8	0.3305657
203	0x3d58d145	0.05293395
204	0xbd81d3ed	-0.0633925
205	0xbdc169b7	-0.09443992
206	0xbe8b8c91	-0.2725568
207	0xbd8c4d75	-0.06850711
208	0xbd8bd055	-0.068268456
209	0xbd78283f	-0.060585257
210	0xbe55fcc8	-0.2089721
211	0xbe834a01	-0.25642398
212	0x3d439d81	0.04775763
213	0x3eaefcf2	0.34177357
214	0x3f051697	0.51987594
215	0xbe80d372	-0.2516132
216	0xbd83b751	-0.06431449
217	0xbe436255	-0.1908048
218	0xbe8b85d6	-0.27250546
219	0xbf5c789e	-0.8612155
220	0xbe1800e9	-0.14844097
221	0xbc94ce2d	-0.018164719
222	0xbee8a3e8	-0.4543755
223	0x3dbbedd4	0.091762215
224	0xbd6ecb26	-0.058299206
225	0xbc2d1cd3	-0.010565954
226	0xbdacff13	-0.08447089
227	0xbd492201	-0.049104694
228	0xbed879b7	-0.4228036
229	0xbd9f160f	-0.07767879
230	0xbeb1e517	-0.34745094
231	0xbf1557dd	-0.58337194
232	0x3f37b07f	0.71753687
233	0xbd3aa6bc	-0.045569167
234	0xbe88e4f8	-0.2673719
235	0xbe6d70aa	-0.23187509
236	0x3d6f950c	0.05849175
237	0xbe027665	-0.12740476
238	0xbe813050	-0.25232172
239	0x3f028a4d	0.5099228
240	0xbe911752	-0.28338104
241	0xbe950bba	-0.2911051
242	0xbea89bd4	-0.32931387
243	0x3e384dd2	0.17998436
244	0xbe079519	-0.1324047
245	0xbe97ca5e	-0.2964658
246	0xbe728a2c	-0.23685521
247	0xbdd4a155	-0.10382334
248	0xbd40c4ef	-0.04706281
249	0x3c32df28	0.010917462
250	0x3db55d4b	0.08855685
251	0x3d7d1769	0.061789904
252	0x3e7a0a1c	0.24417919
253	0x3f1b4541	0.6065255
254	0xbe524c0b	-0.2053682
255	0xbce92d8c	-0.028464101

fc2.weight f4 [128, 256]
0	0xbd9eaaeb	-0.07747444
1	0xbdba22ea	-0.090886906
2	0x3a3e8402	0.00072675955
3	0xbdb7d8cd	-0.08976898
4	0x3db85808	0.09001166
5	0x3e2032c0	0.1564436
6	0xbd26aba8	-0.040691048
7	0xbd7e31b7	-0.06205913
8	0xbde69b10	-0.112600446
9	0xbcbcfeea	-0.023070771
10	0xbe0f3608	-0.13985455
11	0xbd960d89	-0.073268004
12	0x3cc60e95	0.024176875
13	0xbd312d64	-0.04325618
14	0xbd8154b5	-0.06314985
15	0xbd3f3d8e	-0.046689562
16	0xbb033a8d	-0.0020023913
17	0xbc907968	-0.017636016
18	0x3d4eafb8	0.050460547
19	0xbdf51611	-0.119670995
20	0xbd995d70	-0.07488525
21	0xbd827e4b	-0.06371745
22	0xbd0b087f	-0.03394365
23	0x3d8e6c92	0.06954302
24	0xbe3a54a4	-0.1819635
25	0x3cde66f7	0.027148707
26	0x3b96daf5	0.0046037384
27	0xbcf91a24	-0.030407973
28	0xbd5670e6	-0.052353762
29	0x3c694c3b	0.014239366
30	0x3ddb873b	0.107191525
31	0xbc8dc2ba	-0.017304767
32	0x3c7b9053	0.015354234
33	0x3d143d13	0.036191057
34	0x3db71c46	0.089409396
35	0xbcbc1f36	-0.022964101
36	0x3c873891	0.016506465
37	0xbd5af0e0	-0.053452373
38	0x3da656f4	0.08122054
39	0x3d37fe89	0.044920478
40	0xbdd5026e	-0.10400854
41	0xbccc5bb5	-0.024946073
42	0x3d4d390e	0.05010324
43	0x3d533cd5	0.051571686
44	0xbcd4dacd	-0.025983239
45	0xbdfcb3f0	-0.12339008
46	0xbe766e9b	-0.2406563
47	0xbdef56f3	-0.11686506
48	0xbe184ce2	-0.14873078
49	0xbd8fbba3	-0.07018211
50	0x3c40974d	0.011754823
51	0xbe5a2f09	-0.21307005
52	0x3dca255e	0.098704085
53	0xbd45c477	-0.048283067
54	0x3b72cfa8	0.0037050042
55	0xbe23b9df	-0.15988873
56	0xbb51c74c	-0.003200966
57	0x3dc9dc4e	0.09856473
58	0x3d82aef0	0.06381023
59	0x3e76cc28	0.24101317
60	0xbe447ca0	-0.19188166
61	0x3d9dba5f	0.07701563
62	0x3e815f15	0.25267854
63	0x3d85bf27	0.065306
64	0x3ba87bd3	0.005141714
65	0xbcc658ab	-0.024212202
66	0xbda58353	-0.08081689
67	0x3ceb0ef5	0.028693656
68	0xbd928dad	-0.07155929
69	0x3dc90bfd	0.0981674
70	0x3e0b22a1	0.13587429
71	0xbc3198b7	-0.010839633
72	0xbd554858	-0.052070946
73	0xbdbd2bc8	-0.09236866
74	0xbd87c56c	-0.06629452
75	0xbdcbdff1	-0.09954823
76	0x3b94a1c5	0.004535886
77	0x3d7c0a76	0.061533414
78	0xba5f2dfa	-0.0008513626
79	0xbdb3784c	-0.08763179
80	0x3d8620c2	0.06549217
81	0xbcf072b3	-0.029351568
82	0x3d90bdd2	0.07067455
83	0x3d078c85	0.033092994
84	0xbb491104	-0.0030680308
85	0x3c91cb82	0.017797235
86	0xbd02284a	-0.031776704
87	0x3d49bce8	0.04925242
88	0x3d88b66d	0.0667542
89	0xbd8a88f3	-0.06764402
90	0x3d18d1e8	0.037309557
91	0x3d11423f	0.035463568
92	0xbe0f671f	-0.14004181
93	0xbdd107da	-0.10206576
94	0x3d0f49f8	0.03498265
95	0xbdc078b2	-0.09398021
96	0x3d937bf9	0.0720138
97	0xbe433bd5	-0.19065793
98	0xbdd10633	-0.102062605
99	0xbd7eb89a	-0.06218777
100	0xbc673811	-0.014112488
101	0xbdcc4bc6	-0.0997539
102	0xbdcd1435	-0.1001362
103	0xbdf2657a	-0.11835761
104	0x3d8214a2	0.06351592
105	0xbe202acd	-0.15641327
106	0xbd869166	-0.06570701
107	0xbdcc7930	-0.09984052
108	0x3cb4f6d7	0.022090359
109	0xbe0e2a3c	-0.13883299
110	0x3d1f3e7c	0.03887795
111	0x3d75a18a	0.05996851
112	0xbdc224f2	-0.09479703
113	0xbca0929b	-0.019601157
114	0xbe0c9e6f	-0.13732313
115	0x3d877a46	0.06615119
116	0xbc69dc54	-0.014273722
117	0x3dea60fd	0.1144428
118	0x3c945ec4	0.018111594
119	0x3e434ab2	0.19071463
120	0xbdf05fc3	-0.11737015
121	0xbd4c2890	-0.04984337
122	0x3d55250a	0.052037276
123	0xbd176b77	-0.03696772
124	0x3e2d2247	0.16907607
125	0x3d1953af	0.037433323
126	0x3d8fe74c	0.07026538
127	0xbd957365	-0.072974004
128	0xbd21704b	-0.03941373
129	0xbda487dd	-0.08033726
130	0xbb16560a	-0.0022939467
131	0xbce6e75f	-0.028186498
132	0x3cf13d21	0.029448094
133	0x3c8f89ee	0.017521825
134	0x3c543cdd	0.012953964
135	0xbd1aa0d9	-0.037751053
136	0xbce4b582	-0.02791858
137	0x3d4a040a	0.04932026
138	0xbe1c96da	-0.1529192
139	0xbe11eb30	-0.14249873
140	0xbe5ec90e	-0.21756384
141	0x3da1369e	0.078717455
142	0x3d77d928	0.06050983
143	0x3d320de0	0.043470263
144	0x3b884936	0.004159118
145	0x3e2a2e50	0.1661923
146	0x3e85e14d	0.26148453
147	0xbe131363	-0.14362864
148	0xbd04d463	-0.03242911
149	0xbd5e569e	-0.054281823
150	0xbd97ef07	-0.07418638
151	0xbd43c81f	-0.047798272
152	0x3c102ab9	0.008799248
153	0xbdeee962	-0.11665608
154	0xbd8dae8b	-0.06918057
155	0xbcdd459c	-0.027010731
156	0xbe222a13	-0.15836363
157	0xbd2b3852	-0.041801758
158	0x3df67f93	0.120360516
159	0xbd5078a3	-0.0508963
160	0x3e43203c	0.19055265
161	0xbdc664bf	-0.096871845
162	0x3d22204c	0.039581582
163	0xbcf1c426	-0.029512476
164	0x3dc5655d	0.09638474
165	0x3d8ae0c7	0.06781154
166	0x3d661dab	0.056180637
167	0x3d7a3ce2	0.06109322
168	0xbe6ab0c6	-0.22918996
169	0x3e37cce0	0.17949247
170	0xbd10631c	-0.035250768
171	0xbd466964	-0.048440352
172	0xbd07c7bf	-0.033149477
173	0xbca119ac	-0.019665562
174	0xbd95d6d1	-0.073163636
175	0x3def8395	0.11695019
176	0xbd76a8bd	-0.060219515
177	0xbdb5f349	-0.088842936
178	0x3c961e6c	0.018325053
179	0xbdee8429	-0.11646301
180	0xbdb5bbcd	-0.08873711
181	0x3e08f7dc	0.13375801
182	0x3c0f225a	0.008736217
183	0xbd358ab4	-0.04432173
184	0x3df94761	0.121718176
185	0x3c18827a	0.009308452
186	0xbb9d4e89	-0.004800622
187	0xbd807a13	-0.06273284
188	0x3b1126c1	0.0022148343
189	0xbddb571e	-0.10709976
190	0x3b8c087b	0.004273472
191	0xbc635481	-0.013875128
192	0xbdc4b28c	-0.096043676
193	0x3d1b33d4	0.037891224
194	0xbe38a8f6	-0.18033203
195	0x3d8db558	0.06919354
196	0x3e114011	0.14184596
197	0xbe32eaea	-0.17472425
198	0xbd6dc972	-0.05805344
199	0xbd810ef4	-0.0630168
200	0xbd69f22a	-0.05711571
201	0xbd226bb2	-0.039653488
202	0x3e5b66cc	0.21425933
203	0xbe1c84d2	-0.15285042
204	0xbe35fc8c	-0.1777212
205	0x3e2e5401	0.17024232
206	0xbd5ef0db	-0.054428916
207	0x3c9bae62	0.01900405
208	0x3db6e1ff	0.08929824
209	0xbcc38399	-0.023866462
210	0x3b08cbdf	0.002087347
211	0xbd0d7c4e	-0.034542374
212	0x3d28e256	0.041231476
213	0xbd21b67a	-0.039480664
214	0x3d540c5d	0.051769603
215	0xbbf83524	-0.007574694
216	0x3e0520cb	0.13000791
217	0xbd0159b9	-0.031579707
218	0x3e3e2b5b	0.18571226
219	0xbcee3efe	-0.029082771
220	0x3c5eb0af	0.013591929
221	0xbe50d1e9	-0.20392574
222	0x3d034932	0.032052226
223	0x3da9ecc4	0.082971126
224	0x3d1b5e30	0.03793162
225	0x3df00a91	0.117207654
226	0xbe1cf39b	-0.15327303
227	0xbda35e13	-0.079769276
228	0x3d3a6955	0.04551061
229	0xbd91d6c0	-0.071210384
230	0xbd31e493	-0.043430876
231	0xbcf6c65f	-0.030123888
232	0x3d87c2bf	0.06628942
233	0x3d880466	0.06641464
234	0xbdd7ec5b	-0.10543128
235	0x3cbb8a2a	0.02289303
236	0x3db84e93	0.08999362
237	0xb9f1323a	-0.00046004524
238	0xbcfb439e	-0.03067189
239	0x3d0c93c3	0.034320604
240	0x3c49775c	0.012296524
241	0x3e1f6b86	0.1556836
242	0xbd1a4ef1	-0.03767294
243	0x3d245f64	0.040130034
244	0x3d8dcb5d	0.06923554
245	0x3ddd8498	0.10816306
246	0x3d32531d	0.043536294
247	0xbd01b021	-0.03166211
248	0x3d73d7c1	0.05953193
249	0xbe0d70f8	-0.13812625
250	0xbdd2350d	-0.10264025
251	0xbbe87095	-0.007093499
252	0xbdfc5af7	-0.12322038
253	0x3dac834b	0.0842348
254	0x3d64df38	0.05587694
255	0xbd6da841	-0.058021788

fc2.bias f4 [128]
0	0xbce98de7	-0.028510047
1	0xbd15e189	-0.03659204
2	0xbe190e39	-0.14946832
3	0xbd019f46	-0.031646036
4	0x3e921ca6	0.28537482
5	0xbd292959	-0.041299198
6	0xbcfaea9a	-0.030629445
7	0xbd5bb82a	-0.05364243
8	0xbc9d9723	-0.019237107
9	0xbd01fe3f	-0.03173661
10	0x3c14243a	0.00904184
11	0xbd00bdf8	-0.03143117
12	0xbd8ecb41	-0.06972361
13	0x3e688f37	0.22710882
14	0xbd55264e	-0.052038483
15	0x3e6f5eab	0.23375957
16	0x3e93908a	0.28821212
17	0xbd02187f	-0.031761643
18	0xbca398f4	-0.019970395
19	0xbd2da8a4	-0.042397156
20	0xbd4ce7cd	-0.05002575
21	0xbe60d22e	-0.21955177
22	0x3edad8c0	0.42743492
23	0xbd6d4dd7	-0.057935562
24	0xbcebd82d	-0.028789604
25	0xbdb043b4	-0.08606663
26	0xbd01e2b3	-0.031710338
27	0xbe3c00ec	-0.18359727
28	0xbd4b30eb	-0.0496072
29	0xbd01fad9	-0.031733368
30	0x3ec98b72	0.393642
31	0xbd22cf5d	-0.03974854
32	0xbd020e44	-0.031751886
33	0xbd0205de	-0.031743877
34	0xbcf4b67e	-0.029872175
35	0xbd672aae	-0.056437187
36	0xbc8b8672	-0.017031882
37	0xbd0a0e75	-0.033705194
38	0x3c8b8027	0.017028881
39	0xbcfe92cd	-0.03107586
40	0xbd298a59	-0.041391704
41	0xbd01eba1	-0.031718854
42	0xbd003a96	-0.031305872
43	0x3f1bc9bf	0.60854715
44	0x3ed814ac	0.4220327
45	0xbd578527	-0.05261722
46	0xbd009d46	-0.031399988
47	0xbe3e76e6	-0.18600044
48	0xbd7b3fd2	-0.06134016
49	0xbd2e4212	-0.04254348
50	0xbd0115ba	-0.03151486
51	0xbd020ca6	-0.031750344
52	0xbd809d26	-0.06279974
53	0xbd109231	-0.03529567
54	0xbd553fd8	-0.05206284
55	0xbd805211	-0.06265653
56	0xbd8fa33c	-0.07013556
57	0xbc9ec22a	-0.019379694
58	0xbd916c6f	-0.0710076
59	0xbd0b97c7	-0.034080293
60	0xbd021eff	-0.03176784
61	0xbd651d60	-0.055936217
62	0xbcd10e74	-0.025519587
63	0xbd267772	-0.040641256
64	0xbd5cf21c	-0.05394183
65	0x3f09c428	0.53814936
66	0xbd489a90	-0.048975527
67	0x3f1bde40	0.60886
68	0xbd74e7f1	-0.05979151
69	0x3c90496e	0.017613139
70	0xbd0214d5	-0.03175815
71	0x00000000	0.0
72	0xbcfd3bf0	-0.03091237
73	0xbd985fbd	-0.07440136
74	0xbd15e006	-0.0365906
75	0xbd7358bb	-0.05941079
76	0xbd41cb5a	-0.04731307
77	0xbbd19279	-0.0063956347
78	0xbd16a6bc	-0.036780104
79	0xbcfad7a2	-0.0306204
80	0xbd3711d4	-0.044694737
81	0x3ece5423	0.40298566
82	0xbd655eaa	-0.05599848
83	0xbd915ceb	-0.07097801
84	0xbd01a785	-0.0316539
85	0xbcd51903	-0.026012903
86	0xbcabdf98	-0.020980641
87	0xbd013323	-0.03154291
88	0xbcbb8de1	-0.022894802
89	0xbd4eddae	-0.05050438
90	0xbd3c5dc3	-0.045987856
91	0x3dbbfc1c	0.091789454
92	0xbd8402c7	-0.06445842
93	0xbd01c5de	-0.03168284
94	0xbd8cb7d5	-0.06871001
95	0x3ebed0e5	0.3726875
96	0xbb364b8f	-0.0027816033
97	0xbd1a9aac	-0.037745163
98	0xbcf6610b	-0.03007557
99	0xbd2c1768	-0.04201451
100	0xbc53fb0a	-0.01293827
101	0xbd0a6f9c	-0.033797845
102	0x3e3143bf	0.17311
103	0x3ddce5c1	0.107860096
104	0xbd021966	-0.031762503
105	0x3f35798a	0.7088858
106	0x3e9ff0f1	0.3123851
107	0xbd32dda4	-0.043668404
108	0xbd451d39	-0.048123572
109	0x00000000	0.0
110	0xbd021468	-0.031757742
111	0xbcd1f20a	-0.025628109
112	0xbd79e86b	-0.061012667
113	0x3ef2480d	0.47320595
114	0xbd81c81c	-0.06336996
115	0x3e93027a	0.28712827
116	0xbec3b945	-0.38227287
117	0xbcab3124	-0.020897456
118	0x00000000	0.0
119	0xbd0218e5	-0.031762023
120	0xbd7eec3e	-0.062237017
121	0x3de96819	0.11396808
122	0xbcff5cb8	-0.031172141
123	0xbd010d78	-0.031506985
124	0x3f250936	0.6446718
125	0xbdcf6a48	-0.101276934
126	0x3e7d0b68	0.24711382
127	0xbd811d0f	-0.063043706

q_values.weight f4 [3, 128]
0	0x3d8e6500	0.06952858
1	0x3e1b89fb	0.15189354
2	0xbd8f946d	-0.07010732
3	0x3dc396c6	0.09550242
4	0xbf5d588d	-0.8646324
5	0x3d65e00c	0.05612187
6	0xbd1ae6cf	-0.037817772
7	0x3df19231	0.11795462
8	0x3e0e9b61	0.1392646
9	0x3d7d4f44	0.06184317
10	0xc097a93c	-4.7394085
11	0xbcff5078	-0.0311663
12	0x3e0a997f	0.13535117
13	0xbfce5549	-1.6119777
14	0xbe2cc807	-0.1687318
15	0xbf703b36	-0.9384035
16	0x3e3ca7a0	0.18423319
17	0x3db68fca	0.08914144
18	0xbd6b4579	-0.0574393
19	0x3d9047cb	0.070449434
20	0xbb56e417	-0.003278976
21	0x3f01d5ab	0.50716656
22	0xbfa31231	-1.2739927
23	0x3d9d2ac9	0.07674176
24	0xbe5da50d	-0.21644993
25	0xbdd84981	-0.10560895
26	0xba4d4eca	-0.000783187
27	0x3f625db3	0.88424224
28	0x3dbcb05f	0.092133276
29	0x3adb84cb	0.0016747949
30	0xbf003639	-0.5008274
31	0xbdb7999a	-0.08964844
32	0xbddccf3e	-0.10781716
33	0xbe219f18	-0.15783346
34	0x3db0d968	0.08635217
35	0x3de1b39f	0.11020588
36	0x3dfa191f	0.12211823
37	0x3e34a324	0.17640358
38	0x3c5a5ed5	0.013328274
39	0x3df2b9dc	0.11851856
40	0x3d65061a	0.055914022
41	0xbd08397c	-0.033257946
42	0xbcecbfef	-0.028900115
43	0xbef8e94e	-0.48615497
44	0xbf117dbd	-0.56832486
45	0x3d8b7ea7	0.068112664
46	0x3da9072a	0.082533196
47	0x3f88f86d	1.0700814
48	0x3cf90b12	0.030400787
49	0xbd7172a8	-0.058947235
50	0xbd1164cc	-0.035496518
51	0x3dbe7d0c	0.093011945
52	0xbde2c7ad	-0.110732414
53	0xbe03ae20	-0.12859392
54	0x3e2478a0	0.1606164
55	0xbda894cf	-0.08231508
56	0xbd72b1a6	-0.05925145
57	0x3e053b5d	0.13010927
58	0x3daef98c	0.08543691
59	0x3a9badd9	0.0011877372
60	0x3d5619f3	0.05227084
61	0x3e2ff5c8	0.17183602
62	0x3e11ab6c	0.14225549
63	0x3e2ba110	0.16760659
64	0x3e31cb6e	0.17362759
65	0xbeff36fc	-0.49846637
66	0xbcee17dc	-0.029064111
67	0xbee92aa1	-0.45540336
68	0xbe0421e3	-0.12903552
69	0x3b7d20c3	0.0038624264
70	0xbdf59520	-0.11991334
71	0x3e3fdb37	0.18735968
72	0x3d22ac90	0.03971535
73	0x3c8ddb1a	0.01731639
74	0x3e664951	0.22488905
75	0xbd36aa2e	-0.04459589
76	0x3db6227e	0.088932976
77	0x3dfea555	0.12433878
78	0x3cabd54f	0.020975737
79	0x3d8e4ad2	0.069478646
80	0xbc8afa32	-0.016965006
81	0xbf22e699	-0.63633114
82	0x3c6a2366	0.014290666
83	0x3e195d39	0.14976968
84	0xbe36a5e2	-0.17836717
85	0xbd8b9309	-0.06815154
86	0xbce4d550	-0.027933747
87	0x3e5a2647	0.21303664
88	0xbd3d133a	-0.046160914
89	0xbe152067	-0.14563142
90	0xbe4a04b8	-0.19728363
91	0xbb679dc9	-0.003534185
92	0x3e089056	0.1333631
93	0x3e151861	0.14560081
94	0xbdaf4d51	-0.08559669
95	0xc015d553	-2.3411453
96	0xbcd72166	-0.026261043
97	0x3e24a22a	0.16077486
98	0xbdc8e32e	-0.09808956
99	0x3c6c2f07	0.014415509
100	0x3c3fab27	0.011698521
101	0x3e0507b1	0.12991215
102	0xbf39d651	-0.72592646
103	0xbe83f5bb	-0.25773415
104	0xbe33bc3c	-0.17552274
105	0xbeefc042	-0.4682637
106	0xbf892273	-1.0713638
107	0x3d87d19d	0.066317774
108	0xbe4f6cc5	-0.20256336
109	0x3e057851	0.13034178
110	0xbe18dc08	-0.14927685
111	0x3cbfde98	0.02342157
112	0xbe0258b7	-0.12729155
113	0xbf10cb6d	-0.56560403
114	0xbc972f38	-0.018455133
115	0x3fafaa13	1.3723778
116	0x3d9ae273	0.07562723
117	0xbd5c935e	-0.053851478
118	0xbe0a7d40	-0.13524342
119	0x3d15bbfc	0.03655623
120	0x3cc12380	0.023576498
121	0xc018dfaf	-2.3886526
122	0xbd1fd659	-0.039022777
123	0xbe56592d	-0.20932455
124	0xbec8e798	-0.39239192
125	0xbd0f1258	-0.034929603
126	0xbea6765e	-0.32512182
127	0x3b77e765	0.003782713
128	0xbd828c0d	-0.06374369
129	0xbde8beec	-0.113645405
130	0x3e6e81b8	0.23291671
131	0x3e58e17d	0.21179767
132	0xbf39f3d1	-0.7263766
133	0xbd8253f7	-0.06363671
134	0x3d185b72	0.037196584
135	0xbcf06eb6	-0.029349666
136	0x3d90e19d	0.07074282
137	0xbd7f7a04	-0.062372223
138	0xc04c6328	-3.193552
139	0xbc9600f0	-0.018310994
140	0xbe403017	-0.18768345
141	0xbfb3dfb9	-1.405265
142	0x3cdfc2f2	0.027314637
143	0xbfa11cd8	-1.2586927
144	0x3e330b2a	0.17484728
145	0xbdbbd8ff	-0.09172248
146	0xbdf159a1	-0.117846735
147	0xbe03be18	-0.12865484
148	0x3b1352d0	0.002247978
149	0x3e84a1bc	0.25904644
150	0xbf86b00a	-1.0522473
151	0xbdb5af0e	-0.0887128
152	0x3dfc545a	0.12320776
153	0xbe315071	-0.17315842
154	0xbd96d990	-0.073657155
155	0x3f82073e	1.015846
156	0xbe5d758f	-0.21626876
157	0x3e1476d1	0.1449845
158	0xbf2294f3	-0.6350853
159	0x3dff8aa6	0.12477617
160	0xbdaa759b	-0.08323213
161	0xbe170e6d	-0.14751597
162	0x3cd6d8f6	0.026226502
163	0x3cf9e4ed	0.030504668
164	0xbe17785b	-0.14792006
165	0xbe215215	-0.15753968
166	0x3d4a88fb	0.04944704
167	0x3e0361b3	0.12830238
168	0xbcdc3f81	-0.02688575
169	0x3e0d69c7	0.13809882
170	0x3d624a14	0.055246428
171	0xbee13835	-0.43988195
172	0xbfaf122b	-1.367742
173	0xbdadf27f	-0.08493518
174	0x3d428594	0.04749067
175	0x3f73c179	0.9521709
176	0x3d80ff52	0.062986985
177	0xbdca6169	-0.09881861
178	0xbe0a10be	-0.13482949
179	0x3e21cf0b	0.15801637
180	0x3e2b5adc	0.16733879
181	0xbda97bb6	-0.08275549
182	0xbdd9cf42	-0.106352344
183	0x3e0a81d4	0.13526088
184	0x3df932cd	0.121678926
185	0xbdf10389	-0.117682524
186	0x3c19f30a	0.009396324
187	0x3dfb360e	0.122661695
188	0xbdbaf304	-0.09128383
189	0xbe0a496d	-0.13504572
190	0xbe490b49	-0.19633211
191	0xbe4d3fed	-0.20043917
192	0xbda824e3	-0.082101606
193	0xbefb9640	-0.4913807
194	0x3db9bf21	0.09069658
195	0xbed87fdd	-0.42285052
196	0xbd52d351	-0.05147106
197	0x3dda0122	0.10644747
198	0xbdb51e78	-0.08843702
199	0x3df42c5e	0.11922525
200	0x3d63a640	0.05557847
201	0xbd5b993b	-0.05361293
202	0xbd7fbd54	-0.062436417
203	0xbe0e070b	-0.13869874
204	0xbcacbb2d	-0.021085346
205	0xbd823992	-0.06358637
206	0x3bf6d50e	0.0075327223
207	0xbd633d9c	-0.055478677
208	0x3dd915bd	0.105998494
209	0xbf5438cd	-0.8289917
210	0xbd2e2422	-0.042514928
211	0xbc1078f0	-0.008817896
212	0xbe3be948	-0.18350708
213	0xbdcd758c	-0.10032186
214	0xbe07b50d	-0.13252659
215	0x3e208a35	0.15677722
216	0x3df39e94	0.11895481
217	0x3d772cbe	0.060345404
218	0x3d79a734	0.060950473
219	0x3c91129d	0.01770907
220	0xbd5c0086	-0.053711437
221	0x3df4f6ce	0.11961137
222	0xbe48c1f9	-0.19605245
223	0xbfed3c76	-1.8534076
224	0x3dfdd60a	0.1239434
225	0xbd46b727	-0.04851451
226	0xbd77b5f4	-0.06047626
227	0x3ddc9036	0.107696936
228	0xbc898c4f	-0.016790537
229	0x3d47d347	0.048785474
230	0xbfa05fc4	-1.2529225
231	0xbf1aa003	-0.6040041
232	0x3e3180db	0.1733431
233	0xbee1dfd1	-0.4411607
234	0xbf704847	-0.93860286
235	0xbbe1977c	-0.0068845134
236	0x3d7a98bc	0.061180815
237	0xbe5907eb	-0.21194427
238	0xbe33e356	-0.1756719
239	0x3d8611b7	0.065463476
240	0x3ccd7952	0.025082264
241	0xbf192ace	-0.5983094
242	0xbd218fbc	-0.039443716
243	0x3fbe5382	1.4869235
244	0x3ec3d677	0.3824956
245	0x3e068d1a	0.13139763
246	0x3dc5ff36	0.09667818
247	0x3df88236	0.12134211
248	0x3e1ae637	0.15126882
249	0xbfdcbde6	-1.7245452
250	0x3dce365a	0.100689605
251	0xbd1151bc	-0.03547834
252	0xbec90c10	-0.39267015
253	0x3d42510a	0.047440566
254	0xbf074d06	-0.52851903
255	0xbdc080aa	-0.09399541

q_values.bias f4 [3]
0	0xbf2be14e	-0.6714066
1	0xbf0af839	-0.5428501
2	0xbf42d0ca	-0.76099837
